varRNN/VariationalRNN/VariationalRecurrentNeuralNetwork-master/saves/vrnn_state_dict_21.pth (torch, 92942 bytes, 30 tensors)

phi_x.0.weight f4 [32, 12]
0	0x3e6a31da	0.2287058
1	0xbd72a060	-0.059234977
2	0xbd9f3140	-0.077730656
3	0xbe866e31	-0.26255944
4	0x3d82b09e	0.06381343
5	0xbdb442fe	-0.0880184
6	0x3d991ca2	0.074761644
7	0x3e83586c	0.25653398
8	0xbe5568a2	-0.20840696
9	0x3e180768	0.14846575
10	0xbe19a18c	-0.15003031
11	0xbe37f54d	-0.17964669
12	0xbdac6fde	-0.084197745
13	0xbda576ac	-0.080792755
14	0x3e86516b	0.26233992
15	0x3d8de762	0.069288984
16	0xbc207b87	-0.009795076
17	0x3e6c657a	0.23085585
18	0xbb9322a5	-0.004490214
19	0x3e1abf67	0.15112077
20	0xbe67c712	-0.22634533
21	0xbe978ec1	-0.296011
22	0xbe8e1777	-0.27752277
23	0x3e8a87b6	0.27056664
24	0xbe543d14	-0.20726424
25	0x3e1135bc	0.14180654
26	0xbdca40c1	-0.09875632
27	0x3da4e7cc	0.08052024
28	0x3e011ffe	0.1260986
29	0xbe3bfa68	-0.18357241
30	0xbd8be29e	-0.06830333
31	0xbe8a1fbf	-0.26977345
32	0xbe714de6	-0.23564872
33	0xbc1d4078	-0.00959789
34	0xbce78801	-0.028263094
35	0x3e07e7d7	0.13272034
36	0xbe580baa	-0.210982
37	0x3e1cc64e	0.15310022
38	0x3e5acf74	0.213682
39	0xbe653170	-0.2238214
40	0xbd9309f0	-0.0717963
41	0x3c2817ef	0.010259612
42	0xbe5e26ab	-0.21694438
43	0xbe6246b9	-0.22097291
44	0x3d069f0c	0.032866523
45	0xbe69ca95	-0.22831185
46	0x3e805dc9	0.25071552
47	0xbe0d8dcc	-0.13823622
48	0x3c62dcc9	0.013846585
49	0x3e6963cf	0.2279198
50	0xbd83e221	-0.06439615
51	0x3e4da9ae	0.20084259
52	0x3d448a7c	0.04798363
53	0x3e984fd4	0.29748404
54	0x3e8f524f	0.27992484
55	0xba481347	-0.0007632267
56	0xbd76a234	-0.060213283
57	0x3e54b86a	0.20773473
58	0xbe09ba62	-0.13450006
59	0x3e1f8a10	0.1558001
60	0xbbe6d80f	-0.007044799
61	0xbe072e8b	-0.13201348
62	0x3e02a062	0.12756494
63	0x3e5ebe93	0.21752386
64	0xbe37235a	-0.1788458
65	0x3e190c7f	0.14946173
66	0x3ed6f2e6	0.41982192
67	0xbe59b7de	-0.21261546
68	0xbd89b27f	-0.067234986
69	0x3e81f566	0.25382537
70	0xbe856a5b	-0.26057705
71	0x3e5282d3	0.20557718
72	0xbde9dff0	-0.11419666
73	0x3dbf89b4	0.09352437
74	0xbe1594a4	-0.14607483
75	0xbe8698f8	-0.2628858
76	0xbce5ecb1	-0.028066965
77	0x3db1fd70	0.086909175
78	0xbe888e47	-0.2667105
79	0x3e924e35	0.28575292
80	0x3e3b8dd2	0.18315819
81	0x3daa4b99	0.083152
82	0x3e863652	0.26213318
83	0x3d51b765	0.05120029
84	0xbe739119	-0.23785819
85	0xbde6bb35	-0.11266176
86	0x3d2000b3	0.039063167
87	0x3d859011	0.06521619
88	0x3e1d7218	0.15375555
89	0xbd76fcff	-0.06029987
90	0x3e748aa4	0.23881012
91	0x3d2ca456	0.04214891
92	0x3d1bd870	0.038048208
93	0x3e2d7f31	0.16943051
94	0x3e10814f	0.14111827
95	0x3b3f1f14	0.002916281
96	0x3dc64daa	0.09682782
97	0xbe043270	-0.12909865
98	0x3e22e47d	0.15907474
99	0x3e78d542	0.24300101
100	0xbd91b240	-0.071140766
101	0x3e8275fb	0.25480637
102	0x3e4e674d	0.20156594
103	0x3bf15dce	0.0073659187
104	0xbde216bb	-0.11039492
105	0xbdc45362	-0.095862165
106	0x3d92cf82	0.07168485
107	0xbda64236	-0.081180975
108	0xbdb81e9a	-0.08990212
109	0x3e75c59c	0.24001163
110	0xbde8290d	-0.11335955
111	0x3de8d6e8	0.11369115
112	0x3d253d3f	0.040341612
113	0x3e747d0d	0.23875828
114	0x3e35a3fe	0.1773834
115	0x3d5a3b2b	0.053279083
116	0xbe0bdf54	-0.13659412
117	0x3e519e2e	0.20470497
118	0x3e8eb2f5	0.27870908
119	0xbe2f0505	-0.17091759
120	0xbd5941d1	-0.053041283
121	0x3e3518b4	0.17685205
122	0x3e1e5fd2	0.1546624
123	0x3e635ce6	0.22203407
124	0x3da1e23b	0.07904478
125	0x3e7a61a5	0.24451311
126	0x3e6c8166	0.23096237
127	0x3db3992c	0.087694496
128	0xbe2a3de5	-0.16625173
129	0x3e3a4f45	0.18194301
130	0xbd4e4c41	-0.05036569
131	0xbdb62945	-0.0889459
132	0x3eaa2445	0.33230796
133	0x3e881024	0.26574814
134	0xbddd69c0	-0.10811186
135	0x3e646a70	0.22306228
136	0xbd7670c6	-0.060166143
137	0xbd14e665	-0.036352534
138	0xbd897f56	-0.067137405
139	0xbe0d5432	-0.13801649
140	0x3e4b6fdd	0.19866891
141	0xbd7846d4	-0.060614422
142	0xbdedd084	-0.11612037
143	0x3e8085cf	0.25102088
144	0xbe60d3c5	-0.21955784
145	0xbe8bee46	-0.27330226
146	0xbdf83100	-0.12118721
147	0xbd495a0c	-0.04915814
148	0x3e6c6504	0.2308541
149	0xbe62ae75	-0.22136863
150	0xbe77fed3	-0.24218301
151	0x3e851412	0.25991875
152	0xbe3487e8	-0.17629969
153	0x3d812fc2	0.06307937
154	0xbe539903	-0.20663838
155	0x3e5b3692	0.21407536
156	0xbe3d277a	-0.1847209
157	0x3e92f89f	0.28705308
158	0x3ce8caf3	0.028417086
159	0xbdad1ef3	-0.08453169
160	0xbe8aa3a9	-0.27077988
161	0x3da69ba4	0.08135155
162	0xbe08c9ef	-0.13358282
163	0xbe48d623	-0.19612937
164	0x3e939b9d	0.2882966
165	0xbe5438a5	-0.20724733
166	0x3e8f9394	0.2804228
167	0xbe0660e8	-0.13122904
168	0xbd9dd16f	-0.07705962
169	0xbe81e0d0	-0.2536683
170	0x3e5a1f22	0.21300939
171	0x3e59319d	0.21210332
172	0x3e2a4836	0.16629109
173	0xbe477926	-0.19479808
174	0x3e1e22e4	0.15442997
175	0x3e7e63db	0.2484278
176	0xbdbae2b6	-0.09125273
177	0xbe83d672	-0.25749546
178	0xbe265c10	-0.16246057
179	0x3e791fb2	0.24328497
180	0xbdcdc5bb	-0.1004748
181	0x3dca4068	0.09875566
182	0x3d613410	0.05498129
183	0x3e273bf5	0.16331466
184	0x3e821947	0.2540991
185	0x3c8dca76	0.017308455
186	0x3ec53e55	0.38524118
187	0x3e897390	0.2684598
188	0xbbdf255f	-0.006809875
189	0x3e16bd54	0.1472066
190	0xbe41a6ff	-0.1891136
191	0xbd13076c	-0.03589575
192	0xbdbf1b15	-0.09331337
193	0x3e2a4c87	0.16630755
194	0x3df18337	0.11792605
195	0x3dc3cc62	0.09560467
196	0x3e17d326	0.1482664
197	0x3de10e92	0.10989107
198	0xbe6ffa6f	-0.23435377
199	0x3d641116	0.055680357
200	0x3e41c7c8	0.18923867
201	0x3e3cce6c	0.18438119
202	0xbded6693	-0.1159183
203	0xbe03a8b0	-0.12857318
204	0x3e318a48	0.17337906
205	0x3e4b1a0b	0.19834153
206	0x3df8882c	0.12135348
207	0x3d660f59	0.05616698
208	0x3e2ff52c	0.1718337
209	0xbe84886c	-0.25885332
210	0x3d1c6dd8	0.038190693
211	0x3e118fc1	0.14214994
212	0xbe292fb2	-0.165221
213	0xbe5cde2c	-0.21569127
214	0xbdc4ca7a	-0.09608932
215	0xbe781d1f	-0.24229859
216	0xbc8e307b	-0.017357102
217	0xbe826c83	-0.25473413
218	0xbd09017c	-0.03344868
219	0x3dea29c8	0.114337504
220	0x3e582c3b	0.21110623
221	0xbce6ef96	-0.028190415
222	0xbdaa9253	-0.083286904
223	0xbe6b5e84	-0.22985274
224	0x3e5911cd	0.21198197
225	0xbe370e34	-0.17876512
226	0x3e56718f	0.20941757
227	0xbe8c72ba	-0.2743128
228	0xbca41779	-0.020030724
229	0xbc55dcff	-0.013053178
230	0xbe78b00f	-0.24285911
231	0xbe0c7f32	-0.13720396
232	0x3e1a02e3	0.15040164
233	0x3dbb5bd6	0.09148376
234	0x3d966656	0.07343738
235	0x3e5b2284	0.21399885
236	0xbe8df54a	-0.27726203
237	0x3d67dd1b	0.056607347
238	0xbe902380	-0.28152084
239	0x3d9352ec	0.071935505
240	0xbd12a82b	-0.03580491
241	0x3c9a9dcf	0.018874077
242	0xbc8eb336	-0.017419439
243	0x3e88f34c	0.2674812
244	0x3c8f48fe	0.01749086
245	0x3d60a308	0.05484298
246	0x3e9a80d3	0.3017641
247	0x3c14f4ab	0.0090915365
248	0x3db73afd	0.08946798
249	0x3e2ee5e2	0.17079881
250	0x3e28506f	0.16436933
251	0x3de13938	0.10997242
252	0x3e984576	0.29740494
253	0x3e144727	0.14480267
254	0xbd9139c0	-0.07091093
255	0x3e70a1b9	0.23499192

phi_x.0.bias f4 [32]
0	0x3e518e5e	0.20464465
1	0x3e2b0f1e	0.16704985
2	0xbe3f116e	-0.18658993
3	0xbe620d78	-0.2207545
4	0x3d2ede0f	0.04269224
5	0xbe1c1bdb	-0.15245001
6	0xbd9407f4	-0.072280794
7	0x3e0e7629	0.13912262
8	0x3dd51232	0.10403861
9	0xbd97465d	-0.073864676
10	0xbe41cc98	-0.18925703
11	0xbe0f070e	-0.13967535
12	0xbd33d15d	-0.043900836
13	0x3e941b24	0.28926957
14	0xbe563c98	-0.20921552
15	0xbe114168	-0.14185107
16	0x3e9cc58e	0.30619472
17	0x3e905078	0.28186393
18	0xbe179d59	-0.14806117
19	0x3dbb5733	0.09147491
20	0xbe6f5805	-0.2337342
21	0x3d67d944	0.056603685
22	0x3e21eece	0.15813753
23	0x3c97f749	0.018550532
24	0x3d9206c8	0.071302
25	0x3da92e79	0.08260817
26	0x3e1e4dda	0.15459386
27	0x3ac25c3a	0.0014828511
28	0xbe079f66	-0.132444
29	0x3e3a2365	0.18177564
30	0x3e08633f	0.1331911
31	0x3d9e9629	0.077434845

phi_x.2.weight f4 [32, 32]
0	0x3da99787	0.08280855
1	0x3e281b60	0.16416693
2	0x3cc6ee24	0.024283476
3	0x3e311380	0.17292595
4	0xbdf8778c	-0.12132177
5	0xbd21ec5b	-0.039532047
6	0xbd60f0a7	-0.054917004
7	0x3de7a30b	0.11310395
8	0xbdbc66ab	-0.0919927
9	0x3e10b872	0.1413286
10	0xbe64a14c	-0.22327155
11	0xbe47ee38	-0.19524467
12	0x3e0ff2f8	0.14057529
13	0x3dd7a585	0.10529617
14	0xbdc6605e	-0.09686349
15	0xbe15442a	-0.14576784
16	0x3dae91bc	0.085238904
17	0xbdefe967	-0.1171444
18	0xbe141683	-0.14461713
19	0xbe02503b	-0.12725918
20	0xbd6db3ee	-0.058032922
21	0x3e00885a	0.12552014
22	0x3e0d7cfc	0.13817209
23	0x3c6d6e26	0.014491593
24	0x3d795a05	0.060876865
25	0xbca2e50e	-0.019884612
26	0x3d63ca3a	0.05561278
27	0xbcfdbe41	-0.03097451
28	0x3e14a1de	0.14514872
29	0x3b2c899d	0.002632714
30	0xbd44a377	-0.048007455
31	0xbe25c83a	-0.16189662
32	0xbdc6fbac	-0.09715971
33	0xbd20a96b	-0.03922407
34	0xbe2f1ceb	-0.17100875
35	0xbd76914d	-0.060197163
36	0xbda156a0	-0.078778505
37	0xbd830cc2	-0.06398918
38	0xbe0a4fa0	-0.13506937
39	0x3cd8b35b	0.02645271
40	0xbe2f492c	-0.17117757
41	0x3c9d8937	0.019230468
42	0x3d7af068	0.061264426
43	0xbdb56bbc	-0.08858439
44	0xbdd45cb9	-0.10369248
45	0x3d38e4d2	0.045140095
46	0x3dff5285	0.12466911
47	0xbd1ee48f	-0.03879219
48	0x3e0ac660	0.13552237
49	0xbdaf200d	-0.08551035
50	0xbd39d3b6	-0.04536792
51	0x3e2f7198	0.17133176
52	0x3d4a32d3	0.049364876
53	0xbbedda34	-0.007258678
54	0xbe126c23	-0.14299063
55	0x3e18622f	0.14881204
56	0xbb235668	-0.0024923328
57	0x3df4589c	0.119309634
58	0xbd31eb44	-0.043437257
59	0x3d5667ba	0.052345015
60	0x3e342a40	0.17594242
61	0xbd9203eb	-0.071296535
62	0xbdcb50f5	-0.09927551
63	0xbd7af808	-0.061271697
64	0xbd2f3b24	-0.04278101
65	0x3c5d0f59	0.013492429
66	0xbd762621	-0.060094956
67	0x3e0db6cf	0.13839267
68	0xbc234a4c	-0.009966444
69	0x3da2d7cd	0.07951317
70	0xbd3cbb3c	-0.046076998
71	0xbe19f463	-0.15034632
72	0xbe22d6d8	-0.15902269
73	0xbdabfb5d	-0.08397553
74	0xbd089ac3	-0.033350717
75	0x3de08c2e	0.10964237
76	0x3db9be8b	0.09069546
77	0x3ddfbdc5	0.109248675
78	0xbd4dc8fb	-0.050240498
79	0x3e2388f9	0.1597022
80	0xbdcce9e0	-0.100055456
81	0xbd0cd9ce	-0.034387402
82	0xbe158e92	-0.14605168
83	0x3da43089	0.0801707
84	0xbe1f5515	-0.155598
85	0x3d1b3816	0.037895285
86	0xbd7f3467	-0.062305834
87	0x3e07ad66	0.1324974
88	0x3e060c21	0.13090564
89	0xbdf68290	-0.120366216
90	0x3e2d4b56	0.1692327
91	0xbe062edb	-0.13103811
92	0xbc9a012e	-0.01879939
93	0xbd6e1944	-0.058129564
94	0x3af875ab	0.0018955966
95	0xbd841ec6	-0.06451182
96	0x3d14c953	0.03632481
97	0x3c9a4b51	0.018834742
98	0xbdb87bb2	-0.09007968
99	0xbe2f91ef	-0.17145513
100	0xbdea9388	-0.114539206
101	0x3e0e634b	0.13905065
102	0xbd2a2441	-0.04153848
103	0xbdc5dc62	-0.09661175
104	0xbb3adc39	-0.002851261
105	0x3dd854ee	0.10563074
106	0x3d4ecc61	0.05048788
107	0xbe165471	-0.1468065
108	0x3dcd93d0	0.100379586
109	0x3c2cd15c	0.010547962
110	0x3d048676	0.032354794
111	0x3daaf802	0.08348085
112	0xbda9868a	-0.082776144
113	0x3d82569c	0.06364176
114	0xbe0ab457	-0.13545357
115	0x3ce4d8cc	0.027935408
116	0x3dc7a020	0.09747338
117	0x3cbdfff6	0.02319334
118	0xbd3881bb	-0.045045596
119	0xbd016f3d	-0.031600226
120	0x3e12ed94	0.14348441
121	0xbe00e65c	-0.12587875
122	0x3dd422b7	0.10358184
123	0xbd85b0f8	-0.06527895
124	0x3e296794	0.16543418
125	0xbd3d10f2	-0.04615874
126	0xbe083bd8	-0.13304079
127	0x3d707275	0.058702905
128	0x3d5fae81	0.05460978
129	0xbe072a5f	-0.13199757
130	0x3d399610	0.045309126
131	0xbd8a31fa	-0.067478135
132	0x3e04ea37	0.12979971
133	0x3d3af983	0.04564811
134	0xbdb6b813	-0.08921828
135	0xbd1daa68	-0.03849259
136	0x3d651237	0.055925574
137	0x3e232690	0.15932679
138	0xbdde7306	-0.10861783
139	0xbde4397d	-0.111437775
140	0x3c582b6a	0.0131939445
141	0xbd03eecb	-0.032210153
142	0xbd86d310	-0.06583226
143	0x3dbe2cd6	0.092858955
144	0x3d06da7b	0.032923203
145	0x3e069704	0.13143545
146	0xbdadcda3	-0.08486488
147	0xbdee7f1a	-0.116453364
148	0x3e4935d0	0.19649434
149	0x3e561706	0.2090722
150	0x3dff72d3	0.12473073
151	0x3e1243b1	0.14283635
152	0xbca919f7	-0.020642264
153	0xbd86671c	-0.06562635
154	0xbdc091d4	-0.094028145
155	0x3df1dc9f	0.11809658
156	0xbd1d5039	-0.038406584
157	0x3d0b3d5b	0.03399406
158	0x3c89556d	0.016764367
159	0x3e1be15d	0.15222688
160	0xbd9d194e	-0.07670842
161	0x3e267354	0.16254932
162	0x3ce7cfc2	0.028297309
163	0x3d54d39d	0.051959623
164	0x3ded5cdf	0.115899794
165	0x3ea6a4f4	0.32547724
166	0x3dd6dbe7	0.10491162
167	0x3d5c0a15	0.053720552
168	0x3ddaa272	0.10675515
169	0xbe493b37	-0.19651495
170	0xbc9fb7bc	-0.019496791
171	0x3dc411a8	0.0957368
172	0x3d817393	0.06320872
173	0x3dfc8b97	0.12331312
174	0xbd8c5ca9	-0.06853611
175	0xbe0da6a5	-0.13833101
176	0xbe235a41	-0.15952398
177	0xbdee6596	-0.1164047
178	0x3ceb2f89	0.02870919
179	0xbe06f791	-0.13180377
180	0x3cb37390	0.02190569
181	0x3de9a779	0.11408896
182	0x3e06459b	0.1311249
183	0x3de8bedd	0.11364529
184	0xbdd52b60	-0.10408664
185	0x3e10fab5	0.14158137
186	0x3cd311b3	0.025765276
187	0x3e313e20	0.17308855
188	0x3de4fe00	0.11181259
189	0xbe13950d	-0.14412327
190	0xbe453a77	-0.19260584
191	0x3d9b3184	0.07577804
192	0xbe267bbe	-0.16258141
193	0xbd43e44f	-0.047825154
194	0x3ddcb479	0.1077661
195	0x3afdea34	0.0019372166
196	0x3e4600cc	0.19336241
197	0x3ca8603e	0.020553704
198	0x3d4be31a	0.049777128
199	0x3e37636f	0.17909025
200	0xbde2420a	-0.11047752
201	0xbe1321ce	-0.14368364
202	0xbd528dc4	-0.05140473
203	0x3d3ddb40	0.04635167
204	0x3b44b332	0.0030014035
205	0x3da7d3dd	0.081947066
206	0x3c8154c9	0.015787499
207	0x3dab9b89	0.08379275
208	0xbd6d55b4	-0.05794306
209	0xbd50f082	-0.051010616
210	0x3ce39bbd	0.027784223
211	0xbd0eccad	-0.034863163
212	0x3d8d7931	0.06907881
213	0x3e1b7eb9	0.1518506
214	0xbde84ec6	-0.1134315
215	0xbcc316c7	-0.023814572
216	0x39f761fd	0.00047184518
217	0xbde085c6	-0.10963015
218	0xbe0cf015	-0.13763459
219	0x3da32e8c	0.079678625
220	0xbe0ee4b0	-0.13954425
221	0x3d1525bd	0.036412943
222	0x3d9bcb8a	0.07607181
223	0xbe1abdee	-0.15111515
224	0xbdce9ade	-0.10088132
225	0x3e194114	0.14966232
226	0x3e1506b8	0.14553344
227	0xbe006006	-0.1253663
228	0x3e29e176	0.16589913
229	0xbc0f6497	-0.00875201
230	0xbdd483c0	-0.10376692
231	0x3da7546a	0.081703976
232	0xbe2b7525	-0.16743906
233	0x3e115636	0.14193043
234	0xbc591a27	-0.013250864
235	0xbcecd25c	-0.0289089
236	0x3dda49b5	0.1065859
237	0xbe11e798	-0.14248502
238	0x3dbaf3af	0.0912851
239	0xbd97836d	-0.07398114
240	0x3cb79e45	0.022414336
241	0xbe0ac1ca	-0.13550487
242	0x3e094aa0	0.13407373
243	0x3c9b3b5e	0.018949207
244	0xbb636025	-0.0034694758
245	0xbda37a8a	-0.07982357
246	0x3d95b97d	0.0731077
247	0x3d91f541	0.071268566
248	0xbd993bad	-0.074820854
249	0x3e024871	0.12722947
250	0x3cd93150	0.026512772
251	0xbe092c63	-0.13395838
252	0x3cde5e0f	0.02714446
253	0x3bb8c3b8	0.005638566
254	0x3d4bf2c6	0.049792074
255	0xbd7f147d	-0.0622754

phi_x.2.bias f4 [32]
0	0x3e46b3a3	0.19404463
1	0xbe1e26af	-0.15444444
2	0x3c9f74ca	0.019464869
3	0xbba19903	-0.0049315705
4	0x3d9b8f71	0.07595719
5	0x3d72f538	0.05931589
6	0x3e17ea11	0.14835383
7	0x3daa98ea	0.08329947
8	0xbdcc42b6	-0.099736616
9	0xbdc87378	-0.09787649
10	0x3d4dff21	0.050292138
11	0xbc8cc57a	-0.017184008
12	0xbe00223f	-0.12513064
13	0xbe138e47	-0.14409743
14	0xbdb72b9f	-0.08943867
15	0x3d0888a2	0.03333343
16	0x3e0be599	0.13661803
17	0x3e8bf35d	0.2733411
18	0x3de2e29a	0.11078377
19	0x3d95e266	0.07318573
20	0x3db08337	0.08618777
21	0xbd82630b	-0.06366547
22	0xbc99b799	-0.018764304
23	0x3d2db37b	0.042407494
24	0x3e0002a5	0.12501009
25	0xbdfbb92c	-0.12291178
26	0xbe18fe6c	-0.14940804
27	0x3bfdf82d	0.007750532
28	0x3e03c947	0.1286975
29	0xbd0e80ad	-0.034790684
30	0xbe515756	-0.20443472
31	0xbd1a3a8c	-0.03765349

phi_z.0.weight f4 [32, 12]
0	0x3e1f9b8a	0.15586677
1	0xbe2fe6d5	-0.17177899
2	0x3c0515de	0.008122889
3	0xbba4710d	-0.0050183595
4	0x3d80016c	0.06250271
5	0xbcbcf057	-0.023063822
6	0xbdc652f5	-0.096837915
7	0xbe192401	-0.1495514
8	0xbd115947	-0.035485532
9	0x3d2d91b6	0.04237529
10	0x3a10dbc5	0.0005525912
11	0xbd5f8a02	-0.054574974
12	0xbd5e5bae	-0.05428665
13	0xbe23b035	-0.15985186
14	0xbcb3326f	-0.021874635
15	0x3d35c8ee	0.044381075
16	0x3e18e308	0.14930356
17	0x3e0325d9	0.12807406
18	0x3d447f93	0.047973227
19	0xbd15c6e3	-0.036566626
20	0xbcc03dc9	-0.023466961
21	0x3d3c91d8	0.046037525
22	0xbcadcd8c	-0.021216176
23	0x3e3a5bd0	0.18199086
24	0xbe164f23	-0.14678626
25	0x3d8dba56	0.069203064
26	0xbe579d73	-0.21056156
27	0xbd980d60	-0.07424426
28	0x3e004883	0.12527661
29	0xbe18d556	-0.14925131
30	0x3dc864e2	0.09784867
31	0x3d81e01d	0.06341574
32	0x3e37b4fe	0.17940137
33	0xbe26b10b	-0.16278474
34	0xbdb861bd	-0.09003017
35	0xbda44fd4	-0.080230385
36	0x3dc8983e	0.09794663
37	0xbe19949a	-0.14998093
38	0xbe45e85e	-0.19326922
39	0xbd401e6a	-0.046904005
40	0x3d373e19	0.044736955
41	0xbe08250a	-0.1329538
42	0x3d5599bf	0.052148577
43	0xbe0b1d86	-0.13585481
44	0x3d3e49cc	0.046457097
45	0xbdc644df	-0.09681105
46	0x3ce0c0b5	0.02743564
47	0x3aab4ab6	0.001306853
48	0xbe5e580e	-0.21713278
49	0x3dff461b	0.124645434
50	0x3e2ece74	0.17070943
51	0xbd452f9c	-0.048141107
52	0xbd35dd3c	-0.04440044
53	0x3d02ade3	0.031904113
54	0xbd95e75f	-0.07319521
55	0x3da122c0	0.07867956
56	0x3d2c07e4	0.041999713
57	0x3d837fa4	0.0642083
58	0x3dd475be	0.1037402
59	0x3a95c284	0.0011425768
60	0xbdf50c10	-0.11965191
61	0x3e2cc1a7	0.16870748
62	0x3db15232	0.08658256
63	0xbdae8727	-0.08521872
64	0xbdc96ded	-0.0983542
65	0x3c87d170	0.01657936
66	0xbe09ef7d	-0.13470264
67	0xbdc1df6c	-0.094664425
68	0xbda85d19	-0.08220882
69	0x3d6abd3f	0.057309385
70	0x3d1dd403	0.03853227
71	0xbdfaefdf	-0.12252783
72	0x3e2b2b99	0.1671585
73	0xbe513c8b	-0.20433252
74	0xbd99ab62	-0.07503392
75	0xbda8554d	-0.08219395
76	0x3c153005	0.009105687
77	0x3e36aacb	0.1783859
78	0xbd09426e	-0.033510618
79	0x3e3470ea	0.17621198
80	0x3e0dd72d	0.13851614
81	0xbe391f0f	-0.18078254
82	0x3db46df9	0.08810038
83	0xbe4573c3	-0.19282441
84	0xbd85471f	-0.06507706
85	0x3e65edb6	0.22453961
86	0x3e2c957a	0.16853896
87	0x3dca6898	0.09883231
88	0xbd987241	-0.07443667
89	0x3dda7523	0.10666873
90	0xbd7dc5fc	-0.06195639
91	0x3d97a578	0.074046075
92	0xbe01c65d	-0.12673326
93	0x3e4bb60d	0.19893666
94	0x3bd143cc	0.006386256
95	0xbe567aa4	-0.20945221
96	0x3e1dc9f4	0.1540907
97	0x3dca27ac	0.09870848
98	0x3e49c4ad	0.19703932
99	0xbe0a3703	-0.13497548
100	0xbdb1c495	-0.08680073
101	0x3cadd2e4	0.021218725
102	0xbe0795ee	-0.13240787
103	0xbd9cf534	-0.07663956
104	0xbe1fa90d	-0.15591832
105	0xbd8ac61f	-0.0677607
106	0x3e683509	0.22676481
107	0xbdae1584	-0.085001975
108	0x3e615503	0.22005086
109	0x3e8cc119	0.27491072
110	0xbe7d602a	-0.24743715
111	0xbda45a00	-0.08024979
112	0xbe25ef5f	-0.16204594
113	0xbce2fa21	-0.027707161
114	0x3b3a6457	0.0028441155
115	0xbdacaab5	-0.08430997
116	0x3db63ff7	0.08898919
117	0xbe80abe5	-0.25131145
118	0x3e80efb2	0.25182873
119	0x3e80b388	0.2513697
120	0x3da4ca73	0.080464266
121	0xbccc56c1	-0.024943711
122	0x3e6b14b9	0.22957124
123	0xbbcce94c	-0.006253397
124	0x3dfa1593	0.12211146
125	0x3d8b8437	0.06812327
126	0x3d83bf94	0.06433025
127	0x3e670073	0.22558765
128	0xbe096bf2	-0.13420084
129	0xbe2aac72	-0.16667345
130	0x3dca4c0d	0.09877787
131	0xbce46b3c	-0.027883165
132	0x3dfe4632	0.124157324
133	0x3d85650c	0.06513414
134	0x3d47e0fb	0.048798542
135	0xbd4edf67	-0.05050602
136	0xbdc2b37b	-0.095068894
137	0x3e288a7f	0.16459082
138	0x3d4b0985	0.049569625
139	0x3cfea914	0.031086482
140	0xbd8dc8bd	-0.069230534
141	0xbe405b77	-0.18784891
142	0x3e456291	0.19275881
143	0xbd129c72	-0.03579373
144	0xbe2e80e6	-0.17041358
145	0x3d752426	0.059848927
146	0xbd4c3ca9	-0.049862538
147	0xbdde27e0	-0.10847449
148	0x3d0b0471	0.033939783
149	0x3e003aaf	0.12522386
150	0xbd7b9df4	-0.061429933
151	0xbde88324	-0.11353138
152	0xbcffb792	-0.031215463
153	0x3d841213	0.0644876
154	0xbe27093b	-0.16312115
155	0xbdb87244	-0.090061694
156	0xbe459e04	-0.1929856
157	0x3d381c24	0.044948712
158	0x3e1db6c3	0.1540175
159	0xbe4ccbe0	-0.19999647
160	0xbc10fea7	-0.008849776
161	0xbe6c4132	-0.23071745
162	0xbe2f4843	-0.1711741
163	0x3dc44656	0.09583728
164	0xbe13cba2	-0.14433149
165	0xbcf72868	-0.030170634
166	0x3c67ae3d	0.014140663
167	0xbc4ec2c8	-0.012619682
168	0x3cfd1895	0.03089551
169	0x3d69ffdf	0.057128783
170	0xbc410ed2	-0.011783319
171	0x3c3b8ccf	0.011447146
172	0x3de126a8	0.10993701
173	0x3d13975d	0.036033023
174	0x3b8d7880	0.0043173432
175	0x3d989fee	0.07452379
176	0xbe05fe9d	-0.13085409
177	0x3e46dd97	0.19420467
178	0x3dd78795	0.10523907
179	0x3d98a6e9	0.074537106
180	0x3dfe08cb	0.12404021
181	0xbd555fa0	-0.05209315
182	0xbc3c8746	-0.011506861
183	0x3df30bc2	0.11867477
184	0x3dddfbd7	0.1083905
185	0x3e64f3f3	0.22358684
186	0x3b2f9a27	0.0026794763
187	0x3ce63509	0.028101461
188	0xbcae1783	-0.021251446
189	0x3e019695	0.12655099
190	0xbd27f227	-0.04100242
191	0x3a8adcd2	0.0010594374
192	0x3e335653	0.17513399
193	0x3df0e870	0.11763084
194	0xbdc888b5	-0.097917
195	0xbab4ed67	-0.0013803662
196	0x3d9478e9	0.07249624
197	0xbe0eb986	-0.13937959
198	0x3cf031f5	0.029320696
199	0xbddba148	-0.10724121
200	0xbc34ed43	-0.011042896
201	0x3e0f0cac	0.13969678
202	0xbcd0168c	-0.025401376
203	0xbe7dc363	-0.24781565
204	0xbe5de26b	-0.21668403
205	0xbde65a99	-0.11247749
206	0xbdec1381	-0.115271576
207	0x3d483447	0.04887798
208	0x3e3aa292	0.18226078
209	0xbe0bec6d	-0.13664408
210	0x3d7aa14b	0.061188977
211	0x3e0599d1	0.13046958
212	0x3dbe4289	0.09290034
213	0xbe7d7a1b	-0.24753611
214	0xbb0172ba	-0.001975222
215	0x3d945076	0.07241909
216	0xbe422141	-0.18957998
217	0x3dbdc811	0.09266675
218	0xbaadc47d	-0.0013257411
219	0x3e6ff487	0.23433124
220	0x3e88830a	0.26662475
221	0x3dd12da7	0.102137856
222	0xbcf309cb	-0.029667756
223	0xbe0fff25	-0.14062174
224	0x3dc1476d	0.094374515
225	0x3d8c228c	0.06842527
226	0xbd3e516e	-0.046464376
227	0x3e18fe78	0.14940822
228	0x3ca30ed4	0.019904532
229	0xbdd0b7ab	-0.10191282
230	0x3c20e402	0.009819986
231	0xbd03ab8a	-0.032146014
232	0xbdb8f55e	-0.09031175
233	0x3d3657f8	0.044517487
234	0xbdfd5795	-0.123702206
235	0x3d463f73	0.048400354
236	0x3d1f9662	0.038961776
237	0x3d85b755	0.065291084
238	0xbe06f4bf	-0.131793
239	0xbde1dd1b	-0.11028501
240	0x3d381756	0.04494413
241	0xbb921eb4	-0.0044592265
242	0x3dd15b36	0.10222475
243	0xbd67841f	-0.056522485
244	0x3cf6ae30	0.030112356
245	0xbccaa653	-0.024737513
246	0xbdb495b8	-0.08817619
247	0x3dfa3504	0.12217143
248	0x3cebdb7d	0.028791184
249	0x3dfb124f	0.122593515
250	0x3dfc1134	0.12307969
251	0x3d58bd33	0.05291481
252	0x3d8c0dec	0.06838593
253	0xbe179fe8	-0.14807093
254	0xba181aab	-0.00058023137
255	0xbda58149	-0.080813

phi_z.0.bias f4 [32]
0	0xbdf73bf7	-0.12071984
1	0x3e83c70d	0.257378
2	0x3dce5a38	0.100758016
3	0x3da105fd	0.0786247
4	0xbe03655f	-0.12831639
5	0x3e2fcd83	0.1716824
6	0xbe801ef1	-0.25023606
7	0x3e0e2912	0.13882855
8	0xbe2da536	-0.16957554
9	0xbe265612	-0.1624377
10	0x3df4a864	0.119461805
11	0x3e8622e4	0.26198494
12	0xbea53513	-0.32267055
13	0xbd931580	-0.07181835
14	0xbea798e1	-0.32733825
15	0xbdae833b	-0.08521124
16	0xbe2653e0	-0.16242933
17	0xbe1d5799	-0.15365447
18	0xbc399157	-0.011326156
19	0xbeb4dfeb	-0.35327086
20	0xbe8dd143	-0.27698717
21	0xbe8a5dd8	-0.27024722
22	0xbd8907bf	-0.066909306
23	0xbdf5fc0d	-0.120109655
24	0xbe663f23	-0.22485022
25	0xbdb7ce43	-0.08974888
26	0x3e86b007	0.26306173
27	0xbdb6ebd4	-0.089316994
28	0xbe77e9db	-0.24210303
29	0xbe2600dd	-0.16211267
30	0x3e487509	0.19575895
31	0x3e8fd5f7	0.2809293

enc.0.weight f4 [32, 64]
0	0xbd1fe2f1	-0.039034788
1	0xba646800	-0.0008713007
2	0xbcf6fe70	-0.030150622
3	0xbe00a828	-0.12564147
4	0x3d1d41ee	0.038392954
5	0xbde6679e	-0.11250232
6	0xbdb6bead	-0.08923087
7	0xbd975389	-0.0738898
8	0x3dfb5d16	0.12273614
9	0x3d1d41b0	0.038392723
10	0xbcb062d8	-0.021531507
11	0xbcc8a6b0	-0.024493545
12	0x3dbd0db6	0.09231131
13	0xbdc74a0a	-0.09730919
14	0xbdf4ac73	-0.119469546
15	0xbdd9622f	-0.1061443
16	0x3d1bad04	0.038006797
17	0x3d97fd36	0.07421343
18	0xbd7093c4	-0.05873467
19	0xbcebbb3a	-0.0287758
20	0xbcb85a30	-0.022503942
21	0x3db0a932	0.086260214
22	0x3d6b09d4	0.05738242
23	0x3d9c3bf6	0.07628624
24	0x3cda0ea9	0.026618319
25	0xbc4a37ee	-0.012342436
26	0x3dabdfc8	0.08392292
27	0x3db4939d	0.088172175
28	0xbdc64244	-0.09680608
29	0xbc8304c8	-0.01599349
30	0x3d3fab4e	0.04679423
31	0x3cbf56a9	0.023356752
32	0xbde488c9	-0.11158902
33	0xbdbc1d98	-0.09185332
34	0xbd3e3301	-0.04643536
35	0xbdb0e2e3	-0.08637025
36	0x3d85b48b	0.065285765
37	0xbd08e753	-0.033423733
38	0x3d78ae2d	0.060712982
39	0xbd9ca246	-0.07648139
40	0xbe00062b	-0.12502353
41	0x3e06d947	0.13168822
42	0xbc251162	-0.010074945
43	0x3c574e70	0.01314126
44	0xbd2621fc	-0.040559754
45	0x3d667d83	0.05627204
46	0xbd78b71e	-0.06072151
47	0xbd8c9c69	-0.0686577
48	0x3d859ae6	0.06523685
49	0xbe05fe28	-0.13085234
50	0xbc83eee9	-0.016105132
51	0xbdebbf31	-0.11511076
52	0x3d141a7d	0.036158074
53	0xbcb430d1	-0.021995934
54	0x3bb41201	0.0054953103
55	0xbac6e6a7	-0.0015174941
56	0xbcca7dae	-0.024718132
57	0xbc8dd436	-0.017313104
58	0x3d020974	0.031747296
59	0x3c096e56	0.008388123
60	0xbd22f4fc	-0.039784417
61	0x3c230733	0.009950447
62	0xbcc446d8	-0.023959562
63	0x3d90352c	0.07041392
64	0xbd4a3951	-0.049371067
65	0xbcd103d0	-0.025514513
66	0xbde64388	-0.11243349
67	0x3d628d18	0.05531034
68	0xbda84870	-0.08216941
69	0x3d92d273	0.07169046
70	0x3dc800a5	0.09765748
71	0x3d520686	0.051275752
72	0xbd5d5eb8	-0.05404541
73	0x3d572c12	0.052532263
74	0xbc5b0610	-0.013368145
75	0x3de2d138	0.110750616
76	0x3df37d82	0.11889173
77	0x3db64cc0	0.08901358
78	0xbc7ddc6c	-0.015494447
79	0xbc85a38f	-0.016313342
80	0x3c881cb0	0.016615242
81	0x3dbc8f9c	0.09207079
82	0xbdf2b05a	-0.11850043
83	0xbd0b8daf	-0.034070667
84	0x3d9f1a9a	0.07768746
85	0x3ddcefde	0.107879385
86	0xbda73202	-0.08163835
87	0xbdd072ad	-0.10178123
88	0xbd40c0df	-0.047058936
89	0xbd4270d6	-0.04747089
90	0xbcfdcbf0	-0.030981034
91	0x3d3f4d4a	0.046704568
92	0xbe06accb	-0.13151853
93	0xbd813eb0	-0.06310785
94	0x3bd631e0	0.0065367073
95	0x3da822a4	0.08209732
96	0x3c8761b1	0.016526075
97	0xbdc041f4	-0.093875796
98	0xbdbf160a	-0.093303755
99	0xbde4b382	-0.11167051
100	0xbd6c6120	-0.057709813
101	0x3df1504d	0.11782894
102	0xbc6edd80	-0.014579177
103	0xbd7dbb10	-0.061945975
104	0xbd0eb0fc	-0.034836754
105	0xbddbdb6f	-0.10735213
106	0x3d153d83	0.036435615
107	0x3d5541df	0.052064773
108	0xbce13d81	-0.027495148
109	0xbda43137	-0.080171995
110	0xbdd3b5e0	-0.10337424
111	0xbd2a160a	-0.041524924
112	0x3dcc2d01	0.09969521
113	0x38fd926b	0.000120912526
114	0x3c5a3105	0.013317351
115	0xbddc633f	-0.10761117
116	0xbdce17b9	-0.100631185
117	0x3d8f4220	0.06995034
118	0x3d860ea3	0.065457605
119	0x3d5e88bd	0.054329623
120	0xbdb453aa	-0.0880502
121	0xbd05f126	-0.03270068
122	0x3cd51a5d	0.026013548
123	0x3cd5c623	0.026095456
124	0xbad56823	-0.0016281646
125	0x3dda4450	0.10657561
126	0xbdb01bdb	-0.08599063
127	0x3db2a3b7	0.087226324
128	0xbc97f0f4	-0.018547513
129	0x3c11ef40	0.008907139
130	0xbd53449c	-0.051579103
131	0x3d828fde	0.06375097
132	0x3cee99c2	0.029126052
133	0xbdcda8f5	-0.100419916
134	0x3e45e5e0	0.19325972
135	0xbd6e40f2	-0.058167405
136	0xbd0d1eac	-0.03445308
137	0x3e2afff7	0.16699205
138	0x3d875af2	0.06609143
139	0xbdcb62aa	-0.09930928
140	0xbdb15464	-0.08658674
141	0x3d46f2a8	0.04857126
142	0x3d52bbad	0.051448513
143	0xbd452bb7	-0.048137393
144	0xbdcc14d5	-0.09964911
145	0x3e6550f4	0.22394162
146	0x3de359e4	0.1110113
147	0x3e64132d	0.2227294
148	0x3d06debb	0.032927256
149	0x3da1b66e	0.07896124
150	0x3df17153	0.11789193
151	0x3d80947e	0.06278323
152	0x3de1bd9e	0.11022495
153	0xbd21a404	-0.039463058
154	0xbc713cb0	-0.014723942
155	0x3cad7ef5	0.021178702
156	0x3d793169	0.060838137
157	0xbd3658b0	-0.044518173
158	0xbda3ec37	-0.08004039
159	0x3d225711	0.039633814
160	0xbd6b8256	-0.057497345
161	0xbd8f4954	-0.06996408
162	0x3dfafe2a	0.12255509
163	0x3e183659	0.14864482
164	0xbe27f7ac	-0.16403073
165	0x3da2ce7c	0.0794954
166	0xbe1eb121	-0.15497257
167	0xbe0cda48	-0.13755143
168	0xbe02f21d	-0.12787671
169	0x3e206e9f	0.15667199
170	0x3dd00562	0.10157277
171	0x3d06a89c	0.032875642
172	0x3e2edd89	0.17076696
173	0x3dd44f45	0.10366682
174	0xbd3de290	-0.046358645
175	0xbcd99cd8	-0.026564047
176	0x3e645b36	0.22300419
177	0xbdf47e54	-0.11938158
178	0xbe25fadf	-0.16208981
179	0x3d9acaa6	0.07558183
180	0xbdc8a1fa	-0.097965196
181	0x3dcd85c7	0.10035282
182	0xbdd06120	-0.10174775
183	0xbd365829	-0.04451767
184	0x3e0db2e4	0.13837773
185	0x3ca08623	0.019595211
186	0x3db63ec9	0.08898694
187	0x3dc71b3b	0.09721991
188	0x3d3bfd26	0.045895718
189	0xbcd7675d	-0.026294405
190	0x3dc625c6	0.096751735
191	0x3b90cb30	0.004418753
192	0xbde9620c	-0.11395654
193	0x3c901560	0.017588317
194	0x3dc3e2a6	0.09564714
195	0xbde0c148	-0.109743655
196	0xbd8b4d22	-0.06801821
197	0xbcdd76f0	-0.027034253
198	0xbd7a57dc	-0.061118945
199	0xbd84c8dc	-0.064836234
200	0xbc4602d0	-0.0120856315
201	0xbcda9848	-0.026683941
202	0x3b740740	0.0037235767
203	0x3dfaae02	0.122402206
204	0xbdd931c8	-0.10605198
205	0x3d70c9c4	0.05878617
206	0xbd0197ac	-0.031638786
207	0x3d795a6c	0.06087725
208	0x3df4a7a0	0.119460344
209	0x3c337bb0	0.010954782
210	0x3d97dde8	0.07415372
211	0xbd257564	-0.040395156
212	0x3d525c4c	0.051357552
213	0xbc535860	-0.012899488
214	0x3cbb3ab8	0.022855148
215	0xbb1d6500	-0.00240165
216	0xbddcb176	-0.107760355
217	0xbd9aa010	-0.07550061
218	0x3d5893b8	0.05287525
219	0xbdef52ea	-0.116857365
220	0xbd8ae818	-0.067825496
221	0x3df75d88	0.120783865
222	0x3cf64290	0.030061036
223	0xbdcef728	-0.10105735
224	0xbd0be980	-0.03415823
225	0x3b01dac0	0.0019814223
226	0x3dc15318	0.09439677
227	0xbd068b80	-0.03284788
228	0x3cde7088	0.027153268
229	0xbd607db4	-0.05480738
230	0xbcffcb98	-0.03122501
231	0xbd852806	-0.065017745
232	0xbde13484	-0.10996345
233	0xbc18cda0	-0.009326369
234	0x3c5f2000	0.013618469
235	0x3d868c58	0.06569737
236	0x3c83b630	0.016078085
237	0xbb64e180	-0.0034924448
238	0xbd823d74	-0.063593775
239	0x3c4954e0	0.012288302
240	0xbd8d840c	-0.069099516
241	0x3d772bb0	0.060344398
242	0xbdf62f02	-0.12020685
243	0xbd285598	-0.041097254
244	0x3cf767d0	0.030200869
245	0x3bd26cc0	0.0064216554
246	0x3d82bad2	0.063832894
247	0xbd4e33b0	-0.05034226
248	0x3db6d14a	0.089266375
249	0xbdbbcf86	-0.09170441
250	0x3c1e0f20	0.009647161
251	0xbd386e60	-0.045027137
252	0xbd0b9eb4	-0.034086898
253	0x3dec6f32	0.11544646
254	0xbcd8cb08	-0.026464
255	0x3da39684	0.07987693

enc.0.bias f4 [32]
0	0xbd3947de	-0.045234554
1	0xbdfeead9	-0.124471374
2	0x3dc66aa0	0.09688306
3	0xbd987f6a	-0.07446177
4	0x3ddd5e1c	0.108089656
5	0x3dc68e9a	0.09695168
6	0xbe00895a	-0.12552395
7	0x3dfbbf5f	0.122923605
8	0x3df4c5a6	0.11951761
9	0xbc1bfe90	-0.009521142
10	0xbde0a376	-0.10968678
11	0xbdfbb964	-0.1229122
12	0x3ca49f6f	0.020095555
13	0xbd4f6131	-0.0506298
14	0x3d2d46bd	0.04230379
15	0xbc948fea	-0.01813503
16	0xbd1aa7ef	-0.03775781
17	0x3ca7d9fc	0.020489685
18	0x3bbb5d00	0.0057178736
19	0xbceb4911	-0.028721364
20	0xbcdc37cd	-0.026882077
21	0x3d28879f	0.041144963
22	0x3d451364	0.048114195
23	0x3de45d0e	0.11150561
24	0xbd8be451	-0.06830657
25	0x3e12982d	0.14315863
26	0xbbbc776d	-0.0057515414
27	0xbd4d0d7f	-0.0500617
28	0x3d8e0628	0.06934768
29	0x3c3206f5	0.0108659165
30	0xbd598912	-0.053109236
31	0x3c82fd2e	0.015989866

enc.2.weight f4 [32, 32]
0	0x3e26208d	0.16223355
1	0xbdc0f190	-0.094210744
2	0x3e9ee9c4	0.31037724
3	0xbd8c703f	-0.06857347
4	0xbd99c7c1	-0.07508803
5	0xbc36c168	-0.01115451
6	0xbbd3d498	-0.006464552
7	0x3da36b73	0.07979479
8	0xbd112008	-0.035430938
9	0x3e301a40	0.17197514
10	0xbdbdef15	-0.09274117
11	0xbe070b84	-0.13187987
12	0x3e2730d1	0.16327216
13	0xbe199fd7	-0.1500238
14	0xbe06ae22	-0.13152364
15	0xbdc1b806	-0.09458928
16	0xbe353906	-0.17697534
17	0x3c8aa8d3	0.016926205
18	0x3db37928	0.08763343
19	0xbcc7365b	-0.02431791
20	0x3e038f55	0.12847646
21	0xbd5a76de	-0.053336017
22	0xbcc0f9e5	-0.023556659
23	0xbd8a4ab1	-0.067525275
24	0xbdce375d	-0.100691535
25	0x3e0a0ee4	0.13482243
26	0x3d1244b4	0.03571005
27	0xbda5e0c9	-0.08099515
28	0x3e0c98f3	0.1373022
29	0x3e1e0787	0.15432559
30	0xbba14200	-0.004921198
31	0x3e0d5bad	0.13804503
32	0xbda9fd5d	-0.08300278
33	0x3e223fa4	0.1584459
34	0x3d9b20d2	0.07574619
35	0xbc15bad8	-0.009138785
36	0x3da53997	0.08067625
37	0xbe3eb262	-0.18622735
38	0xbc1a6bee	-0.0094251465
39	0xbd3da9e8	-0.046304613
40	0xbd234137	-0.039857116
41	0x3db12f22	0.08651568
42	0xbde2255a	-0.110422805
43	0x3e2d88c0	0.16946697
44	0xbdddfaa7	-0.10838824
45	0x3d7eb4c5	0.062184114
46	0x3dd6e880	0.104935646
47	0x3db24a30	0.087055564
48	0x3c1ab102	0.009441616
49	0x3d909521	0.07059694
50	0xbe0229b2	-0.12711218
51	0xbdca8640	-0.098888874
52	0x3e1aa2f1	0.1510122
53	0xbe38c89d	-0.18045278
54	0xbcc299ca	-0.023754973
55	0xbde8ca81	-0.113667496
56	0x3d270548	0.04077652
57	0x3dfd265d	0.12360833
58	0x3e0193a4	0.12653977
59	0x3deadfdf	0.11468481
60	0x3d9c486e	0.07631002
61	0x3d62d7e7	0.05538168
62	0xbc61ef91	-0.013790027
63	0x3bf297b2	0.0074033374
64	0xb7a165aa	-1.9240037e-05
65	0x3e11ab41	0.14225484
66	0xbd0a2dca	-0.033735074
67	0x3d22d7d0	0.039756596
68	0x3a73d8cd	0.000930202
69	0x3d97cacc	0.07411727
70	0xbe256f6d	-0.16155787
71	0xbde3561d	-0.11100409
72	0x3e245efd	0.1605186
73	0xbdd154d4	-0.10221258
74	0xbdad0520	-0.08448243
75	0xbd09272a	-0.033484615
76	0xbe02ea1c	-0.12784618
77	0xbda69ed3	-0.08135762
78	0x3c786869	0.015161612
79	0xbe126daa	-0.14299646
80	0x3dc0cdeb	0.09414276
81	0xbccf5df4	-0.025313355
82	0x3c6da706	0.0145051535
83	0xbde575a8	-0.11204082
84	0xbda8abf3	-0.08235922
85	0x39c961be	0.0003841053
86	0x3df7d68c	0.121014684
87	0xbdb8cc87	-0.090233855
88	0x3dc2d462	0.09513165
89	0xba2a9580	-0.00065072626
90	0x3ce3a708	0.027789608
91	0x3d4931d5	0.04911979
92	0x3c490768	0.012269832
93	0xbdeedd55	-0.116633095
94	0xb99398f5	-0.00028151987
95	0x3da65ba3	0.08122947
96	0x3c970dd9	0.01843922
97	0x3df5bbf4	0.1199874
98	0x3df38d78	0.118922174
99	0xbd059a5b	-0.032617908
100	0xbaaf9ae1	-0.0013397598
101	0xbd8cefbb	-0.068816625
102	0x3db040ff	0.08606147
103	0xbde2ac03	-0.11067965
104	0xbe275425	-0.16340692
105	0xbe25abbc	-0.16178793
106	0xbd891465	-0.06693343
107	0xbe0e70fa	-0.13910285
108	0xbd810ab2	-0.06300868
109	0x3d574c6f	0.052563127
110	0x3cd560b4	0.026047088
111	0x3d2fe82f	0.042946037
112	0xbce368a8	-0.027759865
113	0x3df817fd	0.121139504
114	0xbd0d0e1a	-0.034437276
115	0x3e0fb175	0.14032538
116	0x3e174e41	0.14775945
117	0x3debdd56	0.11516826
118	0xbdd92730	-0.106031775
119	0xbde7e092	-0.1132213
120	0xbdadecd5	-0.08492438
121	0x3de150c1	0.11001731
122	0xbd8d0e35	-0.068874754
123	0x3d23846b	0.039921205
124	0x3caeaf78	0.021323904
125	0x3de365f0	0.111034274
126	0x3e11e1ca	0.14246288
127	0xbd8390a0	-0.064240694
128	0x3cce1ced	0.025160277
129	0x3e0ea4d4	0.13930064
130	0x3e3459ab	0.1761233
131	0xbe151d53	-0.14561968
132	0x3e252198	0.16126096
133	0x3e184ab5	0.14872248
134	0x3e06d831	0.13168408
135	0xbdfe4993	-0.12416377
136	0xbde31718	-0.11088389
137	0x3e054615	0.13015015
138	0xbe34f5a1	-0.17671825
139	0xbd8d1175	-0.06888095
140	0xbe0521a8	-0.1300112
141	0xbd764a15	-0.060129244
142	0xbdacb6b6	-0.08433287
143	0xbe1a3ce7	-0.15062295
144	0x3d8d9374	0.0691289
145	0xbd687506	-0.056752227
146	0xbc641475	-0.013920893
147	0xbcbb874a	-0.02289166
148	0x3ccb2239	0.024796592
149	0xbdef59d1	-0.11687053
150	0x3e04cb5a	0.12968197
151	0x3da18af6	0.07887833
152	0x3dcaa8b3	0.09895458
153	0xbe32d467	-0.17463838
154	0xbd86851e	-0.06568359
155	0xbca5964d	-0.02021327
156	0xbd0e0292	-0.03467042
157	0x3de0b41e	0.109718546
158	0xbd872c0f	-0.066002004
159	0xbdadc194	-0.08484188
160	0xbdf2a995	-0.118487515
161	0x3bf4cf3e	0.0074709943
162	0x3ef528be	0.47882646
163	0x3e123f7f	0.14282034
164	0xbdbab4e6	-0.09116535
165	0x3ce05106	0.027382385
166	0xbc4a407e	-0.012344478
167	0x3cd1025f	0.025513826
168	0xbd82f53b	-0.0639443
169	0x3d30baae	0.04314678
170	0xbdd32be4	-0.10311106
171	0x3d4970e5	0.04917993
172	0x3d1f4c19	0.03889093
173	0xbd94bbe5	-0.072624005
174	0x3d66cd23	0.056347977
175	0xbb151d29	-0.0022752977
176	0xbd7add32	-0.061246105
177	0x3d65ff4f	0.056151684
178	0xbd90b741	-0.07066203
179	0x3e06069f	0.13088463
180	0xbdb34ce0	-0.08754897
181	0xbdc8a412	-0.09796919
182	0xbde99444	-0.114052325
183	0xbd3f53af	-0.046710666
184	0x3cad8663	0.021182245
185	0x3e0a7c5d	0.13524003
186	0x3dca39ca	0.09874304
187	0xbe27632c	-0.16346425
188	0x3e4bc5c0	0.19899654
189	0x3d40761f	0.04698765
190	0xbd95aea3	-0.073087
191	0xbdeca31b	-0.115545474
192	0xbdf121a0	-0.117739916
193	0x3de8d078	0.11367887
194	0x3d23c1f8	0.039979905
195	0x3e3347c8	0.17507851
196	0x3d326968	0.043557554
197	0x3d2e9fae	0.04263275
198	0xbdc5e1c9	-0.09662206
199	0x3e0a9269	0.13532414
200	0x3e07b21b	0.13251536
201	0x3d514318	0.051089376
202	0xbd26312e	-0.040574245
203	0x3d3ea726	0.046546124
204	0x3db1576a	0.08659251
205	0x3dc75604	0.09733203
206	0xbd40209f	-0.04690611
207	0x3d3a24b1	0.045445148
208	0x3e00850b	0.12550752
209	0xbde28c46	-0.11061911
210	0xbd9bc9af	-0.076068275
211	0xbe3cba46	-0.18430433
212	0xbe005ced	-0.12535448
213	0x3e08667b	0.13320343
214	0x3def8b86	0.11696534
215	0xbb8f174c	-0.004366791
216	0x3e0442a5	0.12916048
217	0x3e458375	0.19288428
218	0xbc378fe4	-0.01120374
219	0x3e1f7c4e	0.15574762
220	0x3c9d3735	0.019191364
221	0x3cfe3eef	0.031035868
222	0x3d468f59	0.04847655
223	0xbd4e4ed5	-0.05036815
224	0xbde5c54c	-0.11219272
225	0xbe0f6598	-0.14003599
226	0x3e5fa35a	0.21839657
227	0xbcdf5091	-0.027260097
228	0x3e26fba9	0.16306938
229	0xbd024466	-0.03180351
230	0x3d0e43fe	0.03473281
231	0x3d625ac6	0.05526235
232	0x3d64da02	0.05587197
233	0x3dcea07b	0.10089203
234	0xbe1ea619	-0.15493049
235	0x3de98b75	0.114035524
236	0xbdd1d1a5	-0.10245065
237	0x3c08557c	0.008321162
238	0x3d7ce770	0.061744153
239	0xbdce2bea	-0.1006697
240	0x3e182679	0.14858426
241	0x3e1ece40	0.15508366
242	0xbd9e7c07	-0.077385
243	0x3dbe4c97	0.09291952
244	0x3e0c8a96	0.13724741
245	0xbd4a6f8c	-0.049422786
246	0x3d8df643	0.06931736
247	0xbd32f5aa	-0.043691315
248	0xbe0c0b36	-0.13676152
249	0xbe171aef	-0.14756368
250	0x3d239aff	0.039942738
251	0x3dd9e589	0.106394835
252	0xb99bff6f	-0.00029754217
253	0x3e2ab2e3	0.16669802
254	0xbdc2d124	-0.09512547
255	0xbe15b04c	-0.14618033

enc.2.bias f4 [32]
0	0x3bb2f52e	0.0054613566
1	0x3d8e88b0	0.06959665
2	0xbda8a500	-0.08234596
3	0xbc019b6e	-0.0079105925
4	0xbe241aa3	-0.16025786
5	0x3d8f572d	0.06999049
6	0x3e1e0bdd	0.15434213
7	0x3e2623b1	0.16224553
8	0xbe2422ba	-0.16028872
9	0xbde9e6c0	-0.11420965
10	0x3d89e050	0.06732237
11	0xbdbfb163	-0.09360006
12	0xbddf2558	-0.10895795
13	0x3bd4e624	0.0064971615
14	0xbdf778fc	-0.12083623
15	0xbbc05f0c	-0.0058707055
16	0xbd6c7ea9	-0.05773798
17	0x3e296add	0.16544671
18	0xbd1fe7ec	-0.039039537
19	0x3e015510	0.12630105
20	0xbdf532cc	-0.11972579
21	0x3dae6893	0.0851604
22	0xbda7c3b0	-0.08191621
23	0x3e0639f9	0.13108052
24	0x3dfd582d	0.12370334
25	0x3de6e24b	0.11273631
26	0xbcb45c6a	-0.022016723
27	0xbdad91d3	-0.084750794
28	0x3d890f49	0.066923685
29	0xbdad9140	-0.0847497
30	0xbdc2cebc	-0.09512088
31	0x3d7dea57	0.061991062

enc_mean.weight f4 [12, 32]
0	0x3da37ad8	0.07982415
1	0xbe1ac975	-0.15115912
2	0xbe1552a1	-0.14582302
3	0xbd7e7a12	-0.062128134
4	0xbb87468e	-0.004128284
5	0x3d74dab7	0.059778895
6	0x3d06ff4f	0.032958325
7	0x3c5d2afb	0.013499017
8	0xbe24d633	-0.16097336
9	0x3e1e1075	0.15435965
10	0xbd93aad1	-0.07210315
11	0x3cd5af04	0.02608443
12	0x3e00c14c	0.12573737
13	0xbda55a78	-0.08073896
14	0xbd81d144	-0.063387424
15	0xbde1607a	-0.110047296
16	0x3d055411	0.032550875
17	0xbdafea1a	-0.08589573
18	0xbdfa1528	-0.122110665
19	0xbce81b0d	-0.028333211
20	0xbe2a5052	-0.16632202
21	0xbce68d9d	-0.028143698
22	0x3de68b19	0.112569995
23	0xbd94240d	-0.07233439
24	0xbc6e228a	-0.014534602
25	0xbc46829e	-0.0121161025
26	0x3ce8f2ae	0.028436031
27	0x3d3b5255	0.045732815
28	0xbd064e65	-0.032789607
29	0xbce868ce	-0.028370287
30	0xbd4a65ce	-0.049413495
31	0x3ca861b8	0.020554408
32	0x3db95518	0.090494335
33	0x3dc8c43b	0.09803053
34	0xbdf24d38	-0.118311346
35	0x3d1c7a14	0.03820236
36	0xbccfc909	-0.025364416
37	0x3e0fd7b9	0.14047135
38	0xbe0f7f06	-0.140133
39	0xbe3e1ab1	-0.1856487
40	0x3de7c598	0.11316985
41	0x3d39c2b8	0.045351714
42	0xbd16a39f	-0.036777135
43	0xbdc0c372	-0.09412278
44	0xbce63bea	-0.028104741
45	0xbe06bc14	-0.13157684
46	0x3d84246c	0.064522594
47	0x3dd4f447	0.10398155
48	0x3dafaf7b	0.08578392
49	0xbdd6ac4b	-0.10482081
50	0x3ddb1fc2	0.10699417
51	0xbe032a92	-0.12809208
52	0xbd9df44a	-0.0771261
53	0x3db2730f	0.08713352
54	0x3d15a1c3	0.03653122
55	0x3d95edf5	0.07320777
56	0x3d97349b	0.073830806
57	0x3d10bc87	0.035336044
58	0x3bf1d38a	0.0073799537
59	0x3df834c9	0.12119443
60	0x3d1b0eac	0.03785579
61	0x3d69bb9e	0.05706369
62	0xbc585c96	-0.013205668
63	0xbd7bebd6	-0.061504208
64	0xbe25040a	-0.16114822
65	0x3d84f823	0.06492641
66	0xbdd60288	-0.104497015
67	0xbc38980b	-0.011266719
68	0xbd274af0	-0.04084295
69	0x3e2209cd	0.15824051
70	0x3d856bcc	0.06514701
71	0xbb4d5ae4	-0.0031334693
72	0xbe1f08f1	-0.15530755
73	0xbd7e58b0	-0.062096298
74	0x3e0f3114	0.13983566
75	0xbd8d3a3f	-0.06895875
76	0x3c14ec48	0.009089537
77	0x3da1dd81	0.07903577
78	0x3d28c11c	0.04119979
79	0xbe1026c5	-0.1407729
80	0x3d63a336	0.055575572
81	0x3da54a3c	0.080708
82	0xbd732999	-0.059365842
83	0xbe213ca3	-0.15745787
84	0xbdbdafc6	-0.09262042
85	0xbd83b4d8	-0.064309776
86	0xbdd0af4f	-0.101896875
87	0xbcdaa87e	-0.026691671
88	0x3a002887	0.00048888515
89	0xbd6567d4	-0.05600722
90	0x3dfb71c0	0.122775555
91	0x3d866ddf	0.06563925
92	0x3df6bf9a	0.12048264
93	0x3d989c78	0.07451719
94	0x3da3a477	0.079903536
95	0x3daa6a48	0.08321053
96	0x3dd8cf7d	0.1058645
97	0x3e2596c8	0.161708
98	0x3d96a674	0.07355967
99	0x3df9521f	0.121738665
100	0xbd9d4fe5	-0.07681254
101	0x3c5babd8	0.01340767
102	0x3cf1e6c2	0.02952898
103	0xbe288d77	-0.16460215
104	0xbdfce0cc	-0.12347564
105	0x3e30e2cb	0.17274015
106	0xbddbfe8c	-0.1074191
107	0xbd80d25e	-0.06290124
108	0xbe08cf5a	-0.13360348
109	0x3db7b741	0.089705
110	0xbd854b79	-0.06508536
111	0xbe15a008	-0.14611828
112	0xba3d5283	-0.0007222073
113	0xbda26023	-0.07928493
114	0x3dc0b2d7	0.09409111
115	0xbe189e26	-0.14904079
116	0x3d12bb20	0.035822988
117	0xbd66fbab	-0.056392353
118	0xbd25119b	-0.040299993
119	0x3e1c5b97	0.15269314
120	0xbe1fb4c8	-0.15596306
121	0x3d10bf2a	0.03533856
122	0x3daa8daa	0.083278015
123	0x3d8dfb90	0.06932747
124	0x3e5f5c04	0.21812445
125	0x3dfad21c	0.122471064
126	0x3dd33204	0.10312274
127	0x3d44e7d6	0.04807266
128	0x3df15166	0.11783104
129	0xbd982762	-0.07429387
130	0xbdee64f6	-0.116403505
131	0x3d57ec60	0.05271566
132	0xbd25b5f7	-0.04045674
133	0xbd87d404	-0.06632236
134	0x3d83a7df	0.06428503
135	0x3df9c76d	0.121962406
136	0x3e263552	0.16231278
137	0x3e246c8b	0.16057031
138	0xba349670	-0.0006888872
139	0x3e1db6cf	0.15401767
140	0xbd4c842d	-0.04993074
141	0xbd15e1a4	-0.03659214
142	0x3bb5d955	0.0055495896
143	0xbde2e06a	-0.1107796
144	0xbe2d5708	-0.16927731
145	0x3e0353dd	0.1282496
146	0xbdb10b8d	-0.08644781
147	0x3dc3ed3c	0.09566733
148	0x3b630082	0.0034637754
149	0xbd0ae010	-0.03390509
150	0xbc3a73eb	-0.011380176
151	0x3dcb8820	0.09938073
152	0xbdac8641	-0.084240444
153	0x3d8730b1	0.06601084
154	0xbd222165	-0.03958263
155	0xbe000923	-0.12503485
156	0xbe03fa76	-0.12888512
157	0x3de1798d	0.11009512
158	0xba842b3e	-0.0010083688
159	0x3d5c764c	0.053823754
160	0xbe0f5159	-0.13995875
161	0xbc84938b	-0.016183635
162	0x3c5f224b	0.013619016
163	0xbd1b9b94	-0.037990168
164	0x3dc63311	0.09677709
165	0xbd6b82e8	-0.05749789
166	0x3da072fc	0.078344315
167	0x3e4959fc	0.19663233
168	0x3e1b3b77	0.15159403
169	0x3e02da9d	0.12778707
170	0xbd6658ee	-0.056237154
171	0x3e27a23e	0.16370484
172	0xbe31176a	-0.17294088
173	0xbd8b7900	-0.06810188
174	0xbdc721d2	-0.097232476
175	0x3e22397b	0.1584224
176	0x3dbcb767	0.09214669
177	0x3e455288	0.19269764
178	0xba9fe6ef	-0.0012199561
179	0x3da84b64	0.082175046
180	0x3e2c21f9	0.16809835
181	0xbcd959d6	-0.026532095
182	0x3e1d8482	0.15382579
183	0x3d64b590	0.055837214
184	0xbd4e0a4d	-0.050302792
185	0xbe17602e	-0.14782783
186	0x3e56158b	0.20906655
187	0xbdb8553a	-0.09000631
188	0x3e2c41ca	0.16821972
189	0xbd05735a	-0.03258071
190	0xbe3cf0e4	-0.18451267
191	0x3c824fae	0.015907135
192	0xbdbceed5	-0.09225241
193	0xbceefb41	-0.029172542
194	0x3d3134b9	0.04326317
195	0xbc18277c	-0.009286758
196	0x3e32536f	0.1741464
197	0x3d5f482a	0.05451218
198	0x3cdc227e	0.026871916
199	0x3e1c338a	0.15254036
200	0xbdab860a	-0.08375175
201	0x3e0fc963	0.14041667
202	0xbc993c92	-0.01870564
203	0xbcc329b0	-0.02382359
204	0xbdd9c2a4	-0.10632828
205	0x3e0a7a69	0.13523258
206	0x3cdf8fa8	0.02729018
207	0x3cb1f0d7	0.021721287
208	0xbd6ce136	-0.057831965
209	0x3e3aa386	0.18226442
210	0x3d95537e	0.072913155
211	0x3dada855	0.084793724
212	0xbe063516	-0.13106188
213	0x3c69fca6	0.0142814275
214	0x3e1892af	0.14899705
215	0xbc1c26a7	-0.0095307
216	0xbd758f86	-0.059951328
217	0x3e28250a	0.1642038
218	0xbdf51fcc	-0.119689554
219	0xbe077603	-0.13228612
220	0xbcc5772d	-0.024104679
221	0x3e2689a4	0.16263443
222	0x3cd8696c	0.026417457
223	0xbdea4001	-0.11437989
224	0xbdb7e62f	-0.08979451
225	0x3e0ebb39	0.13938607
226	0x3e1d7c44	0.15379435
227	0xbc4cc4e1	-0.012498111
228	0x3e0c5658	0.13704813
229	0x3d27bd88	0.040952235
230	0x3cf7c415	0.030244866
231	0x3d9ca2bd	0.07648227
232	0xbe248292	-0.16065434
233	0xbe1161b5	-0.14197429
234	0xbce81336	-0.028329473
235	0x3dfe7d86	0.124262854
236	0x3df6699d	0.12031863
237	0x3ddb65dd	0.10712788
238	0xbd8998b9	-0.06718583
239	0x3dff7e37	0.124752454
240	0x3d49955c	0.049214706
241	0x3d984cec	0.07436547
242	0xbdd63312	-0.1045896
243	0xbd374ec7	-0.044752862
244	0xbdbd3d60	-0.09240222
245	0xbd950287	-0.07275873
246	0xbd9ce218	-0.076603115
247	0x3a809cd4	0.0009812363
248	0xbd91123b	-0.07083555
249	0x3d410b72	0.047130056
250	0xbdb0a2db	-0.08624812
251	0xbd4a8fcd	-0.049453545
252	0x3bedfea1	0.00726302
253	0xbc2703fc	-0.010193821
254	0x3de1dd7f	0.11028575
255	0xbe3d7e3a	-0.18505183

enc_mean.bias f4 [12]
0	0xbd611290	-0.054949343
1	0x3d1a7211	0.03770644
2	0xbcaa7801	-0.020809175
3	0x3e20a4ba	0.15687838
4	0x3d8f7abc	0.070058316
5	0xbe1176d2	-0.14205483
6	0xbe28f793	-0.16500692
7	0x3e179aff	0.1480522
8	0xbab9ef35	-0.0014185669
9	0xbe009423	-0.1255651
10	0x3d8171fd	0.0632057
11	0x3d2ec4c9	0.042668138
