varRNN/VariationalRNN/VariationalRecurrentNeuralNetwork-master/saves/vrnn_state_dict_1.pth (torch, 92942 bytes, 30 tensors)

phi_x.0.weight f4 [32, 12]
0.18924858 -0.100950964 -0.09599057 -0.27560344 0.062497575 -0.08834311 0.067044854 0.26651046
-0.21151978 0.105784 -0.16793182 -0.18178318 -0.081837334 -0.079217926 0.24889258 0.09629426
0.029470148 0.22426929 0.02248929 0.19555542 -0.23092987 -0.30261484 -0.2532796 0.26356256
-0.20726424 0.14180654 -0.09875632 0.08052024 0.1260986 -0.18357241 -0.06830333 -0.26977345
-0.23564872 -0.00959789 -0.028263094 0.13272034 -0.210982 0.15310022 0.213682 -0.2238214
-0.0717963 0.010259612 -0.21694438 -0.22097291 0.032866523 -0.22831185 0.25071552 -0.13823622
-0.14930673 0.23205647 -0.19320473 -0.018842556 -0.09173167 0.17358582 0.12962817 -0.08269636
-0.1811785 0.11051887 -0.22973138 0.05575454 -0.25248086 -0.20749736 0.15026818 0.026808282
-0.14092639 0.17431003 0.24571529 -0.16244407 -0.041082095 0.12519042 -0.23087478 0.25072783
-0.12845908 0.08409725 -0.13982639 -0.28597546 -0.058230806 0.091519736 -0.28344148 0.26404437
0.19131702 0.08399378 0.24280798 0.06533615 -0.25975746 -0.057510834 0.06597646 0.030032
0.18806379 -0.04840726 0.19026987 0.051681712 0.041341405 0.16293107 0.18524125 0.013687057
0.104250155 -0.11423143 0.16139749 0.23782445 -0.04679218 0.25500354 0.19241959 0.027514555
-0.11149859 -0.07982755 0.1123631 -0.08230182 -0.08798843 0.24014124 -0.103306316 0.09779986
0.0044468017 0.24389216 0.17042854 0.024110585 -0.13281928 0.21451354 0.25717434 -0.1636229
-0.10428566 0.11537472 0.07791977 0.18671285 0.038889762 0.17504781 0.1938407 0.04289864
-0.2299118 0.21193954 -0.082103185 -0.14792071 0.293806 0.28412637 -0.1566148 0.14336254
-0.125381 -0.07622637 -0.16441372 -0.24942969 0.1694055 -0.075928874 -0.19943853 0.22360429
-0.21955784 -0.27330226 -0.12118721 -0.04915814 0.2308541 -0.22136863 -0.24218301 0.25991875
-0.17629969 0.06307937 -0.20663838 0.21407536 -0.18384229 0.2870705 0.005635549 -0.050779026
-0.25380957 0.070139445 -0.108542435 -0.17791072 0.27777365 -0.22861782 0.28662467 -0.14925803
-0.0856464 -0.2630493 0.21181703 0.21426953 0.17386381 -0.19492148 0.15640415 0.25476527
-0.0917768 -0.25048867 -0.14952931 0.23774657 -0.16891336 0.116512224 -0.006872711 0.05994291
0.20045264 -0.057001725 0.28722474 0.20232098 -0.08172374 0.10306687 -0.24137183 -0.10438349
-0.09819706 0.19439535 0.14523046 0.088381074 0.13787156 0.12723 -0.26090917 0.020313373
0.19732998 0.1763115 -0.118888244 -0.116955064 0.19984198 0.20572075 0.15986466 0.064528234
0.110782705 -0.2275255 0.045019813 0.08314575 -0.13918369 -0.21161254 -0.15019342 -0.21528788
-0.014015354 -0.25201473 -0.026679436 0.12209457 0.21948226 -0.020986548 -0.07500464 -0.22128071
0.217709 -0.16870329 0.22189407 -0.26621825 -0.020792508 0.00057823834 -0.237864 -0.12320618
0.18223934 0.10543482 0.08383547 0.25205368 -0.2698665 0.03783579 -0.26270077 0.087286025
-0.04536267 0.039688215 0.00928998 0.23003677 -0.0016942205 0.06767454 0.26364437 -0.01568208
0.09619762 0.16337308 0.15607905 0.12362085 0.2893152 0.15444617 -0.054452263 0.19285533
00000000: 61ca 413e 61bf cebd b496 c4bd e51b 8dbe
00000010: 75fd 7f3d 3ced b4bd d04e 893d 0f74 883e
00000020: a498 58be 48a5 d83d 52f6 2bbe 5f25 3abe
00000030: 559a a7bd 023d a2bd b2dd 7e3e ed35 c53d
00000040: 616b f13c d9a6 653e 763b b83c ae3f 483e
00000050: e178 6cbe 55f0 9abe ddad 81be acf1 863e
00000060: 143d 54be bc35 113e c140 cabd cce7 a43d
00000070: fe1f 013e 68fa 3bbe 9ee2 8bbd bf1f 8abe
00000080: e64d 71be 7840 1dbc 0188 e7bc d7e7 073e
00000090: aa0b 58be 4ec6 1c3e 74cf 5a3e 7031 65be
000000a0: f009 93bd ef17 283c ab26 5ebe b946 62be
000000b0: 0c9f 063d 95ca 69be c95d 803e cc8d 0dbe
000000c0: dde3 18be 36a0 6d3e 76d7 45be b45b 9abc
000000d0: d0dd bbbd 7bc0 313e 3fbd 043e b65c a9bd
000000e0: db86 39be b857 e23d b43e 6bbe df5e 643d
000000f0: 2c45 81be 307a 54be e7df 193e 0b9d db3c
00000100: 024f 10be 547e 323e ca9c 7b3e bd57 26be
00000110: b345 28bd eb31 003e 706a 6cbe 665f 803e
00000120: c78a 03be 2e3b ac3d a62e 0fbe 606b 92be
00000130: 6d83 6ebd b36e bb3d 3e1f 91be d330 873e
00000140: 9ce8 433e ee04 ac3d a8a2 783e f6ce 853d
00000150: eefe 84be 7b90 6bbd ab1e 873d ab05 f63c
00000160: cb93 403e b146 46bd 1bd6 423e 34b0 533d
00000170: 9b55 293d 67d7 263e e2af 3d3e ae3f 603c
00000180: 1b81 d53d 2bf2 e9bd 6245 253e 4188 733e
00000190: 28a9 3fbd d38f 823e a409 453e 3466 e13c
000001a0: 5f59 e4bd a07c a3bd a01e e63d db8d a8bd
000001b0: 4733 b4bd 96e7 753e 4392 d3bd 4b4b c83d
000001c0: 7ab6 913b debe 793e d284 2e3e 9083 c53c
000001d0: c701 08be 70a9 5b3e 5bac 833e c38c 27be
000001e0: b893 d5bd 9549 ec3d 6694 9f3d a731 3f3e
000001f0: df4a 1f3d bc3f 333e 2d7e 463e 7cb6 2f3d
00000200: 006e 6bbe ae06 593e b725 a8bd 8778 17be
00000210: bd6d 963e 0379 913e a15f 20be a1cd 123e
00000220: e063 00be 921c 9cbd 125c 28be 7f6a 7fbe
00000230: a378 2d3e 9980 9bbd 9d39 4cbe 86f8 643e
00000240: c5d3 60be 46ee 8bbe 0031 f8bd 0c5a 49bd
00000250: 0465 6c3e 75ae 62be d3fe 77be 1214 853e
00000260: e887 34be c22f 813d 0399 53be 9236 5b3e
00000270: 2741 3cbe e8fa 923e 69aa b83b abfd 4fbd
00000280: 54f3 81be 45a5 8f3d 7f4b debd 3a2e 36be
00000290: 5938 8e3e ca1a 6abe 78c0 923e 19d7 18be
000002a0: 6167 afbd 66ae 86be 90e6 583e 7969 5b3e
000002b0: 5b09 323e 7f99 47be 6928 203e 9870 823e
000002c0: 7af5 bbbd 0d40 80be 361e 19be d673 733e
000002d0: a0f7 2cbe f69d ee3d 7a34 e1bb b286 753d
000002e0: 7543 4d3e a47a 69bd 1f0f 933e 3b2d 4f3e
000002f0: c75e a7bd b914 d33d 2d2a 77be 03c7 d5bd
00000300: 8a1b c9bd 930f 473e 4bb7 143e 2301 b53d
00000310: 342e 0d3e 9548 023e e395 85be 3b68 a63c
00000320: df10 4a3e 008b 343e ae7b f3bd 2386 efbd
00000330: 60a3 4c3e 76a8 523e 90b3 233e 6127 843d
00000340: 0be2 e23d 72fc 68be b266 383d 5248 aa3d
00000350: 2b86 0ebe f5b0 58be 4ecc 19be 6d74 5cbe
00000360: a8a0 65bc 1308 81be d58e dabc b80c fa3d
00000370: f5bf 603e fbeb abbc 089c 99bd 6997 62be
00000380: 1cef 5e3e 8ec0 2cbe 3338 633e c24d 88be
00000390: 0d55 aabc eb94 173a 9f92 73be 8653 fcbd
000003a0: f39c 3a3e 36ee d73d eeb1 ab3d 2e0d 813e
000003b0: f12b 8abe b4f9 1a3d b780 86be 04c3 b23d
000003c0: 35ce 39bd 1c90 223d 0035 183c c28e 6b3e
000003d0: 9b10 deba f398 8a3d 65fc 863e b577 80bc
000003e0: 4203 c53d 464b 273e 30d3 1f3e ee2c fd3d
000003f0: 1f21 943e 2327 1e3e 5609 5fbd de7b 453e

phi_x.0.bias f4 [32]
0.1876062 0.15401894 -0.18658993 -0.2207545 0.0075689945 -0.12123699 -0.052874304 0.15827653
0.12153382 -0.071507365 -0.18243842 -0.10394579 -0.043900836 0.25746325 -0.21197201 -0.16058987
0.30904645 0.28976867 -0.14121817 0.08918996 -0.22065169 0.060793813 0.14202073 0.027398335
0.050262313 0.09512444 0.15374172 0.02153125 -0.13077109 0.17011674 0.14681566 0.0878597
00000000: d71b 403e 24b7 1d3e 6e11 3fbe 780d 62be
00000010: 5405 f83b 194b f8bd ba92 58bd 3e13 223e
00000020: b9e6 f83d 7472 92bd 23d1 3abe 88e1 d4bd
00000030: 5dd1 33bd 39d2 833e 310f 59be ac71 24be
00000040: 563b 9e3e 8f5c 943e 7f9b 10be 3aa9 b63d
00000050: 84f2 61be ef02 793d e26d 113e 7972 e03c
00000060: dbdf 4d3d 9ad0 c23d 786e 1d3e 4e62 b03c
00000070: dbe8 05be 1533 2e3e d856 163e c9ef b33d

phi_x.2.weight f4 [32, 32]
0.06691458 0.16869363 0.024283476 0.17292595 -0.1270358 -0.07132138 -0.07016621 0.10917188
-0.090944916 0.1412758 -0.14841299 -0.17814174 0.14057529 0.08813988 -0.08494381 -0.11276153
0.07454775 -0.12611604 -0.14617458 -0.12933318 -0.044200726 0.12636149 0.13715512 0.009661393
0.016476069 -0.031412326 0.05749246 -0.028755883 0.14196603 -0.0010002683 -0.051942352 -0.17182243
-0.09715971 -0.03922407 -0.17100875 -0.060197163 -0.078778505 -0.06398918 -0.13506937 0.02645271
-0.17117757 0.019230468 0.061264426 -0.08858439 -0.10369248 0.045140095 0.12466911 -0.03879219
0.13552237 -0.08551035 -0.04536792 0.17133176 0.049364876 -0.007258678 -0.14299063 0.14881204
-0.0024923328 0.119309634 -0.043437257 0.052345015 0.17594242 -0.071296535 -0.09927551 -0.061271697
-0.04278101 0.013492429 -0.060094956 0.13839267 -0.009966444 0.07951317 -0.046076998 -0.15034632
-0.15902269 -0.08397553 -0.033350717 0.10964237 0.09069546 0.109248675 -0.050240498 0.1597022
-0.100055456 -0.034387402 -0.14605168 0.0801707 -0.155598 0.037895285 -0.062305834 0.1324974
0.13090564 -0.120366216 0.1692327 -0.13103811 -0.01879939 -0.058129564 0.0018955966 -0.06451182
0.036345635 0.018846808 -0.09007968 -0.17145513 -0.08336103 0.17007427 -0.04153848 -0.09659475
-0.002833965 0.10564523 0.08164418 -0.14539608 0.100379586 0.010603196 0.032356527 0.08356125
-0.0827559 0.063666485 -0.13545357 0.027945105 0.0974999 0.023214046 -0.04502202 -0.031575017
0.14364566 -0.12587875 0.10359393 -0.06525885 0.16544224 -0.04613976 -0.13302901 0.058720827
0.034327965 -0.12666869 0.045309126 -0.067478135 0.06089573 0.1844191 -0.110693075 -0.046245612
0.054514464 0.14614606 -0.26158413 -0.025196668 0.0131939445 0.0012375233 -0.10746634 -0.00520553
0.03448685 0.11580896 -0.084274665 -0.13888283 0.18382378 0.19013232 0.1381897 0.14882098
0.06655207 -0.06528202 -0.09710728 0.12510456 -0.043433867 0.0326598 0.0011587791 0.1358587
-0.0012482445 0.15724252 0.028297309 0.051959623 0.07250586 -0.15115307 0.14534172 0.06806345
0.10668682 -0.16822456 0.056080505 -0.17450044 0.06320872 0.11702242 -0.0045496677 -0.068441965
-0.15516715 -0.080409534 0.028994344 -0.11144055 0.022074135 0.13826351 0.11798747 0.08738497
-0.056415625 0.15303363 0.021291109 0.15420344 0.14482567 -0.14584836 -0.1478276 0.12178508
-0.15218237 -0.046459604 0.1077661 0.0019372166 0.1567168 -0.11450974 0.046226203 0.17727888
-0.11385931 -0.14216362 -0.09313469 0.07381151 0.0030014035 0.103869125 0.015378473 0.045972917
-0.05693307 -0.05247663 0.027996933 -0.03941373 0.0626164 0.14686055 -0.109466895 -0.027523996
0.1084611 -0.11107426 -0.14829588 0.077144355 -0.13491595 0.037002966 0.0780156 -0.14910153
-0.12041564 0.15104556 0.14553344 -0.1253663 0.14232485 0.02466097 -0.1369799 0.08347654
-0.1694622 0.13961299 -0.08212385 -0.1447732 0.1065859 -0.123944044 0.11831999 -0.11788369
0.026491337 -0.14809799 0.13593355 0.01644763 -0.0074410685 -0.092263654 0.08342835 0.07467433
-0.02216804 0.13446334 0.027846873 -0.1361849 0.02654774 0.0010486994 0.049376506 -0.064572185
00000000: 830a 893d 06be 2c3e 24ee c63c 8013 313e
00000010: ac15 02be f210 92bd 4db3 8fbd 8295 df3d
00000020: 5441 babd 9aaa 103e 93f9 17be ca6a 36be
00000030: f8f2 0f3e ae82 b43d 05f7 adbd 84ef e6bd
00000040: 7eac 983d 9024 01be caae 15be eb6f 04be
00000050: d20b 35bd e864 013e 6472 0c3e d24a 1e3c
00000060: d2f8 863c 36aa 00bd 377d 6b3d 7591 ebbc
00000070: 8b5f 113e 6f1b 83ba 81c1 54bd 38f2 2fbe
00000080: acfb c6bd 6ba9 20bd eb1c 2fbe 4d91 76bd
00000090: a056 a1bd c20c 83bd a04f 0abe 5bb3 d83c
000000a0: 2c49 2fbe 3789 9d3c 68f0 7a3d bc6b b5bd
000000b0: b95c d4bd d2e4 383d 8552 ff3d 8fe4 1ebd
000000c0: 60c6 0a3e 0d20 afbd b6d3 39bd 9871 2f3e
000000d0: d332 4a3d 34da edbb 236c 12be 2f62 183e
000000e0: 6856 23bb 9c58 f43d 44eb 31bd ba67 563d
000000f0: 402a 343e eb03 92bd f550 cbbd 08f8 7abd
00000100: 243b 2fbd 590f 5d3c 2126 76bd cfb6 0d3e
00000110: 4c4a 23bc cdd7 a23d 3cbb 3cbd 63f4 19be
00000120: d8d6 22be 5dfb abbd c39a 08bd 2e8c e03d
00000130: 8bbe b93d c5bd df3d fbc8 4dbd f988 233e
00000140: e0e9 ccbd ced9 0cbd 928e 15be 8930 a43d
00000150: 1555 1fbe 1638 1b3d 6734 7fbd 66ad 073e
00000160: 210c 063e 9082 f6bd 564b 2d3e db2e 06be
00000170: 2e01 9abc 4419 6ebd ab75 f83a c61e 84bd
00000180: 29df 143d 9f64 9a3c b27b b8bd ef91 2fbe
00000190: 30b9 aabd f327 2e3e 4124 2abd 78d3 c5bd
000001a0: 0bba 39bb 875c d83d 1035 a73d b6e2 14be
000001b0: d093 cd3d 07b9 2d3c 4788 043d 2922 ab3d
000001c0: ed7b a9bd 9363 823d 57b4 0abe 22ed e43c
000001d0: 07ae c73d 622b be3c 0269 38bd ce54 01bd
000001e0: d917 133e 5ce6 00be 0e29 d43d 6fa6 85bd
000001f0: b169 293e 0cfd 3cbd c238 08be 4085 703d
00000200: 7b9b 0c3d 70b5 01be 1096 393d fa31 8abd
00000210: cd6d 793d 5cd8 3c3e 0db3 e2bd 0a6c 3dbd
00000220: 8f4a 5f3d 50a7 153e 5bee 85be 3e69 cebc
00000230: 6a2b 583c 6434 a23a 5017 dcbd 2793 aabb
00000240: 1542 0d3d 3f2d ed3d 3298 acbd 4d37 0ebe
00000250: 4d3c 3c3e 0cb2 423e 9a81 0d3e 8764 183e
00000260: 744c 883d 94b2 85bd 2ee0 c6bd 691b 003e
00000270: b6e7 31bd 48c6 053d 2de2 973a 8b1e 0b3e
00000280: 239c a3ba 2f04 213e c2cf e73c 9dd3 543d
00000290: f47d 943d dfc7 1abe 76d4 143e da64 8b3d
000002a0: 9f7e da3d 0f43 2cbe acb4 653d 3eb0 32be
000002b0: 9373 813d 73a9 ef3d 6115 95bb 4d2b 8cbd
000002c0: 23e4 1ebe c1ad a4bd 8c85 ed3c f13a e4bd
000002d0: d1d4 b43c f394 0d3e 6aa3 f13d e4f6 b23d
000002e0: 1214 67bd d9b4 1c3e b16a ae3c 82e7 1d3e
000002f0: 2e4d 143e 4659 15be 1e60 17be 756a f93d
00000300: b2d5 1bbe 6d4c 3ebd 79b4 dc3d 34ea fd3a
00000310: 5e7a 203e 1584 eabd b057 3d3d 9888 353e
00000320: 122f e9bd 5793 11be 66bd bebd 7d2a 973d
00000330: 32b3 443b 56b9 d43d fef5 7b3c 194e 3c3d
00000340: a732 69bd bcf1 56bd d359 e53c 4b70 21bd
00000350: 073d 803d 9d62 163e 2e30 e0bd 017a e1bc
00000360: da20 de3d e77a e3bd e0da 17be dcfd 9d3d
00000370: 6827 0abe 6c90 173d a5c6 9f3d 12ae 18be
00000380: 7a9c f6bd b0ab 1a3e b806 153e 0660 00be
00000390: 9bbd 113e cd05 ca3c 7544 0cbe c0f5 aa3d
000003a0: 8087 2dbe b5f6 0e3e 8d30 a8bd 6d3f 14be
000003b0: b549 da3d 60d6 fdbd c051 f23d 016d f1bd
000003c0: 5c04 d93c 00a7 17be 2a32 0b3e 2ebd 863c
000003d0: 35d4 f3bb baf4 bcbd 7cdc aa3d dbee 983d
000003e0: c099 b5bc c2b0 093e 201f e43c 0e74 0bbe
000003f0: a57a d93c 8374 893a 053f 4a3d 6c3e 84bd

phi_x.2.bias f4 [32]
0.18118018 -0.15444444 0.019464869 -0.0049126623 0.07601929 0.061141588 0.1452914 0.0833196
-0.09905209 -0.09859063 0.07848381 -0.017184008 -0.12513064 -0.14409743 -0.087996356 0.051588636
0.1488469 0.14223059 0.11659851 0.076806195 0.08618777 -0.06366547 -0.066440426 0.028560974
0.114130646 -0.12281618 -0.12181615 0.017443452 0.10739256 -0.034790684 -0.16330342 -0.035889205
00000000: 4c87 393e af26 1ebe ca74 9f3c 66fa a0bb
00000010: 00b0 9b3d 9a6f 7a3d 45c7 143e 77a3 aa3d
00000020: d2db cabd e2e9 c9bd 1fbc a03d 7ac5 8cbc
00000030: 3f22 00be 478e 13be 6f37 b4bd 9b4e 533d
00000040: 526b 183e e5a4 113e 33cb ee3d 914c 9d3d
00000050: 3783 b03d 0b63 82bd eb11 88bd b4f8 e93c
00000060: 54bd e93d 0d87 fbbd bf7a f9bd 92e5 8e3c
00000070: a1f0 db3d ad80 0ebd 0339 27be 8f00 13bd

phi_z.0.weight f4 [32, 12]
0.24808356 -0.22399874 0.022613887 -0.13369536 0.11611743 -0.045871403 -0.10954117 -0.26253995
-0.038567618 0.10420181 -0.047848847 -0.12387521 -0.1339057 -0.28013086 0.038252234 0.07927409
0.19947639 0.15068026 0.15438062 -0.060614545 -0.14754966 0.18463646 0.04157135 0.2488886
-0.18214676 0.020551702 -0.25097996 -0.15575485 0.13472047 -0.19049118 0.21644156 0.10714016
0.20112279 -0.2126175 -0.10626189 -0.12308279 0.15405008 -0.19349636 -0.20680524 -0.047760785
0.066816315 -0.17826584 0.13199428 -0.20877999 0.018007442 -0.13347304 0.053648315 -0.067676865
-0.24554928 0.14046322 0.19700074 -0.03471833 -0.13675666 0.033166498 -0.067812994 0.09895995
0.14324953 0.11513719 0.15630116 -0.017008593 -0.20497668 0.18725845 0.08744856 -0.121308975
-0.26364067 -0.0065417043 -0.2026832 -0.2503638 -0.15145794 -0.028619403 0.08681186 -0.19905671
0.2145818 -0.27896526 -0.11350437 -0.016383667 0.029862361 0.16713494 -0.0070341136 0.22379373
0.20511957 -0.21400496 0.12131331 -0.28060427 -0.05459946 0.25317147 0.2597281 0.14702702
-0.20054878 0.16193298 -0.06375882 0.117909774 -0.1560819 0.19736983 -0.075905465 -0.25885668
0.24434496 0.1319808 0.2593593 -0.07525052 -0.13994798 0.069517605 -0.21493836 -0.033370607
-0.21020478 -0.053624406 0.26940736 -0.059104454 0.26006514 0.3033294 -0.2680216 -0.083034
-0.18849896 -0.024214897 -0.021358661 -0.11498591 0.12214299 -0.27032852 0.2652202 0.27584878
0.08050704 -0.034516517 0.2698551 -0.013452271 0.14615299 0.09039608 0.09076075 0.2392281
-0.17139389 -0.18451849 0.101754315 -0.027461657 0.22899717 0.13718267 0.11266542 -0.1259646
-0.17572437 0.13586475 0.019240437 -0.037132077 -0.11796633 -0.2564921 0.24950366 -0.0011610085
-0.20882352 -0.024168521 -0.0838276 -0.14468116 -0.07110709 0.19303983 -0.018783163 -0.138572
-0.066701934 0.10557822 -0.2221194 -0.08890251 -0.21671224 0.07051771 0.16131487 -0.2315829
-0.00966706 -0.2671117 -0.17224136 0.114724144 -0.17488168 -0.051425144 0.016637862 0.017394554
0.08794146 0.08945058 -0.071362145 -0.12574087 0.18808928 0.11134485 0.020047558 0.15536281
-0.20608881 0.23173384 0.15498738 0.13637905 0.16841097 -0.02111185 -0.03828838 0.14707687
0.12180446 0.2569167 -0.012682914 0.033936493 0.011906378 0.14693794 -0.09270582 0.04076743
0.22358723 0.14641614 -0.08773765 0.0147551 0.08226567 -0.16209489 0.08728579 -0.081478305
-0.018032754 0.09034219 -0.03557471 -0.27676597 -0.26191312 -0.07802078 -0.1241787 0.08630816
0.20624189 -0.15282682 0.03521867 0.14666326 0.077500455 -0.27095324 0.07884178 0.06334371
-0.20525545 0.13418548 0.080638744 0.26777548 0.29626796 0.11284728 -0.047708318 -0.24753825
0.113030456 0.03396306 -0.08125995 0.20015906 0.025086015 -0.1941783 -0.053836443 -0.05451448
-0.17439748 0.07815011 -0.21958393 0.14897278 0.109351985 0.09513501 -0.13109274 -0.20552973
0.068443 -0.04538417 0.11707825 -0.0832877 0.037828196 -0.007854716 -0.13269274 0.13738747
0.06811495 0.1550773 0.14383608 0.077147834 0.0423042 -0.1694763 0.013996183 -0.12759352
00000000: 9e09 7e3e ed5f 65be c240 b93c 70e7 08be
00000010: face ed3d a7e3 3bbd 1f57 e0bd a36b 86be
00000020: 14f9 1dbd c267 d53d 27fd 43bd 49b2 fdbd
00000030: 931e 09be 506d 8fbe 60ae 1c3d 745a a23d
00000040: 8a43 4c3e ed4b 1a3e f415 1e3e f546 78bd
00000050: 4217 17be 5711 3d3e b846 2a3d a7dc 7e3e
00000060: ae84 3abe 0b5c a83c 7280 80be 337e 1fbe
00000070: 2af4 093e 1f10 43be dba2 5d3e 4d6c db3d
00000080: 22f3 4d3e 67b8 59be d59f d9bd d412 fcbd
00000090: 4ebf 1d3e e923 46be c1c4 53be d0a0 43bd
000000a0: fed6 883d 528b 36be 8229 073e 6cca 55be
000000b0: 5884 933c 28ad 08be 56be 5b3d 2b9a 8abd
000000c0: 4571 7bbe 97d5 0f3e 90ba 493e cf34 0ebd
000000d0: f009 0cbe 98d9 073d 8ae1 8abd 84ab ca3d
000000e0: 01b0 123e 0ccd eb3d 690d 203e 9b55 8bbc
000000f0: 68e5 51be aec0 3f3e 3b18 b33d d770 f8bd
00000100: e9fb 86be cb5b d6bb 2f8c 4fbe af2f 80be
00000110: ca17 1bbe 3d73 eabc 6bca b13d 86d5 4bbe
00000120: 55bb 5b3e 89d4 8ebe fb74 e8bd 0a37 86bc
00000130: e9a1 f43c 6c25 2b3e 6c7e e6bb 2f2a 653e
00000140: dd0a 523e 1e24 5bbe 1d73 f83d 5dab 8fbe
00000150: afa3 5fbd b19f 813e 15fb 843e 408e 163e
00000160: a95c 4dbe c2d1 253e fc93 82bd ae7a f13d
00000170: efd3 1fbe 511b 4a3e 5374 9bbd dd88 84be
00000180: 9135 7a3e fa25 073e beca 843e f21c 9abd
00000190: 864e 0fbe 3f5f 8e3d cd18 5cbe 9eaf 08bd
000001a0: ec3f 57be 44a5 5bbd c3ef 893e 8317 72bd
000001b0: 4227 853e fe4d 9b3e 213a 89be bb0d aabd
000001c0: df05 41be 525e c6bc 5cf8 aebc bc7d ebbd
000001d0: 1b26 fa3d 8068 8abe f1ca 873e 0d3c 8d3e
000001e0: e0e0 a43d 3161 0dbd 732a 8a3e ea66 5cbc
000001f0: 21a9 153e 9421 b93d c6e0 b93d 36f8 743e
00000200: e181 2fbe 6af2 3cbe 9164 d03d 45f7 e0bc
00000210: 3c7e 6a3e 9d79 0c3e 21bd e63d ddfc 00be
00000220: 17f1 33be 2120 0b3e 1f9e 9d3c ce17 18bd
00000230: 5598 f1bd ef52 83be e37d 7f3e fb2c 98ba
00000240: d5d5 55be 10fd c5bc cead abbd 4c27 14be
00000250: 98a0 91bd 3cac 453e 26df 99bc d2e5 0dbe
00000260: 069b 88bd 6539 d83d 4573 63be 8512 b6bd
00000270: d0e9 5dbe 976b 903d ba2f 253e 1124 6dbe
00000280: 9762 1ebc ddc2 88be 0a60 30be 7ef4 ea3d
00000290: 2f14 33be 2ca3 52bd 204c 883c 067f 8e3c
000002a0: a71a b43d de31 b73d 5126 92bd 37c2 00be
000002b0: 7a9a 403e c508 e43d c73a a43c 6e17 1f3e
000002c0: f208 53be a34b 6d3e 03b5 1e3e f3a6 0b3e
000002d0: ed73 2c3e c2f2 acbc 47d4 1cbd 529b 163e
000002e0: 9e74 f93d 968a 833e ffcb 4fbc fe00 0b3d
000002f0: f812 433c e676 163e 8ddc bdbd c0fb 263d
00000300: 0df4 643e 1dee 153e ccaf b3bd 60bf 713c
00000310: e77a a83d 34fc 25be e4c2 b23d 19de a6bd
00000320: 6db9 93bc 5305 b93d cab6 11bd 45b4 8dbe
00000330: 7a19 86be 5cc9 9fbd 6751 febd 55c2 b03d
00000340: 1331 533e a27e 1cbe 7441 103d e52e 163e
00000350: 8fb8 9e3d 62ba 8abe cd77 a13d 59ba 813d
00000360: 7c2e 52be eb67 093e ed25 a53d de19 893e
00000370: 6fb0 973e 7a1c e73d cc69 43bd ab7a 7dbe
00000380: 837c e73d d91c 0b3d 9e6b a6bd 7ff6 4c3e
00000390: 3081 cd3c add6 46be 9a83 5cbd 934a 5fbd
000003a0: 4195 32be 2a0d a03d 9cda 60be 528c 183e
000003b0: eff3 df3d 25d6 c23d 2d3d 06be 6376 52be
000003c0: d82b 8c3d c0e4 39bd b9c6 ef3d be92 aabd
000003d0: bdf1 1a3d 11b1 00bc 9be0 07be 4daf 0c3e
000003e0: da7f 8b3d 95cc 1e3e c449 133e afff 9d3d
000003f0: 2b47 2d3d 328b 2dbe 3f50 653c e0a7 02be

phi_z.0.bias f4 [32]
-0.10402148 0.24763347 0.09336482 0.07659335 -0.110264204 0.17510419 -0.22914588 0.14735575
-0.16169867 -0.14948384 0.120071635 0.2624757 -0.29865786 -0.06459637 -0.2953284 -0.08076547
-0.15307523 -0.15021451 -0.011365174 -0.30490616 -0.26287344 -0.2505081 -0.053467356 -0.11424839
-0.21526575 -0.07853135 0.26689696 -0.075544104 -0.22933243 -0.15509999 0.18957828 0.2763319
00000000: 3709 d5bd a193 7d3e 0e36 bf3d f9dc 9c3d
00000010: 33d2 e1bd 834e 333e 38a5 6abe 6de4 163e
00000020: 5694 25be 4b12 19be 1ee8 f53d 3763 863e
00000030: afe9 98be 1a4b 84bd 4935 97be 5e68 a5bd
00000040: c1bf 1cbe d5d1 19be ff34 3abc a91c 9cbe
00000050: 5997 86be 9942 80be 9600 5bbd 0ffb e9bd
00000060: a06e 5cbe 0bd5 a0bd b8a6 883e deb6 9abd
00000070: 1fd6 6abe 88d2 1ebe cf20 423e 607b 8d3e

enc.0.weight f4 [32, 64]
-0.03876363 -0.0008713007 -0.030150622 -0.12564147 0.038836263 -0.11271755 -0.07522588 -0.07382963
0.12273614 0.039123695 -0.021531507 -0.024493545 0.09231131 -0.09730919 -0.11877158 -0.10503682
0.038006797 0.031549633 -0.05873467 -0.028021421 -0.022503942 0.086260214 0.0072460473 0.0771217
0.027011044 -0.011949019 0.08392292 0.08887374 -0.09985293 -0.01599349 0.09375413 0.019998373
-0.11160959 -0.09537068 -0.046368554 -0.086073235 0.06513192 -0.033304267 0.060533583 -0.07663189
-0.12523681 0.13201798 -0.010080977 0.013107175 -0.04049713 0.056406874 -0.060716804 -0.06858384
0.06528542 -0.13097422 -0.016132498 -0.11524937 0.036051873 -0.022041224 0.005254767 -0.0019341504
-0.025229892 -0.017356677 0.03175682 0.008464712 -0.039756898 0.010381766 -0.023812864 0.07128712
-0.049371067 -0.025514513 -0.11243349 0.05531034 -0.08216941 0.07169046 0.09765748 0.051275752
-0.05404541 0.052532263 -0.013368145 0.110750616 0.11889173 0.08901358 -0.015494447 -0.016313342
0.016615242 0.09207079 -0.11850043 -0.034070667 0.07768746 0.107879385 -0.08163835 -0.10178123
-0.047058936 -0.04747089 -0.030981034 0.046704568 -0.13151853 -0.06310785 0.0065367073 0.08209732
0.016526075 -0.093875796 -0.093303755 -0.11167051 -0.057709813 0.11782894 -0.014579177 -0.061945975
-0.034836754 -0.10735213 0.036435615 0.052064773 -0.027495148 -0.080171995 -0.10337424 -0.041524924
0.09969521 0.00012091267 0.013317351 -0.10761117 -0.100631185 0.06995034 0.065457605 0.054329623
-0.0880502 -0.03270068 0.026013548 0.026095456 -0.0016281646 0.10657561 -0.08599063 0.087226324
-0.078851454 0.008907139 -0.051579103 0.06375097 -0.07640578 -0.06001836 0.08238172 0.038753092
-0.03445308 0.11975795 0.06609143 -0.09930928 -0.08658674 0.04857126 0.044053316 -0.10611904
-0.035349768 0.0910853 0.1110113 -0.12761042 0.032927256 0.07896124 -0.064672664 -0.05178063
-0.079731606 -0.040809866 -0.014723942 -0.12245919 0.11531952 -0.044518173 0.047044758 0.10267024
0.05993077 0.026471315 0.05638457 0.06610265 -0.05652683 -0.0045076944 -0.11367071 -0.03497459
-0.030346423 0.104175255 -0.0032081292 -0.03752247 0.09213027 0.045014042 -0.108672954 -0.08492631
0.12829694 -0.027149212 -0.06682983 0.015280633 -0.0033083328 0.007648341 -0.023617186 0.024946466
0.10450662 -0.06970218 0.089265995 0.04245922 0.04951825 -0.111281 -0.020900378 -0.027776968
-0.11395654 0.017588317 0.09564714 -0.109743655 -0.06801821 -0.027034253 -0.061118945 -0.064836234
-0.0120856315 -0.026683941 0.0037235767 0.122402206 -0.10605198 0.05878617 -0.031638786 0.06087725
0.119460344 0.010954782 0.07415372 -0.040395156 0.051357552 -0.012899488 0.022855148 -0.00240165
-0.107760355 -0.07550061 0.05287525 -0.116857365 -0.067825496 0.120783865 0.030061036 -0.10105735
-0.03415823 0.0019814223 0.09439677 -0.03284788 0.027153268 -0.05480738 -0.03122501 -0.065017745
-0.10996345 -0.009326369 0.013618469 0.06569737 0.016078085 -0.0034924448 -0.063593775 0.012288302
-0.069099516 0.060344398 -0.12020685 -0.041097254 0.030200869 0.0064216554 0.063832894 -0.05034226
0.089266375 -0.09170441 0.009647161 -0.045027137 -0.034086898 0.11544646 -0.026464 0.07987693
00000000: 9dc6 1ebd 0068 64ba 70fe f6bc 28a8 00be
00000010: c612 1f3d 75d8 e6bd 0710 9abd fd33 97bd
00000020: 165d fb3d 2b40 203d d862 b0bc b0a6 c8bc
00000030: b60d bd3d 0a4a c7bd 843e f3bd 8b1d d7bd
00000040: 04ad 1b3d 303a 013d c493 70bd 2e8d e5bc
00000050: 305a b8bc 32a9 b03d 4070 ed3b fbf1 9d3d
00000060: 4446 dd3c d1c5 43bc c8df ab3d 6f03 b63d
00000070: b17f ccbd c804 83bc 2a02 c03d a1d3 a33c
00000080: 9293 e4bd b451 c3bd f4ec 3dbd 2a47 b0bd
00000090: e263 853d 0e6a 08bd 10f2 773d 2ef1 9cbd
000000a0: 143e 00be b92f 073e af2a 25bc 7abf 563c
000000b0: 52e0 25bd e50a 673d 2fb2 78bd af75 8cbd
000000c0: 5db4 853d 1b1e 06be 4d28 84bc dd07 ecbd
000000d0: 21ab 133d cc8f b4bc 2e30 ac3b 5183 fdba
000000e0: ebae cebc 972f 8ebc 7013 023d 93af 0a3c
000000f0: 21d8 22bd 4818 2a3c 3213 c3bc fbfe 913d
00000100: 5139 4abd d003 d1bc 8843 e6bd 188d 623d
00000110: 7048 a8bd 73d2 923d a500 c83d 8606 523d
00000120: b85e 5dbd 122c 573d 1006 5bbc 38d1 e23d
00000130: 827d f33d c04c b63d 6cdc 7dbc 8fa3 85bc
00000140: b01c 883c 9c8f bc3d 5ab0 f2bd af8d 0bbd
00000150: 9a1a 9f3d deef dc3d 0232 a7bd ad72 d0bd
00000160: dfc0 40bd d670 42bd f0cb fdbc 4a4d 3f3d
00000170: cbac 06be b03e 81bd e031 d63b a422 a83d
00000180: b161 873c f441 c0bd 0a16 bfbd 82b3 e4bd
00000190: 2061 6cbd 4d50 f13d 80dd 6ebc 10bb 7dbd
000001a0: fcb0 0ebd 6fdb dbbd 833d 153d df41 553d
000001b0: 813d e1bc 3731 a4bd e0b5 d3bd 0a16 2abd
000001c0: 012d cc3d 7f92 fd38 0531 5a3c 3f63 dcbd
000001d0: b917 cebd 2042 8f3d a30e 863d bd88 5e3d
000001e0: aa53 b4bd 26f1 05bd 5d1a d53c 23c6 d53c
000001f0: 2368 d5ba 5044 da3d db1b b0bd b7a3 b23d
00000200: df7c a1bd 40ef 113c 9c44 53bd de8f 823d
00000210: a27a 9cbd d0d5 75bd bfb7 a83d 90bb 1e3d
00000220: ac1e 0dbd a843 f53d f25a 873d aa62 cbbd
00000230: 6454 b1bd a8f2 463d 4071 343d f054 d9bd
00000240: ebca 10bd ee8a ba3d e459 e33d 4eac 02be
00000250: bbde 063d 6eb6 a13d 1a73 84bd ed17 54bd
00000260: 534a a3bd 3f28 27bd b03c 71bc e2cb fabd
00000270: a42c ec3d b058 36bd 01b2 403d c644 d23d
00000280: f879 753d 5fda d83c 82f3 663d d360 873d
00000290: ad88 67bd 48b5 93bb 30cc e8bd 8441 0fbd
000002a0: 1099 f8bc d659 d53d 7a3f 52bb 29b1 19bd
000002b0: ccae bc3d a560 383d ed8f debd d8ed adbd
000002c0: 4660 033e 0668 debc 14de 88bd 9f5b 7a3c
000002d0: 9dd0 58bb ef9e fa3b d478 c1bc 885c cc3c
000002e0: 9107 d63d 04c0 8ebd 17d1 b63d b8e9 2d3d
000002f0: a6d3 4a3d 4be7 e3bd 4537 abbc 868c e3bc
00000300: 0c62 e9bd 6015 903c a6e2 c33d 48c1 e0bd
00000310: 224d 8bbd f076 ddbc dc57 7abd dcc8 84bd
00000320: d002 46bc 4898 dabc 4007 743b 02ae fa3d
00000330: c831 d9bd c4c9 703d ac97 01bd 6c5a 793d
00000340: a0a7 f43d b07b 333c e8dd 973d 6475 25bd
00000350: 4c5c 523d 6058 53bc b83a bb3c 0065 1dbb
00000360: 76b1 dcbd 10a0 9abd b893 583d ea52 efbd
00000370: 18e8 8abd 885d f73d 9042 f63c 28f7 cebd
00000380: 80e9 0bbd c0da 013b 1853 c13d 808b 06bd
00000390: 8870 de3c b47d 60bd 98cb ffbc 0628 85bd
000003a0: 8434 e1bd a0cd 18bc 0020 5f3c 588c 863d
000003b0: 30b6 833c 80e1 64bb 743d 82bd e054 493c
000003c0: 0c84 8dbd b02b 773d 022f f6bd 9855 28bd
000003d0: d067 f73c c06c d23b d2ba 823d b033 4ebd
000003e0: 4ad1 b63d 86cf bbbd 200f 1e3c 606e 38bd
000003f0: b49e 0bbd 326f ec3d 08cb d8bc 8496 a33d

enc.0.bias f4 [32]
-0.04498819 -0.124471374 0.035347693 -0.07446177 0.104314506 0.09651755 -0.12289452 0.11803294
0.11132557 -0.009521142 -0.10968678 -0.1229122 0.018150404 -0.052531507 0.04229979 -0.01813503
-0.03778163 0.01287976 0.0057178736 -0.040327948 -0.026882077 0.038018923 0.048114195 0.10852592
-0.06827786 0.098429866 -0.00848029 -0.050061487 -0.028825682 0.0043173665 -0.053109236 0.01599753
00000000: 8945 38bd d9ea febd bec8 103d 6a7f 98bd
00000010: d8a2 d53d feaa c53d 1fb0 fbbd 41bb f13d
00000020: a9fe e33d 90fe 1bbc 76a3 e0bd 64b9 fbbd
00000030: 28b0 943c 472b 57bd 8b42 2d3d ea8f 94bc
00000040: e9c0 1abd a105 533c 005d bb3b eb2e 25bd
00000050: cd37 dcbc bbb9 1b3d 6413 453d d642 de3d
00000060: 43d5 8bbd 9995 c93d eaf0 0abc 460d 4dbd
00000070: d623 ecbc b278 8d3b 1289 59bd 410d 833c

enc.2.weight f4 [32, 32]
0.14693676 -0.094210744 -0.09749314 -0.06857347 -0.10221286 -0.01512816 0.037766486 0.07965529
-0.034276064 0.17197514 -0.09274117 -0.13187987 0.16226745 -0.14475037 -0.13152276 -0.09458928
-0.17723659 0.020218272 0.08763343 -0.03433679 0.12847646 -0.049218204 -0.023556659 -0.105979376
-0.10069462 0.13396041 0.04067828 -0.08099537 0.16468355 0.16004294 -0.004921198 0.13804562
-0.08361213 0.1584459 -0.004281343 -0.009138785 0.08323356 -0.18743068 -0.0038685307 -0.046648126
-0.034913864 0.08651568 -0.110422805 0.16946697 -0.10859414 0.048744936 0.10493645 0.087055564
0.009382517 0.0715184 -0.12711218 -0.15674563 0.1510122 -0.18588942 -0.023754973 -0.1125416
0.040776495 0.12663671 0.119867556 0.11468481 0.08968072 0.050854366 -0.013790027 0.007403096
-1.9240037e-05 0.14225484 -0.033735074 0.039756596 0.000930202 0.07411727 -0.16155787 -0.11100409
0.1605186 -0.10221258 -0.08448243 -0.033484615 -0.12784618 -0.08135762 0.015161612 -0.14299646
0.09414276 -0.025313355 0.0145051535 -0.11204082 -0.08235922 0.0003841053 0.121014684 -0.090233855
0.09513165 -0.00065072626 0.027789608 0.04911979 0.012269832 -0.116633095 -0.00028151987 0.08122947
0.015244 0.1199874 0.0810789 -0.032617908 0.008825837 -0.05626279 0.09237528 -0.11750762
-0.14858958 -0.16178793 -0.06693343 -0.13910285 -0.06283795 -0.08948709 0.026044533 0.042946037
-0.028282449 0.121414766 -0.034437276 -0.15079027 0.14775945 0.11355198 -0.106031775 -0.10871343
-0.08492438 0.15447341 -0.08544713 0.039921176 0.053009547 0.08909072 0.14246288 -0.064240694
0.025160277 0.13930064 0.1761233 -0.14561968 0.16126096 0.14872248 0.13168408 -0.12416377
-0.11088389 0.13015015 -0.17671825 -0.06888095 -0.1300112 -0.060129244 -0.08433287 -0.15062295
0.0691289 -0.056752227 -0.013920893 -0.02289166 0.024796592 -0.11687053 0.12968197 0.07887833
0.09895458 -0.17463838 -0.06568359 -0.02021327 -0.03467042 0.109718546 -0.066002004 -0.08484188
-0.11979549 0.0074709943 0.049961187 0.14282034 -0.125682 0.014732404 0.005505729 0.022021683
-0.07133219 0.04314678 -0.10311106 0.04917993 0.037659004 -0.07263916 0.056343637 -0.0022752977
-0.061319932 0.054573737 -0.07066203 0.16691601 -0.08754897 -0.09321827 -0.114052325 -0.056347173
0.021182451 0.04125727 0.10116204 -0.16346425 -0.044992104 0.049524896 -0.073087 -0.11554616
-0.12508632 0.11367887 -0.060711384 0.17507851 0.036214273 0.04048558 -0.08640121 0.1344896
0.13520859 0.051089376 -0.040574245 0.046546124 0.08578903 0.11944821 -0.046912547 0.045445148
0.12534261 -0.122649595 -0.076068275 -0.19057253 -0.12535448 0.14189485 0.11696534 -0.0051330854
0.12916039 0.155857 -0.0072992085 0.15574752 -0.008175877 0.03161491 0.04847655 -0.05036724
-0.11405749 -0.14003599 0.049256794 -0.027260097 0.1560674 -0.03278038 -0.001743936 0.055070046
0.04889745 0.10089203 -0.15493049 0.114035524 -0.102626786 0.023359157 0.061738 -0.1006697
0.14863628 0.15794025 -0.077385 0.09196925 0.13724741 -0.045917835 0.06931736 -0.05770936
-0.1367617 -0.115384616 0.033360023 0.106394835 -0.13790402 0.18295874 -0.09512547 -0.14618075
00000000: 9776 163e 90f1 c0bd 7caa c7bd 3f70 8cbd
00000010: fa54 d1bd 1adc 77bc 08b1 1a3d 5022 a33d
00000020: 0f65 0cbd 401a 303e 15ef bdbd 840b 07be
00000030: 7029 263e 7139 14be e7ad 06be 06b8 c1bd
00000040: 827d 35be caa0 a53c 2879 b33d bca4 0cbd
00000050: 558f 033e 0799 49bd e5f9 c0bc b70b d9bd
00000060: fb38 cebd eb2c 093e 459e 263d e7e0 a5bd
00000070: cea2 283e 4ce2 233e 0042 a1bb d55b 0d3e
00000080: d63c abbd a43f 223e 824a 8cbb d8ba 15bc
00000090: 5b76 aa3d d4ed 3fbe 2d87 7dbb 1b12 3fbd
000000a0: d701 0fbd 222f b13d 5a25 e2bd c088 2d3e
000000b0: 9b66 debd c5a8 473d ece8 d63d 304a b23d
000000c0: 21b9 193c 3d78 923d b229 02be ed81 20be
000000d0: f1a2 1a3e cc59 3ebe ca99 c2bc 367c e6bd
000000e0: 4105 273d 0ead 013e 1f7d f53d dfdf ea3d
000000f0: 86aa b73d ab4c 503d 91ef 61bc ac95 f23b
00000100: aa65 a1b7 41ab 113e ca2d 0abd d0d7 223d
00000110: cdd8 733a ccca 973d 6d6f 25be 1d56 e3bd
00000120: fd5e 243e d454 d1bd 2005 adbd 2a27 09bd
00000130: 1cea 02be d39e a6bd 6968 783c aa6d 12be
00000140: ebcd c03d f45d cfbc 06a7 6d3c a875 e5bd
00000150: f3ab a8bd be61 c939 8cd6 f73d 87cc b8bd
00000160: 62d4 c23d 8095 2aba 08a7 e33c d531 493d
00000170: 6807 493c 55dd eebd f598 93b9 a35b a63d
00000180: f8c1 793c f4bb f53d b20c a63d 5b9a 05bd
00000190: 3e9a 103c d073 66bd 402f bd3d d6a7 f0bd
000001a0: de27 18be bcab 25be 6514 89bd fa70 0ebe
000001b0: 2fb1 80bd 0245 b7bd 585b d53c 2fe8 2f3d
000001c0: 98b0 e7bc 4ea8 f83d 1a0e 0dbd c468 1abe
000001d0: 414e 173e f18d e83d 3027 d9bd 26a5 debd
000001e0: d5ec adbd 472e 1e3e e8fe aebd 6384 233d
000001f0: 8a20 593d 3275 b63d cae1 113e a090 83bd
00000200: ed1c ce3c d4a4 0e3e ab59 343e 531d 15be
00000210: 9821 253e b54a 183e 31d8 063e 9349 febd
00000220: 1817 e3bd 1546 053e a1f5 34be 7511 8dbd
00000230: a821 05be 154a 76bd b6b6 acbd e73c 1abe
00000240: 7493 8d3d 0675 68bd 7514 64bc 4a87 bbbc
00000250: 3922 cb3c d159 efbd 5acb 043e f68a a13d
00000260: b3a8 ca3d 67d4 32be 1e85 86bd 4d96 a5bc
00000270: 9202 0ebd 1eb4 e03d 0f2c 87bd 94c1 adbd
00000280: 5657 f5bd 3ecf f43b 1aa4 4c3d 7f3f 123e
00000290: c8b2 00be 2e60 713c 6769 b43b d166 b43c
000002a0: 9c16 92bd aeba 303d e42b d3bd e570 493d
000002b0: 5440 1a3d d7c3 94bd 96c8 663d 291d 15bb
000002c0: 9c2a 7bbd b688 5f3d 41b7 90bd 08ec 2a3e
000002d0: e04c b3bd 38e9 bebd 4494 e9bd 4bcc 66bd
000002e0: d286 ad3c 62fd 283d 0b2e cf3d 2c63 27be
000002f0: a449 38bd 9eda 4a3d a3ae 95bd 77a3 ecbd
00000300: a116 00be 78d0 e83d 80ac 78bd c847 333e
00000310: 6b55 143d 35d4 253d 1ef3 b0bd a4b7 093e
00000320: 1f74 0a3e 1843 513d 2e31 26bd 26a7 3e3d
00000330: 29b2 af3d 43a1 f43d 5f27 40bd b124 3a3d
00000340: d059 003e b62f fbbd afc9 9bbd 7225 43be
00000350: ed5c 00be e24c 113e 868b ef3d 7133 a8bb
00000360: 9f42 043e fa98 1f3e 332e efbb 477c 1f3e
00000370: 1df4 05bc a37e 013d 598f 463d e14d 4ebd
00000380: f996 e9bd 9865 0fbe 7ec1 493d 9150 dfbc
00000390: 22d0 1f3e b844 06bd c894 e4ba 2191 613d
000003a0: b148 483d 7ba0 ce3d 19a6 1ebe 758b e93d
000003b0: fe2d d2bd b45b bf3c fce0 7c3d ea2b cebd
000003c0: 1c34 183e 17bb 213e 077c 9ebd 605a bc3d
000003d0: 968a 0c3e 5714 3cbd 43f6 8d3d a660 6cbd
000003e0: 420b 0cbe c54e ecbd 85a4 083d 89e5 d93d
000003f0: b636 0dbe 8959 3b3e 24d1 c2bd 68b0 15be

enc.2.bias f4 [32]
0.0010268014 0.07125268 -0.08234596 -0.0054329443 -0.16025786 0.0654606 0.14634624 0.16008018
-0.16028872 -0.11420965 0.06786331 -0.09360006 -0.10895795 0.0037520712 -0.10710856 -0.0075060413
-0.05773798 0.16018574 -0.03902223 0.123439565 -0.11972579 0.08296288 -0.08191621 0.13296945
0.12309848 0.11091018 -0.03077407 -0.08361351 0.06640835 -0.0847497 -0.06374431 0.059478533
00000000: bd95 863a edec 913d 00a5 a8bd d706 b2bb
00000010: a31a 24be 3510 863d cadb 153e 0fec 233e
00000020: ba22 24be c0e6 e9bd ebfb 8a3d 63b1 bfbd
00000030: 5825 dfbd 4fe5 753b bc5b dbbd 3df5 f5bb
00000040: a97e 6cbd bb07 243e c6d5 1fbd e2cd fc3d
00000050: cc32 f5bd 71e8 a93d b0c3 a7bd 2529 083e
00000060: 0e1b fc3d e024 e33d e719 fcbc 8f3d abbd
00000070: 1a01 883d 4091 adbd 608c 82bd c39f 733d

enc_mean.weight f4 [12, 32]
0.097438745 -0.14708874 -0.14582302 -0.15295646 -0.004128284 0.07551004 0.031807072 0.0075629847
-0.16097336 0.15435965 -0.07230968 0.02608443 0.12573737 -0.05630118 -0.102910236 -0.09333584
0.032550875 -0.08835194 -0.12210315 -0.032258905 -0.16632202 -0.040977627 0.112569995 -0.06583008
-0.01407726 -0.01754555 0.03591727 0.0458222 -0.047445133 -0.028370287 -0.022518113 0.03165211
0.086588494 0.09439018 -0.118311346 0.1118234 -0.025364416 0.13667348 -0.14435624 -0.18481201
0.11316985 0.045351714 -0.036826506 -0.09412278 -0.028104741 -0.14290713 0.021892294 0.09900371
0.08578392 -0.10515687 0.10698912 -0.12831873 -0.0771261 0.09766652 0.03653122 0.07029055
0.07169146 0.039327092 -0.04043436 0.121306844 0.04534448 0.05706369 0.004692946 -0.06250713
-0.16348216 0.065108754 -0.104497015 0.04926603 -0.04084295 0.17783318 0.057655677 0.00076168217
-0.15530755 -0.062096298 0.13941094 -0.06895875 0.009089537 0.09235067 0.043561444 -0.14268519
0.055575572 0.085143834 -0.059364136 -0.15586977 -0.09262042 -0.058051236 -0.101896875 -0.03821177
0.0034492759 -0.061541144 0.13121556 0.065709524 0.12785429 0.07451719 0.10791321 0.084657475
0.11676689 0.17770782 0.07355967 0.15494145 -0.07681254 -0.011195671 0.042880036 -0.16731538
-0.12347564 0.17274015 -0.10681684 -0.06290124 -0.13360348 0.11976055 0.0032694575 -0.15750928
-0.0007222073 -0.08462241 0.094053194 -0.15037036 0.035822988 -0.060171608 -0.040299993 0.17025113
-0.15635416 0.027674858 0.08072222 0.0693523 0.16928203 0.122471064 0.13314737 0.04126556
0.1488681 -0.050416052 -0.116403505 0.021868952 -0.04045674 -0.05459973 0.06650611 0.12167399
0.16231278 0.16057031 -0.0013384336 0.15401767 -0.04993074 -0.04518513 -0.016535915 -0.1197211
-0.16927731 0.13013665 -0.086442575 0.099140316 0.0034637754 -0.05567876 -0.011380176 0.10088568
-0.07781465 0.065877415 -0.013664925 -0.12516366 -0.13609198 0.11009512 0.0255451 0.054716304
-0.14773205 -0.019783428 0.013619016 -0.019254854 0.09677709 -0.07691815 0.074363336 0.19259545
0.15159403 0.12778707 -0.056527473 0.16370484 -0.17294088 -0.07606787 -0.12935504 0.14949165
0.09214669 0.18822937 -0.0012228163 0.077093065 0.16809835 -0.030142378 0.15382579 0.051668953
-0.052779436 -0.15041943 0.18641074 -0.089966096 0.16197516 -0.03258071 -0.1543057 0.01169764
-0.08175006 -0.029264377 0.04326317 -0.044502825 0.1741464 0.055967454 0.027409205 0.15086815
-0.08375175 0.14041667 -0.018634023 -0.02382359 -0.10632828 0.1254467 -0.040893212 0.014766267
-0.057831965 0.1816368 0.07291428 0.086558826 -0.13106188 0.014832267 0.14899705 -0.007111946
-0.058687154 0.1710969 -0.11888944 -0.13235052 -0.036067806 0.16263443 -0.0032270576 -0.115461014
-0.09816507 0.13715464 0.15379435 -0.04896034 0.13704813 0.02172714 0.029180871 0.07488401
-0.16065434 -0.14197429 -0.02829157 0.124262854 0.12031863 0.09654437 -0.13329941 0.12807305
0.049214706 0.07071755 -0.10459251 -0.050035983 -0.09240222 -0.07052046 -0.076603115 0.0042594043
-0.0742188 0.047098763 -0.121217616 -0.0495058 0.0051024985 -0.010193821 0.080883995 -0.18687633
00000000: f78d c73d 6e9e 16be a152 15be 9ea0 1cbe
00000010: 8e46 87bb 02a5 9a3d 2248 023d ead2 f73b
00000020: 33d6 24be 7510 1e3e 1917 94bd 04af d53c
00000030: 4cc1 003e 119c 66bd 9ac2 d2bd dc26 bfbd
00000040: 1154 053d ddf1 b4bd 3711 fabd ea21 04bd
00000050: 5250 2abe 28d8 27bd 198b e63d ecd1 86bd
00000060: 4fa4 66bc afbb 8fbc fd1d 133d 0fb0 3b3d
00000070: d455 42bd ce68 e8bc e877 b8bc a5a5 013d
00000080: 4f55 b13d a44f c13d 384d f2bd ab03 e53d
00000090: 09c9 cfbc 22f4 0b3e 1fd2 13be 5c3f 3dbe
000000a0: 98c5 e73d b8c2 393d 64d7 16bd 72c3 c0bd
000000b0: ea3b e6bc 3f56 12be 7857 b33c 75c2 ca3d
000000c0: 7baf af3d 7c5c d7bd 1d1d db3d fc65 03be
000000d0: 4af4 9dbd 6205 c83d c3a1 153d 7ef4 8f3d
000000e0: f9d2 923d 7215 213d 809e 25bd b96f f83d
000000f0: 22bb 393d 9ebb 693d 49c7 993b bd03 80bd
00000100: de67 27be bd57 853d 8802 d6bd 2dcb 493d
00000110: f04a 27bd e719 363e 5c28 6c3d a0ab 473a
00000120: f108 1fbe b058 7ebd bec1 0e3e 3f3a 8dbd
00000130: 48ec 143c 5922 bd3d 7c6d 323d 111c 12be
00000140: 36a3 633d e45f ae3d cf27 73bd 539c 1fbe
00000150: c6af bdbd 22c7 6dbd 4faf d0bd f283 1cbd
00000160: 3f0d 623b 9112 7cbd 5f5d 063e b792 863d
00000170: 3cec 023e 789c 983d 9a01 dd3d e660 ad3d
00000180: 7b23 ef3d 0af9 353e 74a6 963d f9a8 1e3e
00000190: e54f 9dbd 0c6e 37bc faa2 2f3d b954 2bbe
000001a0: cce0 fcbd cbe2 303e cac2 dabd 5ed2 80bd
000001b0: 5acf 08be 0545 f53d 6544 563b 1d4a 21be
000001c0: 8352 3dba 844e adbd f69e c03d b0fa 19be
000001d0: 20bb 123d 8176 76bd 9b11 25bd 5056 2e3e
000001e0: 4e1b 20be 62b6 e23c b151 a53d 9408 8e3d
000001f0: 4558 2d3e 1cd2 fa3d c957 083e 1306 293d
00000200: e170 183e 1081 4ebd f664 eebd 8426 b33c
00000210: f7b5 25bd f7a3 5fbd 5b34 883d 3630 f93d
00000220: 5235 263e 8b6c 243e 616e afba cfb6 1d3e
00000230: 2d84 4cbd 0b14 39bd 5476 87bc 5630 f5bd
00000240: 0857 2dbe 8b42 053e ce08 b1bd 140a cb3d
00000250: 8200 633b 690f 64bd eb73 3abc 279d ce3d
00000260: 4a5d 9fbd bdea 863d d9e2 5fbc e72a 00be
00000270: b25b 0bbe 8d79 e13d f543 d13c 341e 603d
00000280: 1247 17be db10 a2bc 4b22 5f3c 5bbc 9dbc
00000290: 1133 c63d 4387 9dbd ce4b 983d be37 453e
000002a0: 773b 1b3e 9dda 023e 5a89 67bd 3ea2 273e
000002b0: 6a17 31be 79c9 9bbd a675 04be 5714 193e
000002c0: 67b7 bc3d 33bf 403e e846 a0ba f8e2 9d3d
000002d0: f921 2c3e 26ed f6bc 8284 1d3e d3a2 533d
000002e0: 402f 58bd 8d07 1abe 75e2 3e3e 2540 b8bd
000002f0: d1dc 253e 5a73 05bd 5002 1ebe 75a7 3f3c
00000300: 936c a7bd d9bb efbc b934 313d 9848 36bd
00000310: 6f53 323e 213e 653d 4589 e03c 2e7d 1a3e
00000320: 0a86 abbd 63c9 0f3e 61a6 98bc b029 c3bc
00000330: a4c2 d9bd 1a75 003e a47f 27bd 36ee 713c
00000340: 36e1 6cbd fffe 393e 1554 953d c145 b13d
00000350: 1635 06be 0903 733c af92 183e 540b e9bb
00000360: f161 70bd 0734 2f3e 4f7c f3bd e586 07be
00000370: d6bb 13bd a489 263e 0b7d 53bb d376 ecbd
00000380: c50a c9bd 4472 0c3e 447c 1d3e a38a 48bd
00000390: 5856 0c3e 1dfd b13c b90c ef3c ca5c 993d
000003a0: 9282 24be b561 11be b9c3 e7bc 867d fe3d
000003b0: 9d69 f63d 0eb9 c53d a47f 08be 9525 033e
000003c0: 5c95 493d 5dd4 903d 9934 d6bd 88f2 4cbd
000003d0: 603d bdbd 086d 90bd 18e2 9cbd 7992 8b3b
000003e0: 0700 98bd a2ea 403d f140 f8bd 98c6 4abd
000003f0: dc32 a73b fc03 27bc 82a6 a53d 825c 3fbe

enc_mean.bias f4 [12]
-0.058880374 0.038486034 -0.023511006 0.16195735 0.069829 -0.14571837 -0.1640037 0.14788064
-0.0063618533 -0.12391352 0.0668251 0.04757157
00000000: 8c2c 71bd 88a3 1d3d 279a c0bc 26d8 253e
00000010: 8202 8f3d 3237 15be 96f0 27be 066e 173e
00000020: 1877 d0bb 5fc6 fdbd 99db 883d 68da 423d

enc_std.0.weight f4 [12, 32]
-0.06886181 0.0987645 0.12306757 -0.103446245 0.08657342 -0.1352022 -0.10331282 -0.16175073
0.14740196 -0.047131155 -0.018617196 -0.13460553 -0.05484763 -0.12842767 -0.17538863 0.12229707
0.0055204993 0.17491372 -0.1054161 0.08165667 -0.16057034 -0.11567721 0.070191085 -0.15711604
-0.10999857 -0.06433479 -0.017633658 -0.07205597 -0.058756944 0.13022198 0.16711442 0.15431693
0.17699558 -0.0014388285 -0.10669934 0.0357543 0.16903944 -0.008749379 -0.07118691 0.057175234
0.04132214 -0.069822975 -0.110446945 0.022592228 0.0716574 -0.04862136 -0.04503568 0.095758714
0.14253756 0.13530351 0.090616465 0.12458506 0.15435976 -0.08097601 -0.15702912 0.044562407
0.1349284 0.14816101 -0.029071955 0.020860787 0.008709182 -0.1413245 -0.054872774 0.03644767
0.08678189 -0.09473335 -0.105831385 0.050559036 0.0015937198 -0.15336566 -0.1466487 0.059881378
-0.0019043632 -0.12351151 0.040253457 0.170355 0.02902588 0.11214304 -0.1533888 0.15660226
0.16585489 0.08062543 0.08078611 -0.050852783 -0.09384767 -0.12563796 -0.013202269 0.03482058
-0.050432216 0.062078726 0.13406314 0.06371555 0.024145646 0.07991658 -0.099545166 0.058999747
-0.007916593 -0.017677557 -0.14940645 0.17153531 0.042766534 0.08921593 -0.07505084 0.14053878
-0.04920086 0.059509367 -0.13618699 0.062721506 -0.1527721 0.18006396 -0.01711181 0.0441651
-0.1756099 -0.1556887 -0.036929928 -0.08745715 -0.034687363 0.010662558 0.15195547 0.11020318
0.0577284 0.1698064 -0.043764167 0.14323828 0.051526926 -0.13748771 -0.15836528 0.12512626
0.18754666 -0.05263095 0.08514361 -0.10095769 0.10134167 0.12573798 0.093921155 0.05475705
0.015285081 0.12382447 -0.08226118 -0.013541761 0.009524281 0.11763375 0.059297476 0.14378339
0.11755188 -0.10966073 -0.12013595 0.09482425 0.097085856 -0.03329355 0.14554036 0.04191199
0.083513826 0.1706456 -0.017976683 0.03134732 0.11976871 -0.054270517 -0.117750265 0.19612013
-0.10213383 -0.047153473 -0.06748777 -0.16078633 0.1206628 0.07729336 -0.13005792 -0.058157902
-0.1587507 -0.054900568 -0.016655762 -0.1756668 -0.10968871 -0.092294544 -0.049337078 -0.012613554
-0.011267264 0.0399161 -0.15942511 0.049100727 0.031493433 0.09272984 -0.023438305 0.19036253
-0.10168228 -0.11598778 -0.016672656 0.11284418 0.10548998 -0.04568171 -0.15937786 0.003660979
0.067733765 0.09002037 0.16836503 -0.09490245 0.010230136 0.19530152 0.08922736 -0.12882364
0.17457499 0.11867941 0.06496961 0.029761069 0.09584821 0.07563166 -0.14096391 -0.070931986
0.047167633 -0.0752506 -0.043132 0.058892045 0.02578443 0.19049771 -0.07602172 -0.12528251
-0.027967751 0.09308045 0.052127056 0.12346878 -0.13190451 -0.032253664 0.15330248 -0.107935555
-0.043498714 -0.009435947 0.11298118 0.07437204 -0.12187979 0.13842817 -0.02018767 -0.00053322077
0.043760523 -0.061443992 -0.06023916 -0.058653135 0.11056739 0.107493766 -0.038824305 0.08544695
-0.041083947 -0.029820992 0.031167129 -0.061527453 -0.12289751 0.15925622 0.103390224 -0.048620436
0.15782452 -0.08848853 0.13968748 -0.095824346 -0.11150657 -0.1327482 0.052326996 0.0013235237
00000000: 6c07 8dbd 0b45 ca3d da0a fc3d a0db d3bd
00000010: 684d b13d 7272 0abe ac95 d3bd fca1 25be
00000020: 8af0 163e 990c 41bd 1783 98bc 08d6 09be
00000030: e9a7 60bd 8b82 03be 1499 33be e376 fa3d
00000040: 4ee5 b43b 951c 333e 65e4 d7bd 9d3b a73d
00000050: 8d6c 24be 2ce8 ecbd 58c0 8f3d 07e3 20be
00000060: ee46 e1bd f5c1 83bd 7674 90bc 1592 93bd
00000070: 1fab 70bd e958 053e 0b20 2b3e 4205 1e3e
00000080: 543e 353e 1397 bcba 2f85 dabd 1a73 123d
00000090: ad18 2d3e 8e59 0fbc 71ca 91bd 9430 6a3d
000000a0: 6741 293d 59ff 8ebd 0232 e2bd 5613 b93c
000000b0: 1dc1 923d 3127 47bd 5577 38bd 251d c43d
000000c0: 5ef5 113e 018d 0a3e 2095 b93d 7426 ff3d
000000d0: 7c10 1e3e c0d6 a5bd 3ecc 20be 1287 363d
000000e0: ac2a 0a3e 85b7 173e 4f28 eebc 3ee4 aa3c
000000f0: f5b0 0e3c 5fb7 10be 46c2 60bd 274a 153d
00000100: b4ba b13d 8f03 c2bd 20be d8bd fe16 4f3d
00000110: 5de4 d03a e30b 1dbe 142b 16be 2d46 753d
00000120: d39b f9ba 9af3 fcbd cfe0 243d 8b71 2e3e
00000130: afc7 ed3c 40ab e53d f411 1dbe 585c 203e
00000140: ddd5 293e f21e a53d 3073 a53d 024b 50bd
00000150: 3533 c0bd 3da7 00be 544e 58bc 06a0 0e3d
00000160: 0392 4ebd 4346 7e3d d947 093e 4c7d 823d
00000170: 17cd c53c 4eab a33d 56de cbbd b8a9 713d
00000180: 99b4 01bc 86d0 90bc 01fe 18be f4a6 2f3e
00000190: f62b 2f3d d7b6 b63d 41b4 99bd 66e9 0f3e
000001a0: d786 49bd 18c0 733d 9a74 0bbe 2274 803d
000001b0: 4a70 1cbe b062 383e 112e 8cbc 77e6 343d
000001c0: 15d3 33be dc6c 1fbe d643 17bd bc1c b3bd
000001d0: 5614 0ebd 02b2 2e3c 379a 1b3e 34b2 e13d
000001e0: 9d74 6c3d bbe1 2d3e 0e42 33bd 0ead 123e
000001f0: e60d 533d 94c9 0cbe 822a 22be 1921 003e
00000200: 3b0c 403e 8d93 57bd c65f ae3d e8c2 cebd
00000210: 398c cf3d 75c1 003e bc59 c03d ee48 603d
00000220: 476e 7a3c af97 fd3d 8d78 a8bd 43de 5dbc
00000230: bb0b 1c3c f7e9 f03d e9e1 723d f43b 133e
00000240: 0abf f03d ce95 e0bd d609 f6bd 3733 c23d
00000250: f3d4 c63d d15e 08bd 8808 153e e8ab 2b3d
00000260: 4c09 ab3d b8bd 2e3e d643 93bc 0c66 003d
00000270: 4c49 f53d c34a 5ebd 0d27 f1bd b7d3 483e
00000280: 8b2b d1bd 0024 41bd 0737 8abd 2ca5 24be
00000290: 0f1e f73d fb4b 9e3d e72d 05be fb36 6ebd
000002a0: 8b8f 22be 6bdf 60bd aa71 88bc ffe1 33be
000002b0: 79a4 e0bd ec04 bdbd ad15 4abd 14a9 4ebc
000002c0: 559a 38bc 117f 233d 5640 23be d81d 493d
000002d0: 42ff 003d 24e9 bd3d b001 c0bc 65ee 423e
000002e0: cd3e d0bd 008b edbd 1895 88bc d91a e73d
000002f0: 210b d83d bf1c 3bbd f333 23be 09ed 6f3b
00000300: 00b8 8a3d 9a5c b83d e267 2c3e 375c c2bd
00000310: 4d9c 273c 1ffd 473e d6bc b63d 58ea 03be
00000320: c9c3 323e 310e f33d c90e 853d 7ccd f33c
00000330: 114c c43d c6e4 9a3d d858 10be ca44 91bd
00000340: d932 413d fd1c 9abd 2eab 30bd c938 713d
00000350: de39 d33c d511 433e 47b1 9bbd 0f4a 00be
00000360: a01c e5bc f7a0 be3d 2e83 553d 33dd fc3d
00000370: fa11 07be 6b1c 04bd 53fb 1c3e 510d ddbd
00000380: b52b 32bd 3b99 1abc ad62 e73d 5e50 983d
00000390: 1d9c f9bd 1dc0 0d3e 9d60 a5bc d7c7 0bba
000003a0: 3c3e 333d b2ac 7bbd 56bd 76bd 453e 70bd
000003b0: 2871 e23d b125 dc3d 3c06 1fbd cffe ae3d
000003c0: a447 28bd 274b f4bc 3552 ff3c 3604 7cbd
000003d0: b1b1 fbbd 1014 233e 41be d33d 3926 47bd
000003e0: c09c 213e 7939 b5bd 3c0a 0f3e 8e3f c4bd
000003f0: 8e5d e4bd 25ef 07be d554 563d 167a ad3a

enc_std.0.bias f4 [12]
0.065914035 -0.13118093 0.069604784 -0.076980904 -0.09089621 0.12157386 -0.12186331 0.057673637
0.06372039 0.048899848 -0.11548059 0.010035427
00000000: f0fd 863d 4b54 06be f48c 8e3d 2aa8 9dbd
00000010: cb27 babd b7fb f83d 7993 f9bd 313b 6c3d
00000020: d67f 823d 354b 483d 1681 ecbd a26b 243c
