varRNN/VariationalRNN/VariationalRecurrentNeuralNetwork-master/saves/vrnn_state_dict_61.pth (torch, 92942 bytes, 30 tensors)

phi_x.0.weight f4 [32, 12]
0.2250318 -0.052829854 -0.053035885 -0.2643876 0.074162334 -0.10328729 0.058888488 0.23946457
-0.22444588 0.19652234 -0.15917106 -0.17342019 -0.059807133 -0.09033273 0.30445507 0.020911941
-0.023570813 0.25590596 -0.0320799 0.13252057 -0.20934218 -0.25160894 -0.28191292 0.2961815
-0.20726424 0.14180654 -0.09875632 0.08052024 0.1260986 -0.18357241 -0.06830333 -0.26977345
-0.23564872 -0.00959789 -0.028263094 0.13272034 -0.210982 0.15310022 0.213682 -0.2238214
-0.0717963 0.010259612 -0.21694438 -0.22097291 0.032866523 -0.22831185 0.25071552 -0.13823622
-0.003304307 0.19827953 -0.09542277 0.20912567 0.023961693 0.30176035 0.2876488 -0.008902728
-0.05391847 0.1591605 -0.12478298 0.13050273 0.002326821 -0.045043092 0.11146541 0.27378517
-0.20750615 0.17403586 0.48133397 -0.22732273 -0.04285608 0.2379354 -0.20647147 0.18139488
-0.03948878 0.04919537 -0.120157614 -0.27659073 0.023138523 0.13884792 -0.29921177 0.31248417
0.22537962 0.05109267 0.26534802 0.07615188 -0.2562798 -0.13164738 -0.008084556 0.071212575
0.104509436 -0.07793366 0.23607263 0.004031239 0.020932866 0.09567212 0.11628177 -0.04443108
0.04376161 -0.12783267 0.09965742 0.27072483 -0.14134166 0.22252262 0.22071674 -0.050748046
-0.14178817 -0.15864974 0.057695758 -0.14160037 -0.15773088 0.20180674 -0.19240417 0.12795424
0.015848126 0.1404883 0.16178517 0.038324103 -0.22170126 0.13755602 0.25672394 -0.25508696
-0.03829903 0.16839202 0.1688627 0.23535195 0.08835588 0.2872514 0.25062224 0.117317095
-0.118775465 0.15082131 -0.032103293 -0.05294297 0.36077306 0.20969431 -0.08016432 0.20751183
-0.09364173 0.033173468 -0.054146122 -0.14713803 0.26304755 -0.08229215 -0.09276529 0.28397757
-0.21955784 -0.27330226 -0.12118721 -0.04915814 0.2308541 -0.22136863 -0.24218301 0.25991875
-0.17629969 0.06307937 -0.20663838 0.21407536 -0.16381724 0.26687473 0.078618914 -0.12693232
-0.27053055 0.11589139 -0.16193682 -0.2075829 0.31351414 -0.16641463 0.26946872 -0.09234903
-0.0070222476 -0.22921783 0.285682 0.21521154 0.2325948 -0.09665669 0.16428803 0.33939025
0.009296303 -0.25957397 -0.11436375 0.35538682 -0.08934677 0.09360711 0.06289553 0.18574479
0.268473 0.054564912 0.4055706 0.29805392 0.036669284 0.116527714 -0.16932218 -0.008418245
-0.13030075 0.11366077 0.06405799 0.036893036 0.12688178 0.054365113 -0.30234036 0.023497732
0.13935418 0.11978823 -0.21193478 -0.16621336 0.04299261 0.19555002 0.09685388 0.104800016
0.20613049 -0.32116807 0.032990366 0.144433 -0.20291144 -0.22523502 -0.11872668 -0.2548041
-0.04488631 -0.28128108 -0.06429823 0.084064454 0.1810637 -0.05867654 -0.1139007 -0.26044926
0.18136348 -0.2087979 0.17995885 -0.30472842 -0.07850367 -0.102150686 -0.25517762 -0.16875978
0.15557018 0.10997737 0.12847315 0.24569078 -0.25993854 0.1022653 -0.2813696 0.028465625
-0.032962464 0.015601187 -0.028830377 0.2900491 0.015028107 0.07404409 0.3243429 0.021990977
0.115594946 0.13243924 0.1761427 0.1125513 0.29506028 0.12785402 -0.07463253 0.2550976
00000000: bc6e 663e 1e64 58bd 283c 59bd d05d 87be
00000010: 6ce2 973d 4988 d3bd 0e35 713d 3336 753e
00000020: 24d5 65be 273d 493e bdfd 22be 1095 31be
00000030: 53f8 74bd 5e00 b9bd 89e1 9b3e 854f ab3c
00000040: 9417 c1bc 1b06 833e 3766 03bd 79b3 073e
00000050: cc5d 56be e3d2 80be e456 90be 1aa5 973e
00000060: 143d 54be bc35 113e c140 cabd cce7 a43d
00000070: fe1f 013e 68fa 3bbe 9ee2 8bbd bf1f 8abe
00000080: e64d 71be 7840 1dbc 0188 e7bc d7e7 073e
00000090: aa0b 58be 4ec6 1c3e 74cf 5a3e 7031 65be
000000a0: f009 93bd ef17 283c ab26 5ebe b946 62be
000000b0: 0c9f 063d 95ca 69be c95d 803e cc8d 0dbe
000000c0: 138d 58bb ca09 4b3e 036d c3bd 0a25 563e
000000d0: 504b c43c 5580 9a3e b446 933e bfdc 11bc
000000e0: 9dd9 5cbd f8fa 223e 388e ffbd 82a2 053e
000000f0: 947d 183b 1b7f 38bd fa47 e43d 922d 8c3e
00000100: 7e7c 54be 7536 323e 6871 f63e 4ac7 68be
00000110: db89 2fbd 56a5 733e 426d 53be 94bf 393e
00000120: fdbe 21bd 1681 493d 3215 f6bd 4d9d 8dbe
00000130: 008d bd3c 262e 0e3e 4932 99be edfd 9f3e
00000140: eac9 663e 8c46 513d b2db 873e 84f5 9b3d
00000150: 1b37 83be 92ce 06be 1675 04bc e6d7 913d
00000160: 0b09 d63d af9b 9fbd 06bd 713e 7c18 843b
00000170: 677b ab3c bfef c33d 2325 ee3d 5dfd 35bd
00000180: 603f 333d 91e6 02be 3019 cc3d 729c 8a3e
00000190: debb 10be f8dc 633e 9203 623e 2fdd 4fbd
000001a0: eb30 11be 1475 22be 6352 6c3d b0ff 10be
000001b0: 3484 21be 6da6 4e3e 9905 45be 7006 033e
000001c0: eed3 813c 2adc 0f3e 03ab 253e bcf9 1c3d
000001d0: a805 63be 7cdb 0c3e 5271 833e c29a 82be
000001e0: 72df 1cbd f56e 2c3e 58ea 2c3e 1a00 713e
000001f0: edf3 b43d 9e12 933e 8f51 803e f243 f03d
00000200: 8d40 f3bd e770 1a3e be7e 03bd bada 58bd
00000210: 3fb7 b83e 1bba 563e 312d a4bd fb7d 543e
00000220: 3cc7 bfbd e7e0 073d 53c8 5dbd 5aab 16be
00000230: 2bae 863e c988 a8bd bafb bdbd 8265 913e
00000240: c5d3 60be 46ee 8bbe 0031 f8bd 0c5a 49bd
00000250: 0465 6c3e 75ae 62be d3fe 77be 1214 853e
00000260: e887 34be c22f 813d 0399 53be 9236 5b3e
00000270: b5bf 27be cea3 883e f402 a13d 8cfa 01be
00000280: fb82 8abe 7758 ed3d c4d2 25be 9d90 54be
00000290: ed84 a03e 9968 2abe cef7 893e 7d21 bdbd
000002a0: e21a e6bb 14b8 6abe e944 923e 6a60 5c3e
000002b0: 552d 6e3e f1f3 c5bd 1f3b 283e 8fc4 ad3e
000002c0: 854f 183c e1e6 84be 8b37 eabd 43f5 b53e
000002d0: 70fb b6bd 16b5 bf3d 5fcf 803d e233 3e3e
000002e0: 4b75 893e 757f 5f3d f3a6 cf3e 869a 983e
000002f0: 8832 163d 15a6 ee3d cb62 2dbe aeec 09bc
00000300: 8f6d 05be fac6 e83d d630 833d 271d 173d
00000310: 4ced 013e f4ad 5e3d 5bcc 9abe 517e c03c
00000320: ddb2 0e3e 8853 f53d 6e05 59be d633 2abe
00000330: 0519 303d 443e 483e 545b c63d 64a1 d63d
00000340: df13 533e 2470 a4be e820 073d 3fe6 133e
00000350: 04c8 4fbe 02a4 66be f926 f3bd af75 82be
00000360: b5da 37bd 1304 90be caae 83bd fc29 ac3d
00000370: c368 393e d056 70bd c544 e9bd 9b59 85be
00000380: 59b7 393e 1ecf 55be 2247 383e 5d05 9cbe
00000390: 88c6 a0bd 6134 d1bd a4a6 82be 5dcf 2cbe
000003a0: ca4d 1f3e d13b e13d 778e 033e 5d96 7b3e
000003b0: aa16 85be 7870 d13d ad0f 90be be30 e93c
000003c0: a603 07bd 1f9c 7f3c af2d ecbc 5181 943e
000003d0: 7338 763c 6ea4 973d 4610 a63e 6c26 b43c
000003e0: 0bbd ec3d 279e 073e c05e 343e 4c81 e63d
000003f0: 2412 973e 2aec 023e f1d8 98bd 279c 823e

phi_x.0.bias f4 [32]
0.23651 0.16425592 -0.18658993 -0.2207545 0.016367525 -0.13073017 -0.11012009 0.10875767
0.08757072 -0.07503631 -0.19491734 -0.1715527 -0.043900836 0.29120436 -0.18884267 -0.13849035
0.29333138 0.37494504 -0.17830576 0.09586591 -0.23371671 0.05243812 0.1570057 0.039362147
0.05771657 0.053387675 0.20346971 -0.040157694 -0.052262817 0.17221805 0.10617247 0.14308362
00000000: ad2f 723e b432 283e 6e11 3fbe 780d 62be
00000010: 3015 863c 21de 05be a486 e1bd 57bc de3d
00000020: 4758 b33d a3ac 99bd 6998 47be 83ab 2fbe
00000030: 5dd1 33bd bd18 953e f95f 41be 6ad0 0dbe
00000040: 882f 963e ccf8 bf3e c995 36be 5955 c43d
00000050: 6f53 6fbe 5bc9 563d 1ac6 203e 343a 213d
00000060: 3668 6c3d 09ad 5a3d 5d5a 503e 657c 24bd
00000070: 8911 56bd ee59 303e f470 d93d 8384 123e

phi_x.2.weight f4 [32, 32]
0.13537623 0.16242701 0.024283476 0.17292595 -0.10310857 -0.025463523 0.0041082622 0.12446285
-0.09097278 0.15775532 -0.21039212 -0.12797996 0.14057529 0.08138932 -0.06747822 -0.13106169
0.10938292 -0.08357038 -0.13513935 -0.020373713 -0.06426877 0.13945709 0.13483296 -0.0042291638
0.08005488 0.048188884 0.09927085 -0.019570656 0.42537263 0.019499702 -0.036488876 -0.1289895
-0.09715971 -0.03922407 -0.17100875 -0.060197163 -0.078778505 -0.06398918 -0.13506937 0.02645271
-0.17117757 0.019230468 0.061264426 -0.08858439 -0.10369248 0.045140095 0.12466911 -0.03879219
0.13552237 -0.08551035 -0.04536792 0.17133176 0.049364876 -0.007258678 -0.14299063 0.14881204
-0.0024923328 0.119309634 -0.043437257 0.052345015 0.17594242 -0.071296535 -0.09927551 -0.061271697
-0.074003324 -0.017910741 -0.060094956 0.13839267 -0.04138297 0.07951317 -0.0769133 -0.15034632
-0.1903904 -0.1143335 -0.06388522 0.07822313 0.09069546 0.07782546 -0.050240498 0.1597022
-0.131478 -0.06579586 -0.14605168 0.0801707 -0.155598 0.006508283 -0.09372854 0.101103455
0.09949184 -0.120366216 0.1692327 -0.1624449 -0.01879939 -0.08955443 0.0018955966 -0.09590739
0.031814963 0.018040374 -0.09007968 -0.17145513 -0.21045114 0.057750124 -0.05308602 -0.09859074
-0.0042991433 0.10292531 -0.042241786 -0.19169863 0.100379586 -0.008053483 0.02006549 0.069188565
-0.08536083 0.057629753 -0.13545357 0.026551642 0.09311847 0.018779421 -0.04781427 -0.032874107
0.10693688 -0.12599368 0.10262489 -0.066620044 0.16321933 -0.048566535 -0.13680619 0.053571522
0.09124569 -0.15301403 0.045309126 -0.067478135 0.10201553 -0.044688057 -0.12520693 -0.042655244
0.041362204 0.14685689 -0.14740694 -0.17891765 0.0131939445 -0.06551278 -0.047044992 0.09607543
0.014848747 0.2018593 -0.07685578 -0.12633874 0.1594189 0.21401897 0.10043416 0.15528323
-0.10230906 -0.072483934 -0.005312937 0.060347423 -0.07055314 0.012353515 -0.011579128 0.17101735
-0.18621118 0.15833989 0.028297309 0.051959623 0.13189638 0.39451885 0.12791203 0.028042482
0.11300208 -0.12716196 0.024116872 0.17557178 0.06320872 0.1859511 -0.1629347 -0.14293103
-0.16496766 -0.25478584 0.021708565 -0.10722164 0.07820648 0.09091888 0.15023439 0.100032724
-0.031787645 0.027451137 -0.046415027 0.21973191 0.06165356 -0.14689839 -0.20547464 0.06856938
-0.25023437 -0.052557934 0.1077661 0.0019372166 0.16630378 0.017114945 0.12935814 0.116585046
-0.1296108 -0.15235013 -0.06602732 0.15086298 0.0030014035 0.055782035 0.036314573 0.0565873
-0.097208865 -0.18247922 0.028693082 -0.09930242 0.07301689 0.11792512 -0.14108141 -0.08524953
-0.010176233 -0.15016429 -0.21834438 0.09432729 -0.30856475 0.012830205 0.052782584 -0.21929045
-0.06362426 0.16336589 0.14553344 -0.1253663 0.16790581 0.01201527 -0.036528632 0.05374502
-0.18093902 0.14910968 -0.00355651 0.110162035 0.1065859 -0.2012096 0.12668736 -0.075511664
0.026983151 -0.27408707 0.12978259 0.00219639 0.014599447 -0.088238664 0.05080591 0.0014833012
-0.027324798 0.14884458 -0.0446299 -0.0859555 -0.10279033 0.022798002 0.099687986 -0.10496953
00000000: 11a0 0a3e 4453 263e 24ee c63c 8013 313e
00000010: 962a d3bd e198 d0bc 9a9e 863b 61e6 fe3d
00000020: f04f babd 9c8a 213e 0871 57be 2e0d 03be
00000030: f8f2 0f3e 72af a63d 0532 8abd 0935 06be
00000040: 2704 e03d f326 abbd f861 0abe c6e6 a6bc
00000050: 589f 83bd d7cd 0e3e a711 0a3e cc94 8abb
00000060: d0f3 a33d b561 453d 844e cb3d a452 a0bc
00000070: 71ca d93e d7bd 9f3c 5c75 15bd d315 04be
00000080: acfb c6bd 6ba9 20bd eb1c 2fbe 4d91 76bd
00000090: a056 a1bd c20c 83bd a04f 0abe 5bb3 d83c
000000a0: 2c49 2fbe 3789 9d3c 68f0 7a3d bc6b b5bd
000000b0: b95c d4bd d2e4 383d 8552 ff3d 8fe4 1ebd
000000c0: 60c6 0a3e 0d20 afbd b6d3 39bd 9871 2f3e
000000d0: d332 4a3d 34da edbb 236c 12be 2f62 183e
000000e0: 6856 23bb 9c58 f43d 44eb 31bd ba67 563d
000000f0: 402a 343e eb03 92bd f550 cbbd 08f8 7abd
00000100: 0e8f 97bd 8cb9 92bc 2126 76bd cfb6 0d3e
00000110: 3081 29bd cdd7 a23d b884 9dbd 63f4 19be
00000120: b3f5 42be af27 eabd 41d6 82bd 7333 a03d
00000130: 8bbe b93d f462 9f3d fbc8 4dbd f988 233e
00000140: 2ba2 06be fbbf 86bd 928e 15be 8930 a43d
00000150: 1555 1fbe 6f43 d53b c0f4 bfbd 540f cf3d
00000160: 61c2 cb3d 9082 f6bd 564b 2d3e f557 26be
00000170: 2e01 9abc 5068 b7bd ab75 f83a 186b c4bd
00000180: 6850 023d 68c9 933c b27b b8bd ef91 2fbe
00000190: 8180 57be 658b 6c3d ba70 59bd f1e9 c9bd
000001a0: d4df 8cbb 81ca d23d b905 2dbd a54c 44be
000001b0: d093 cd3d c2f2 03bc 6260 a43c bcb2 8d3d
000001c0: a9d1 aebd 2d0d 6c3d 57b4 0abe d482 d93c
000001d0: e5b4 be3d 4dd7 993c e5d8 43bd 00a7 06bd
000001e0: b901 db3d 7d04 01be 002d d23d 1770 88bd
000001f0: f822 273e b4ed 46bd ec16 0cbe d06d 5b3d
00000200: 05df ba3d b6af 1cbe 1096 393d fa31 8abd
00000210: 85ed d03d d30a 37bd 3f36 00be 44b7 2ebd
00000220: 6a6b 293d a761 163e d8f1 16be 3036 37be
00000230: 6a2b 583c 902b 86bd 40b2 40bd 32c3 c43d
00000240: 2948 733c 34b4 4e3e 9066 9dbd f15e 01be
00000250: b53e 233e ca27 5b3e 6db0 cd3d 9102 1f3e
00000260: 6a87 d1bd 7572 94bd 2518 aebb dc2e 773d
00000270: 2a7e 90bd 6666 4a3c 62b6 3dbc 2c1f 2f3e
00000280: 25ae 3ebe da23 223e c2cf e73c 9dd3 543d
00000290: d80f 073e 60fe c93e 5ffb 023e 59b9 e53c
000002a0: a26d e73d bf36 02be bf90 c53c 17c9 333e
000002b0: 9373 813d f769 3e3e 5bd8 26be 835c 12be
000002c0: 48ed 28be 4a73 82be 29d6 b13c 0597 dbbd
000002d0: b82a a03d ae33 ba3d 0bd7 193e f5dd cc3d
000002e0: c333 02bd 35e1 e03c af1d 3ebd 6701 613e
000002f0: 7188 7c3d 886c 16be f267 52be 1a6e 8c3d
00000300: b81e 80be fd46 57bd 79b4 dc3d 34ea fd3a
00000310: 8a4b 2a3e a434 8c3c 7676 043e 24c4 ee3d
00000320: b2b8 04be ac01 1cbe 5539 87bd d37b 1a3e
00000330: 32b3 443b b47b 643d 97be 143d 16c8 673d
00000340: 7115 c7bd d5db 3abe c10d eb3c 115f cbbd
00000350: e189 953d ba82 f13d a577 10be 4e97 aebd
00000360: 37ba 26bc abc4 19be ab95 5fbe ab2e c13d
00000370: 33fc 9dbe c835 523c 8d32 583d ad8d 60be
00000380: 704d 82bd 6349 273e b806 153e 0660 00be
00000390: 80ef 2b3e b2db 443c 0c9f 15bd bd23 5c3d
000003a0: 1448 39be 35b0 183e 5614 69bb a29c e13d
000003b0: b549 da3d e409 4ebe 55ba 013e dca5 9abd
000003c0: c50b dd3c 2455 8cbe bae5 043e 4ff1 0f3b
000003d0: 8532 6f3c 79b6 b4bd dc19 503d 546b c23a
000003e0: 41d8 dfbc b76a 183e d8cd 36bd 7009 b0bd
000003f0: bd83 d2bd e0c2 ba3c 3729 cc3d 44fa d6bd

phi_x.2.bias f4 [32]
0.21451926 -0.15444444 -0.011968149 -0.008253996 0.06642667 0.040639453 0.10109663 0.07022943
-0.102405086 -0.09599919 0.050292138 -0.017184008 -0.12513064 -0.14409743 -0.08310822 0.077188544
0.113573454 0.28915954 0.078060634 0.11419547 0.08618777 -0.06366547 -0.014541494 0.06232964
0.14279898 -0.12465523 -0.14940804 0.023519589 0.1351861 -0.034790684 -0.2100021 -0.022787163
00000000: f0aa 5b3e af26 1ebe 0e16 44bc c53b 07bc
00000010: b50a 883d 8e75 263d c00b cf3d 73d4 8f3d
00000020: c2b9 d1bd 399b c4bd 21ff 4d3d 7ac5 8cbc
00000030: 3f22 00be 478e 13be a434 aabd 0715 9e3d
00000040: 3399 e83d b80c 943e 41de 9f3d 51df e93d
00000050: 3783 b03d 0b63 82bd 723f 6ebc 5d4d 7f3d
00000060: e539 123e 3e4b ffbd 6cfe 18be 27ac c03c
00000070: 3a6e 0a3e ad80 0ebd ca0a 57be 25ac babc

phi_z.0.weight f4 [32, 12]
0.051321913 -0.04922446 0.014010361 -0.024669936 -0.037671786 0.0058937417 -0.077565946 -0.0076137753
-0.051844202 0.00596938 -0.010480572 0.030053576 -0.0023614462 -0.03807406 0.0011343033 0.008355152
0.009302306 -0.00085347856 -0.01014041 -0.017685177 -0.00042279618 0.02639337 -0.012601486 0.0021020914
-0.004421714 0.0031998844 -0.0044787037 -0.016986322 0.0053770053 -0.0038691454 0.00583751 0.0010943888
0.004346938 -0.012031052 -0.008393974 -3.1712316e-05 0.00035962963 0.015697688 8.501371e-05 -0.025072867
0.037731208 -0.021833785 0.02424921 -0.026119927 0.0041472716 0.012441123 -0.0020343948 -0.009192637
-0.07741175 0.03586704 0.06178164 -0.013526383 -0.0055660284 -0.0036267901 0.006389823 -0.010833948
0.009563362 0.010256491 0.039148536 0.010780132 0.004313307 0.022140684 0.014423239 -0.016896611
-0.008466349 -0.008083779 -0.02559144 -0.026885787 -0.01220284 0.03763877 -0.0094696805 -0.023190612
0.1013427 -0.07436001 -0.029308831 -0.025704317 0.015970998 -0.010627436 0.013372604 0.048425604
0.0013493187 -0.08783422 0.031070836 -0.076125644 -0.009519662 0.026004441 0.0054396465 0.0030563718
0.0096091125 0.014915684 0.005015835 -0.0054988503 -0.017065616 0.0044701593 0.008972934 -0.029025543
0.035929747 0.023510197 0.065552734 -0.0049427017 -0.04125273 0.0044482 -0.0070032855 -0.058742207
-0.045446005 0.0019464762 0.11189811 -0.025105156 0.052723177 0.06618998 -0.06878716 -0.03288893
0.0021844 0.012826243 0.01939143 -0.021056293 -0.011247437 -0.0587728 0.08918133 0.047649052
0.00060137414 -0.006071151 0.027718201 -0.007833511 -0.0022338 -0.007017077 -0.0056362413 0.014257543
-0.024291134 -0.03644754 0.009880519 -0.0061719613 0.0027776617 0.009216551 0.018474855 0.019028276
-0.017707052 0.02070003 0.017064193 0.04055726 -0.006985752 -0.019672077 0.0273162 0.0041294554
-0.04994885 0.0033623127 -0.026857672 -0.03903562 0.033232946 0.01035675 0.016142849 -0.08616672
0.0073313764 0.029204406 -0.050509874 -0.050826155 -0.03480238 -0.0059682294 0.023608297 -0.032903943
-0.00935975 -0.07331387 -0.030123733 0.006846282 -0.0072075366 0.034408 -0.008911645 -0.0036922472
-0.015782097 0.0026237948 0.021810327 -0.00018819356 0.03783671 -0.017605484 -0.0069616996 0.056509048
-0.085642815 0.091506846 0.045968976 0.0035848322 0.01586392 0.005593613 0.016064119 0.029495414
0.037989613 0.067775294 0.021358907 -0.0114006195 0.0009844373 0.022745838 0.034798793 -0.019100016
0.038580578 0.026401117 -0.003299913 -0.010174918 -0.020611048 -0.006972526 0.022413265 -0.01129763
-0.014227197 0.027546605 -0.004844921 -0.0836157 -0.029127212 -0.045282822 -0.04972112 -0.016094122
0.064034514 -0.011524366 0.0046444177 0.026297364 0.018399734 -0.07521747 -0.017501207 0.012320662
-0.017916465 0.0006847235 -0.018003209 0.028692689 0.049490005 -0.009135446 -0.029895023 -0.02001898
0.010169278 0.026754614 -0.016843155 0.002274665 0.004342628 -0.051788118 0.0009022137 -0.030095791
-0.07059783 0.033215575 -0.06516013 0.030656518 -0.007479637 0.030302422 -0.07081927 -0.056710817
0.00011615915 0.006391116 0.04754601 -0.037892345 -0.006944189 -0.002819107 -0.03131108 0.059383653
0.0028931892 0.047700126 0.049549893 0.008968294 -0.046627723 -0.05348705 0.044061784 -0.019617977
00000000: ed36 523d 969f 49bd b78b 653c 9b18 cabc
00000010: bb4d 1abd 4a20 c13b e5da 9ebd fa7c f9bb
00000020: 965a 54bd ca9a c33b b4b6 2bbc eb32 f63c
00000030: 7ec2 1abb 8cf3 1bbd e7ac 943a 0ce4 083c
00000040: b368 183c fabb 5fba f623 26bc 81e0 90bc
00000050: beaa ddb9 e936 d83c 7776 4ebc 3ec3 093b
00000060: 07e4 90bb 27b5 513b 17c2 92bb e626 8bbc
00000070: 9731 b03b 7d91 7dbb 9548 bf3b 9871 8f3a
00000080: c270 8e3b e41d 45bc e186 09bc d702 05b8
00000090: ac8c bc39 7098 803c 6349 b238 9d65 cdbc
000000a0: 0a8c 1a3d c4dc b2bc 47a6 c63c 75f9 d5bc
000000b0: d6e5 873b dad5 4b3c 7b53 05bb b79c 16bc
000000c0: 0d8a 9ebd 51e9 123d bf0e 7d3d c39d 5dbc
000000d0: 3b63 b6bb 71af 6dbb b861 d13b df80 31bc
000000e0: a6af 1c3c d70a 283c 375a 203d 279f 303c
000000f0: a456 8d3b 6160 b53c 734f 6c3c c36a 8abc
00000100: 71b6 0abc d471 04bc 24a5 d1bc 953f dcbc
00000110: 6cee 47bc 1c2b 1a3d b826 1bbc 3dfa bdbc
00000120: c38c cf3d 104a 98bd 1319 f0bc dc91 d2bc
00000130: 9cd5 823c b31e 2ebc c418 5b3c ed59 463d
00000140: 9fdb b03a 6de2 b3bd 4488 fe3c c3e7 9bbd
00000150: 5bf8 1bbc 4407 d53c 103f b23b 694d 483b
00000160: 8a6f 1d3c ea60 743c e05b a43b b32f b4bb
00000170: 31cd 8bbc 6a7a 923b 3703 133c fac6 edbc
00000180: 122b 133d 7598 c03c 8340 863d 63f6 a1bb
00000190: 9ff8 28bd 35c2 913b d17b e5bb ab9b 70bd
000001a0: 9725 3abd e720 ff3a d62a e53d 54a9 cdbc
000001b0: 42f4 573d 9d8e 873d 48e0 8cbd 8bb6 06bd
000001c0: 2728 0f3b 2a25 523c c7da 9e3c 3f7e acbc
000001d0: 2c47 38bc bfbb 70bd b3a4 b63d a72b 433d
000001e0: 89a5 1d3a 81f0 c6bb 4811 e33c 2058 00bc
000001f0: f264 12bb 82ef e5bb 38b0 b8bb 7898 693c
00000200: 33fe c6bc 044a 15bd e6e1 213c 2a3e cabb
00000210: 6e09 363b 0401 173c 9458 973c 30e1 9b3c
00000220: 610e 91bc 1c93 a93c 35ca 8b3c 5f1f 263d
00000230: bce8 e4bb 5627 a1bc 39c6 df3c 6250 873b
00000240: 2a97 4cbd 3f5a 5c3b 9f04 dcbc d0e3 1fbd
00000250: 451f 083d 5caf 293c 023e 843c 2d78 b0bd
00000260: 0b3c f03b 143e ef3c 71e3 4ebd 162f 50bd
00000270: f18c 0ebd 2391 c3bb 3066 c13c 49c6 06bd
00000280: a359 19bc 9525 96bd 0cc6 f6bc c756 e03b
00000290: 332d ecbb 67ef 0c3d 2602 12bc a1f9 71bb
000002a0: 7549 81bc f9f3 2b3b 92ab b23c d355 45b9
000002b0: abfa 1a3d 6039 90bc f81e e4bb 0876 673d
000002c0: 8065 afbd f167 bb3d f749 3c3d 81ef 6a3b
000002d0: 0df5 813c a04a b73b e698 833c 5ea0 f13c
000002e0: ff9a 1b3d c6cd 8a3d e0f8 ae3c aac9 3abc
000002f0: 3c08 813a 7b55 ba3c 2e89 0e3d a377 9cbc
00000300: ab06 1e3d 2847 d83c 5a43 58bb b3b4 26bc
00000310: 80d8 a8bc ca79 e4bb 069c b73c b219 39bc
00000320: 3019 69bc 6ba9 e13c 25c2 9ebb b53e abbd
00000330: 319c eebc 7b7a 39bd 60a8 4bbd d2d7 83bc
00000340: 8724 833d b2d0 3cbc 3330 983b 926d d73c
00000350: 0abb 963c 9e0b 9abd b15e 8fbc 9adc 493c
00000360: 8dc5 92bc 047f 333a 777b 93bc ee0c eb3c
00000370: 08b6 4a3d d6ac 15bc 68e6 f4bc d8fe a3bc
00000380: 0b9d 263c 7e2c db3c a8fa 89bc 8c12 153b
00000390: 9b4c 8e3b c71f 54bd 8982 6c3a 738b f6bc
000003a0: 9895 90bd 0e0d 083d ad72 85bd 6123 fb3c
000003b0: be17 f5bb c93c f83c b209 91bd 9a49 68bd
000003c0: 789a f338 916c d13b 9bbf 423d 0135 1bbd
000003d0: 148c e3bb c4c0 38bb 0c40 00bd 463c 733d
000003e0: a99b 3d3b 3561 433d d4f4 4a3d c0ef 123c
000003f0: b6fc 3ebd 3d15 5bbd 217a 343d e1b5 a0bc

phi_z.0.bias f4 [32]
-0.17774591 0.19328412 0.07272731 -0.021436492 -0.20218498 0.14199962 -0.3174589 -0.009125441
-0.24188092 -0.2792201 0.02177708 0.193671 -0.39188084 -0.1493762 -0.37071532 -0.14781122
-0.2479272 -0.23160614 -0.112040535 -0.38360178 -0.3110768 -0.36244446 -0.14176276 -0.18400368
-0.28997028 -0.17254129 0.18478562 -0.17297105 -0.32513645 -0.2778774 0.16298425 0.16842833
00000000: 0603 36be 46ec 453e 0ef2 943d 959b afbc
00000010: 9409 4fbe 5968 113e f989 a2be e082 15bc
00000020: a2af 77be f0f5 8ebe d965 b23c b151 463e
00000030: 9ba4 c8be 13f6 18be 66ce bdbe d35b 17be
00000040: a1e0 7dbe 292a 6dbe 8275 e5bd 7467 c4be
00000050: 7545 9fbe 5292 b9be 422a 11be 766b 3cbe
00000060: fc76 94be aaae 30be 7138 3d3e 531f 31be
00000070: 4978 a6be f245 8ebe 58e5 263e 7a78 2c3e

enc.0.weight f4 [32, 64]
-0.013426709 -0.0008713007 -0.030150622 -0.12564147 0.025308948 -0.09179788 0.03242334 -0.048375104
0.12273614 0.0035296807 -0.021531507 -0.024493545 0.09231131 -0.09730919 0.0057772878 -0.10042696
0.038006797 0.14949362 -0.05873467 -0.036636304 -0.022503942 0.086260214 0.08139121 0.07743668
-0.03194271 -0.011427243 0.08392292 0.059942916 -0.001816897 -0.01599349 0.09322564 0.016230633
-0.14242773 -0.23990835 -0.02518657 -0.06984321 0.034871627 -0.007261921 0.042895563 -0.110516146
-0.16340837 0.16034427 0.013232252 0.05244356 -0.0031535125 0.0750245 -0.03788743 -0.051257007
0.093994506 -0.16867831 -0.04508976 -0.13275617 0.004259063 -0.045260757 -0.023048168 -0.022404883
0.0016463309 -0.039841723 0.056502823 0.04193816 -0.054652184 0.0400651 0.00960773 0.08615609
-0.049371067 -0.025514513 -0.11243349 0.05531034 -0.08216941 0.07169046 0.09765748 0.051275752
-0.05404541 0.052532263 -0.013368145 0.110750616 0.11889173 0.08901358 -0.015494447 -0.016313342
0.016615242 0.09207079 -0.11850043 -0.034070667 0.07768746 0.107879385 -0.08163835 -0.10178123
-0.047058936 -0.04747089 -0.030981034 0.046704568 -0.13151853 -0.06310785 0.0065367073 0.08209732
0.016526075 -0.093875796 -0.093303755 -0.11167051 -0.057709813 0.11782894 -0.014579177 -0.061945975
-0.034836754 -0.10735213 0.036435615 0.052064773 -0.027495148 -0.080171995 -0.10337424 -0.041524924
0.09969521 0.000120912526 0.013317351 -0.10761117 -0.100631185 0.06995034 0.065457605 0.054329623
-0.0880502 -0.03270068 0.026013548 0.026095456 -0.0016281646 0.10657561 -0.08599063 0.087226324
0.009747048 0.008907139 -0.051579103 0.06375097 0.05511443 -0.027075531 0.26814982 -0.041165072
-0.03445308 0.13704652 0.06609143 -0.09930928 -0.08658674 0.04857126 0.0043039904 -0.078701824
-0.09964911 0.18170808 0.1110113 0.2611721 0.032927256 0.07896124 -0.0067305816 0.07435057
0.027144445 -0.039367445 -0.014723942 0.04738019 0.105469674 -0.044518173 0.017061375 -0.06469346
-0.06360678 -0.13747814 0.0922424 0.064879894 -0.13825497 0.050909758 -0.15573846 -0.18173982
-0.17321116 0.1568682 0.10005128 0.03977522 0.17401558 0.04231618 -0.07935101 0.003772914
0.20231684 -0.098798014 -0.14918391 -0.057719108 -0.1019719 0.09155647 0.006966287 -0.0028816883
0.10081371 0.07831183 -0.052122496 0.09512286 0.084503606 -0.015627233 0.11983589 0.041432172
-0.11395654 0.017588317 0.09564714 -0.109743655 -0.06801821 -0.027034253 -0.061118945 -0.064836234
-0.0120856315 -0.026683941 0.0037235767 0.122402206 -0.10605198 0.05878617 -0.031638786 0.06087725
0.119460344 0.010954782 0.07415372 -0.040395156 0.051357552 -0.012899488 0.022855148 -0.00240165
-0.107760355 -0.07550061 0.05287525 -0.116857365 -0.067825496 0.120783865 0.030061036 -0.10105735
-0.03415823 0.0019814223 0.09439677 -0.03284788 0.027153268 -0.05480738 -0.03122501 -0.065017745
-0.10996345 -0.009326369 0.013618469 0.06569737 0.016078085 -0.0034924448 -0.063593775 0.012288302
-0.069099516 0.060344398 -0.12020685 -0.041097254 0.030200869 0.0064216554 0.063832894 -0.05034226
0.089266375 -0.09170441 0.009647161 -0.045027137 -0.034086898 0.11544646 -0.026464 0.07987693
00000000: b3fb 5bbc 0068 64ba 70fe f6bc 28a8 00be
00000010: b654 cf3c 8700 bcbd 56ce 043d f924 46bd
00000020: 165d fb3d 3752 673b d862 b0bc b0a6 c8bc
00000030: b60d bd3d 0a4a c7bd 674f bd3b a6ac cdbd
00000040: 04ad 1b3d db14 193e c493 70bd f30f 16bd
00000050: 305a b8bc 32a9 b03d 6fb0 a63d 1f97 9e3d
00000060: 5cd6 02bd 5539 3bbc c8df ab3d b486 753d
00000070: f224 eeba c804 83bc 16ed be3d 1bf6 843c
00000080: 93d8 11be 89aa 75be 1154 cebc f509 8fbd
00000090: 8dd5 0e3d 69f5 edbb 42b3 2f3d 4a56 e2bd
000000a0: 8654 27be 4a31 243e 16cc 583c 0fcf 563d
000000b0: 29ab 4ebb 72a6 993d da2f 1bbd def2 51bd
000000c0: 3180 c03d 02ba 2cbe 0ab0 38bd 3cf1 07be
000000d0: 9c8f 8b3b 5863 39bd 83cf bcbc 728a b7bc
000000e0: b3c9 d73a 1331 23bd 816f 673d 59c7 2b3d
000000f0: f8da 5fbd 4d1b 243d be69 1d3c 9b72 b03d
00000100: 5139 4abd d003 d1bc 8843 e6bd 188d 623d
00000110: 7048 a8bd 73d2 923d a500 c83d 8606 523d
00000120: b85e 5dbd 122c 573d 1006 5bbc 38d1 e23d
00000130: 827d f33d c04c b63d 6cdc 7dbc 8fa3 85bc
00000140: b01c 883c 9c8f bc3d 5ab0 f2bd af8d 0bbd
00000150: 9a1a 9f3d deef dc3d 0232 a7bd ad72 d0bd
00000160: dfc0 40bd d670 42bd f0cb fdbc 4a4d 3f3d
00000170: cbac 06be b03e 81bd e031 d63b a422 a83d
00000180: b161 873c f441 c0bd 0a16 bfbd 82b3 e4bd
00000190: 2061 6cbd 4d50 f13d 80dd 6ebc 10bb 7dbd
000001a0: fcb0 0ebd 6fdb dbbd 833d 153d df41 553d
000001b0: 813d e1bc 3731 a4bd e0b5 d3bd 0a16 2abd
000001c0: 012d cc3d 6b92 fd38 0531 5a3c 3f63 dcbd
000001d0: b917 cebd 2042 8f3d a30e 863d bd88 5e3d
000001e0: aa53 b4bd 26f1 05bd 5d1a d53c 23c6 d53c
000001f0: 2368 d5ba 5044 da3d db1b b0bd b7a3 b23d
00000200: 15b2 1f3c 40ef 113c 9c44 53bd de8f 823d
00000210: abbf 613d 81cd ddbc ef4a 893e b59c 28bd
00000220: ac1e 0dbd ec55 0c3e f25a 873d aa62 cbbd
00000230: 6454 b1bd a8f2 463d 7d08 8d3b 6c2e a1bd
00000240: d514 ccbd af11 3a3e e459 e33d 59b8 853e
00000250: bbde 063d 6eb6 a13d 368c dcbb 1d45 983d
00000260: 075e de3c c23f 21bd b03c 71bc bb11 423d
00000270: 7c00 d83d b058 36bd 4cc4 8b3c 017e 84bd
00000280: 4544 82bd 12c7 0cbe 95e9 bc3d c0df 843d
00000290: b692 0dbe c086 503d e779 1fbe 011a 3abe
000002a0: 445e 31be 0fa2 203e afe7 cc3d 57eb 223d
000002b0: 2431 323e bb53 2d3d c882 a2bd fe42 773b
000002c0: 252c 4f3e 9d56 cabd abc3 18be df6a 6cbd
000002d0: a5d6 d0bd f581 bb3d 7345 e43b b5da 3cbb
000002e0: 6b77 ce3d f461 a03d 667e 55bd c6cf c23d
000002f0: 3a10 ad3d af04 80bc 856c f53d c8b4 293d
00000300: 0c62 e9bd 6015 903c a6e2 c33d 48c1 e0bd
00000310: 224d 8bbd f076 ddbc dc57 7abd dcc8 84bd
00000320: d002 46bc 4898 dabc 4007 743b 02ae fa3d
00000330: c831 d9bd c4c9 703d ac97 01bd 6c5a 793d
00000340: a0a7 f43d b07b 333c e8dd 973d 6475 25bd
00000350: 4c5c 523d 6058 53bc b83a bb3c 0065 1dbb
00000360: 76b1 dcbd 10a0 9abd b893 583d ea52 efbd
00000370: 18e8 8abd 885d f73d 9042 f63c 28f7 cebd
00000380: 80e9 0bbd c0da 013b 1853 c13d 808b 06bd
00000390: 8870 de3c b47d 60bd 98cb ffbc 0628 85bd
000003a0: 8434 e1bd a0cd 18bc 0020 5f3c 588c 863d
000003b0: 30b6 833c 80e1 64bb 743d 82bd e054 493c
000003c0: 0c84 8dbd b02b 773d 022f f6bd 9855 28bd
000003d0: d067 f73c c06c d23b d2ba 823d b033 4ebd
000003e0: 4ad1 b63d 86cf bbbd 200f 1e3c 606e 38bd
000003f0: b49e 0bbd 326f ec3d 08cb d8bc 8496 a33d

enc.0.bias f4 [32]
-0.04251521 -0.124471374 0.13063736 -0.07446177 0.108977646 0.09077138 -0.13044554 0.12304629
0.12229639 -0.009521142 -0.10968678 -0.1229122 0.015570694 -0.058305133 0.042303074 -0.043034546
-0.03766616 0.02448881 0.0055728457 -0.029130498 -0.026882615 0.034479074 0.048114195 0.11212726
-0.06830657 0.1461422 -0.013240095 -0.0500617 0.05957073 0.011110356 -0.053109236 0.015979905
00000000: 6e24 2ebd d9ea febd cdc5 053e 6a7f 98bd
00000010: ac2f df3d 58e6 b93d 8493 05be b1ff fb3d
00000020: 8876 fa3d 90fe 1bbc 76a3 e0bd 64b9 fbbd
00000030: 391c 7f3c 5dd1 6ebd fd45 2d3d fe44 30bd
00000040: d547 1abd c29c c83c 6b9c b63b 15a3 eebc
00000050: ee38 dcbc ee39 0d3d 6413 453d faa2 e53d
00000060: 51e4 8bbd 4da6 153e fcec 58bc 7f0d 4dbd
00000070: 7000 743d 3608 363c 1289 59bd 4ae8 823c

enc.2.weight f4 [32, 32]
0.04265838 -0.094210744 0.38289094 -0.06857347 -0.04039891 -0.013703283 -0.027949449 0.07370678
-0.04423454 0.17197514 -0.09274117 -0.13187987 0.15169513 -0.12824903 -0.13152361 -0.08102558
-0.17650437 0.002751859 0.08845105 -0.011278977 0.12847646 -0.062933594 -0.023556659 -0.06982332
-0.100691535 0.11606123 0.027562259 -0.08099515 0.0017386635 0.1363995 -0.004921198 0.1380437
-0.036571026 0.1584459 0.04736136 -0.009138785 0.07968528 -0.18031095 -0.03761235 -0.06513239
-0.0413691 0.08651568 -0.110422805 0.16946697 -0.10787502 0.0518456 0.104935646 0.07840509
0.00977216 0.057347864 -0.12713353 -0.094541535 0.1510122 -0.18261169 -0.023754973 -0.1169183
0.04077652 0.13645236 0.1224851 0.11468481 0.020086894 0.07017516 -0.013790027 0.007403657
-1.9240037e-05 0.14225484 -0.033735074 0.039756596 0.000930202 0.07411727 -0.16155787 -0.11100409
0.1605186 -0.10221258 -0.08448243 -0.033484615 -0.12784618 -0.08135762 0.015161612 -0.14299646
0.09414276 -0.025313355 0.0145051535 -0.11204082 -0.08235922 0.0003841053 0.121014684 -0.090233855
0.09513165 -0.00065072626 0.027789608 0.04911979 0.012269832 -0.116633095 -0.00028151987 0.08122947
-0.06873461 0.1199874 0.15300153 -0.032617908 -0.024293406 -0.07859542 0.07620082 -0.071635775
-0.1766693 -0.16178793 -0.06693343 -0.13910285 -0.063953586 0.109507546 0.026047308 0.07340118
-0.018558346 0.14625093 -0.03459745 0.18103309 0.14775945 0.117935516 -0.106031775 -0.14460716
-0.08492438 0.12440586 -0.041816935 0.039921205 0.10357265 0.10376707 0.14246288 -0.064240694
0.025160277 0.13930064 0.1761233 -0.14561968 0.16126096 0.14872248 0.13168408 -0.12416377
-0.11088389 0.13015015 -0.17671825 -0.06888095 -0.1300112 -0.060129244 -0.08433287 -0.15062295
0.0691289 -0.056752227 -0.013920893 -0.02289166 0.024796592 -0.11687053 0.12968197 0.07887833
0.09895458 -0.17463838 -0.06568359 -0.02021327 -0.03467042 0.109718546 -0.066002004 -0.08484188
0.027867394 0.0074709943 0.4707003 0.14282034 -0.059079777 0.03164006 -0.0075385845 0.016258864
-0.055381056 0.04314678 -0.10311106 0.04917993 0.037471004 -0.051820554 0.056347974 -0.046448905
-0.060976595 0.054229654 -0.070338964 0.10296555 -0.08754897 -0.09979662 -0.114052325 -0.048625987
0.021182245 0.119283825 0.08581847 -0.16346425 0.106218934 0.032704405 -0.073087 -0.11554479
0.070980616 0.11367887 -0.022515226 0.17507851 -0.005820133 0.035115194 -0.0872057 0.12311892
0.11386977 0.051089376 -0.040574245 0.046546124 0.08913922 0.051089805 -0.046906162 0.041792348
0.12308666 -0.10676009 -0.07642001 -0.18984576 -0.12535448 0.1039706 0.11696534 0.0057593905
0.12916048 0.18639472 -0.027143368 0.15574762 -0.113077365 0.011913678 0.04847655 -0.050368335
-0.0014231356 -0.14003599 0.16777502 -0.027260097 0.11624481 -0.040120445 0.038409863 0.05460284
0.057322856 0.10089203 -0.15493049 0.114035524 -0.10034544 -0.01300941 0.061744153 -0.09332286
0.14813197 0.15063657 -0.077674285 0.0707827 0.13724741 -0.049028825 0.06931736 -0.015632888
-0.13676152 -0.12293954 0.03566068 0.106394835 0.019876791 0.1406574 -0.09512547 -0.1461797
00000000: 8eba 2e3d 90f1 c0bd 480a c43e 3f70 8cbd
00000010: 5479 25bd bc83 60bc 3ef6 e4bc 95f3 963d
00000020: 472f 35bd 401a 303e 15ef bdbd 840b 07be
00000030: f855 1b3e b753 03be 20ae 06be bdf0 a5bd
00000040: 90bd 34be 8858 343b d325 b53d 75cb 38bc
00000050: 558f 033e 54e3 80bd e5f9 c0bc 87ff 8ebd
00000060: 5d37 cebd 83b1 ed3d 3fca e13c c9e0 a5bd
00000070: dee3 e33a 4fac 0b3e 0042 a1bb 545b 0d3e
00000080: 80cb 15bd a43f 223e fcfd 413d d8ba 15bc
00000090: 0932 a33d 6fa3 38be 680f 1abd 2164 85bd
000000a0: a572 29bd 222f b13d 5a25 e2bd c088 2d3e
000000b0: 94ed dcbd 0d5c 543d 80e8 d63d d992 a03d
000000c0: 691b 203c 98e5 6a3d 4b2f 02be fe9e c1bd
000000d0: f1a2 1a3e 8ffe 3abe ca99 c2bc dd72 efbd
000000e0: 4805 273d 2bba 0b3e 78d9 fa3d dfdf ea3d
000000f0: 458d a43c ffb7 8f3d 91ef 61bc 609a f23b
00000100: aa65 a1b7 41ab 113e ca2d 0abd d0d7 223d
00000110: cdd8 733a ccca 973d 6d6f 25be 1d56 e3bd
00000120: fd5e 243e d454 d1bd 2005 adbd 2a27 09bd
00000130: 1cea 02be d39e a6bd 6968 783c aa6d 12be
00000140: ebcd c03d f45d cfbc 06a7 6d3c a875 e5bd
00000150: f3ab a8bd be61 c939 8cd6 f73d 87cc b8bd
00000160: 62d4 c23d 8095 2aba 08a7 e33c d531 493d
00000170: 6807 493c 55dd eebd f598 93b9 a35b a63d
00000180: bbc4 8cbd f4bb f53d 6fac 1c3e 5b9a 05bd
00000190: f702 c7bc a3f6 a0bd 2d0f 9c3d c7b5 92bd
000001a0: cce8 34be bcab 25be 6514 89bd fa70 0ebe
000001b0: 19fa 82bd 7e45 e03d 2a61 d53c 5c53 963d
000001c0: ac07 98bc cec2 153e 0eb6 0dbd bd60 393e
000001d0: 414e 173e 2d88 f13d 3027 d9bd e613 14be
000001e0: d5ec adbd 80c8 fe3d 3c48 2bbd 6b84 233d
000001f0: e61d d43d d483 d43d cae1 113e a090 83bd
00000200: ed1c ce3c d4a4 0e3e ab59 343e 531d 15be
00000210: 9821 253e b54a 183e 31d8 063e 9349 febd
00000220: 1817 e3bd 1546 053e a1f5 34be 7511 8dbd
00000230: a821 05be 154a 76bd b6b6 acbd e73c 1abe
00000240: 7493 8d3d 0675 68bd 7514 64bc 4a87 bbbc
00000250: 3922 cb3c d159 efbd 5acb 043e f68a a13d
00000260: b3a8 ca3d 67d4 32be 1e85 86bd 4d96 a5bc
00000270: 9202 0ebd 1eb4 e03d 0f2c 87bd 94c1 adbd
00000280: 294a e43c 3ecf f43b a1ff f03e 7f3f 123e
00000290: a3fd 71bd 0299 013d 3b06 f7bb 4f31 853c
000002a0: 3fd7 62bd aeba 303d e42b d3bd e570 493d
000002b0: 327b 193d ca41 54bd 22cd 663d 3541 3ebd
000002c0: 98c2 79bd ea1f 5e3d e00d 90bd 9adf d23d
000002d0: e04c b3bd 2c62 ccbd 4494 e9bd 0b2c 47bd
000002e0: 6386 ad3c 144b f43d 98c1 af3d 2c63 27be
000002f0: 5089 d93d 0ef5 053d a3ae 95bd bfa2 ecbd
00000300: 495e 913d 78d0 e83d da71 b8bc c847 333e
00000310: d0b6 bebb f3d4 0f3d e798 b2bd c625 fc3d
00000320: 8e34 e93d 1843 513d 2e31 26bd 26a7 3e3d
00000330: a08e b63d 8b43 513d ad20 40bd 742e 2b3d
00000340: dc14 fc3d 09a5 dabd 1882 9cbd ed66 42be
00000350: ed5c 00be 8aee d43d 868b ef3d 45b9 bc3b
00000360: a542 043e 42de 3e3e c55b debc 4e7c 1f3e
00000370: 1b95 e7bd 9631 433c 598f 463d 074f 4ebd
00000380: 8288 baba 9865 0fbe 37cd 2b3e 9150 dfbc
00000390: c211 ee3d 5655 24bd a953 1d3d 3aa7 5f3d
000003a0: 5fcb 6a3d 7ba0 ce3d 19a6 1ebe 758b e93d
000003b0: e981 cdbd 6c25 55bc 70e7 7c3d 0e20 bfbd
000003c0: e8af 173e 7940 1a3e b213 9fbd 85f6 903d
000003d0: 968a 0c3e 73d2 48bd 43f6 8d3d 8b10 80bc
000003e0: 360b 0cbe bac7 fbbd ef10 123d 89e5 d93d
000003f0: a7d4 a23c 7e08 103e 24d1 c2bd 22b0 15be

enc.2.bias f4 [32]
0.0037467966 0.06031479 -0.08234596 -0.007939425 -0.16025786 0.07683408 0.1584576 0.16748796
-0.16028872 -0.11420965 0.06081565 -0.09360006 -0.10895795 0.0050079897 -0.12083623 -0.010878146
-0.05773798 0.16413091 -0.03904859 0.12991303 -0.11972579 0.074162826 -0.08191621 0.12549368
0.11706245 0.10701352 -0.012261526 -0.08525513 0.06828043 -0.0847497 -0.09512093 0.05883626
00000000: d18c 753b a40c 773d 00a5 a8bd 5d14 02bc
00000010: a31a 24be 305b 9d3d b642 223e f781 2b3e
00000020: ba22 24be c0e6 e9bd d519 793d 63b1 bfbd
00000030: 5825 dfbd 101a a43b fc78 f7bd 403a 32bc
00000040: a97e 6cbd ef11 283e 6af1 1fbd ec07 053e
00000050: cc32 f5bd aee2 973d b0c3 a7bd 6a81 003e
00000060: 70be ef3d e829 db3d 91e4 48bc 3e9a aebd
00000070: 9cd6 8b3d 4091 adbd c3ce c2bd 4afe 703d

enc_mean.weight f4 [12, 32]
0.055752642 -0.1408207 -0.14582302 -0.048060767 -0.004128284 0.048708793 0.033966515 0.014032639
-0.16097336 0.15435965 -0.071890905 0.02608443 0.12573737 -0.09781373 -0.063387424 -0.117272295
0.032550875 -0.0832982 -0.12212033 -0.022981524 -0.16632202 -0.0132961 0.112569995 -0.070207454
0.022115797 -0.0065656295 0.025729703 0.04562711 -0.031750515 -0.028370287 -0.049413543 0.019707242
0.06120177 0.09870744 -0.118311346 -0.016512424 -0.025364416 0.1299755 -0.13896225 -0.18286294
0.11316985 0.045351714 -0.03686066 -0.09412278 -0.028104741 -0.1187986 0.064522594 0.096928455
0.08578392 -0.10684794 0.10700219 -0.120812915 -0.0771261 0.076918446 0.03653122 0.06596831
0.06071297 0.03396679 0.012313462 0.121107504 0.02554345 0.05706369 -0.013205703 -0.049676616
-0.17195314 0.05157919 -0.104497015 -0.10470954 -0.04084295 0.14976087 0.0693789 0.0014751062
-0.15530755 -0.062096298 0.13983692 -0.06895875 0.009089537 0.07167789 0.04119979 -0.13243791
0.055575572 0.082395546 -0.05936986 -0.15218149 -0.09262042 -0.050678633 -0.101896875 -0.018377906
0.014432916 -0.05446166 0.101469204 0.06560979 0.11770172 0.07451719 0.0799035 0.079814896
0.09145169 0.14596999 0.07355967 0.05862458 -0.07681254 0.012727659 0.029945256 -0.16414651
-0.12347564 0.17274015 -0.10486248 -0.06290124 -0.13360348 0.028161064 -0.06508536 -0.14033495
-0.0007222073 -0.07873308 0.09416793 -0.14815769 0.035822988 -0.059887968 -0.040299993 0.14886057
-0.11949372 0.038856354 0.086941384 0.069333136 0.21250278 0.122471064 0.1031227 0.051578663
0.104757145 -0.07564134 -0.116403505 0.027011517 -0.04045674 -0.068440095 0.06219588 0.11672428
0.16231278 0.16057031 0.0012413326 0.15401767 -0.04993074 0.033271533 0.0055495906 -0.10328058
-0.16927731 0.12331929 -0.086466156 0.089766726 0.0034637754 -0.035663065 -0.011380176 0.09443212
-0.025363112 0.069775075 -0.036297522 -0.12491457 -0.11970868 0.11009512 -0.0010084279 0.045176767
-0.14013775 0.0015088789 0.013619016 -0.021765072 0.09677709 -0.042224716 0.08994799 0.20821425
0.15159403 0.12778707 -0.056143615 0.16370484 -0.17294088 -0.07070401 -0.097232476 0.16302519
0.09214669 0.2058488 -0.0012151691 0.095208116 0.16809835 -0.0074065765 0.15382579 0.071863025
-0.03120957 -0.12932639 0.20186247 -0.090045914 0.18631177 -0.03258071 -0.18451267 0.035343748
-0.09724894 -0.01618169 0.04326317 0.008080744 0.1741464 0.05456457 0.03306965 0.15301624
-0.08375175 0.14041667 -0.018507717 -0.02382359 -0.10632828 0.14675415 0.02729018 0.03965736
-0.057831965 0.18116349 0.072887026 0.07925663 -0.13106188 0.0134625705 0.14899705 -0.0027321067
-0.04602659 0.15169942 -0.11537591 -0.13227282 -0.015681453 0.16263443 0.026417518 -0.109112814
-0.06436502 0.13488942 0.15379435 -0.025841316 0.13704813 0.0394412 0.027936433 0.07045177
-0.16065434 -0.14197429 -0.028314698 0.124262854 0.12031863 0.11352767 -0.06718583 0.10946846
0.049214706 0.07106209 -0.10459876 -0.045128506 -0.09240222 -0.07206897 -0.076603115 -0.006500142
-0.05398032 0.048089813 -0.061642926 -0.049372967 -0.008118782 -0.010193821 0.110285796 -0.18085773
00000000: e25c 643d 4d33 10be a152 15be 5edb 44bd
00000010: 8e46 87bb df82 473d 7920 0b3d 27e9 653c
00000020: 33d6 24be 7510 1e3e 8a3b 93bd 04af d53c
00000030: 4cc1 003e 9152 c8bd 44d1 81bd 752c f0bd
00000040: 1154 053d 3f98 aabd 391a fabd c043 bcbc
00000050: 5250 2abe e3d7 59bc 198b e63d edc8 8fbd
00000060: 302c b53c 7e24 d7bb 19c7 d23c 7ee3 3a3d
00000070: d40c 02bd ce68 e8bc db65 4abd 1571 a13c
00000080: b5ae 7a3d 2027 ca3d 384d f2bd 1045 87bc
00000090: 09c9 cfbc 4c18 053e 1f4c 0ebe 6c40 3bbe
000000a0: 98c5 e73d b8c2 393d 34fb 16bd 72c3 c0bd
000000b0: ea3b e6bc ae4c f3bd 6c24 843d 6d82 c63d
000000c0: 7baf af3d 18d3 dabd f723 db3d c36c f7bd
000000d0: 4af4 9dbd 6b87 9d3d c3a1 153d 651a 873d
000000e0: 2aae 783d c320 0b3d 67be 493c 3607 f83d
000000f0: 7f40 d13c 9ebb 693d bc5c 58bc b579 4bbd
00000100: 7c14 30be b344 533d 8802 d6bd f571 d6bd
00000110: f04a 27bd ea5a 193e 8616 8e3d 5a58 c13a
00000120: f108 1fbe b058 7ebd 6931 0f3e 3f3a 8dbd
00000130: 48ec 143c dccb 923d 1cc1 283d ce9d 07be
00000140: 36a3 633d ffbe a83d cf2d 73bd 77d5 1bbe
00000150: c6af bdbd 6694 4fbd 4faf d0bd 438d 96bc
00000160: 0a78 6c3c 3113 5fbd 16cf cf3d 6d5e 863d
00000170: 990d f13d 789c 983d 72a4 a33d fe75 a33d
00000180: 064b bb3d 2879 153e 74a6 963d 5420 703d
00000190: e54f 9dbd ac87 503c c14f f53c 0616 28be
000001a0: cce0 fcbd cbe2 303e 24c2 d6bd 5ed2 80bd
000001b0: 5acf 08be 08b2 e63c 794b 85bd f7b3 0fbe
000001c0: 8352 3dba cf3e a1bd 1edb c03d a6b6 17be
000001d0: 20bb 123d 164d 75bd 9b11 25bd e86e 183e
000001e0: 20b9 f4bd d727 1f3d 530e b23d 88fe 8d3d
000001f0: 549a 593e 1cd2 fa3d fe31 d33d 2644 533d
00000200: ea8a d63d d9e9 9abd f664 eebd 4247 dd3c
00000210: f7b5 25bd 522a 8cbd 1bc1 7e3d 240d ef3d
00000220: 5235 263e 8b6c 243e 36b4 a23a cfb6 1d3e
00000230: 2d84 4cbd bb47 083d 57d9 b53b c584 d3bd
00000240: 0857 2dbe d38e fc3d 2b15 b1bd 9ed7 b73d
00000250: 8200 633b 6f13 12bd eb73 3abc a165 c13d
00000260: 4dc6 cfbc 3ce6 8e3d b6ac 14bd 36d3 ffbd
00000270: d329 f5bd 8d79 e13d 3a2d 84ba 460b 393d
00000280: 4580 0fbe 93c5 c53a 4b22 5f3c aa4c b2bc
00000290: 1133 c63d d3f3 2cbd a736 b83d 1e36 553e
000002a0: 773b 1b3e 9dda 023e d9f6 65bd 3ea2 273e
000002b0: 6a17 31be 44cd 90bd d221 c7bd 13f0 263e
000002c0: 67b7 bc3d 07ca 523e 4f46 9fba 79fc c23d
000002d0: f921 2c3e deb2 f2bb 8284 1d3e ec2c 933d
000002e0: 36ab ffbc 236e 04be 09b5 4e3e fe69 b8bd
000002f0: 83c8 3e3e 5a73 05bd e4f0 3cbe 9bc4 103d
00000300: 742a c7bd 778f 84bc b934 313d 1965 043c
00000310: 6f53 323e 197f 5f3d 0b74 073d 4ab0 1c3e
00000320: 0a86 abbd 63c9 0f3e 7f9d 97bc b029 c3bc
00000330: a4c2 d9bd b846 163e a88f df3c c26f 223d
00000340: 36e1 6cbd ec82 393e cb45 953d 4d51 a23d
00000350: 1635 06be 1d92 5c3c af92 183e 250d 33bb
00000360: 6186 3cbd 1857 1b3e 354a ecbd 8772 07be
00000370: 6476 80bc a489 263e 8d69 d83c 8a76 dfbd
00000380: cfd1 83bd 7420 0a3e 447c 1d3e 2bb1 d3bc
00000390: 5856 0c3e 198d 213d f2da e43c 0549 903d
000003a0: 9282 24be b561 11be 3af4 e7bc 867d fe3d
000003b0: 9d69 f63d 3281 e83d b998 89bd 0031 e03d
000003c0: 5c95 493d 0089 913d e037 d6bd abd8 38bd
000003d0: 603d bdbd e598 93bd 18e2 9cbd 25ff d4bb
000003e0: 781a 5dbd d3f9 443d 4b7d 7cbd 4f3b 4abd
000003f0: a404 05bc fc03 27bc 85dd e13d c532 39be

enc_mean.bias f4 [12]
-0.050717894 0.03544066 -0.014146754 0.15537024 0.06905361 -0.12655374 -0.16409919 0.14409159
0.0062820874 -0.12636028 0.05167163 0.040744986
00000000: 91bd 4fbd 3a2a 113d c9c7 67bc 6019 1f3e
00000010: fb6b 8d3d 4e97 01be 9e09 28be bf8c 133e
00000020: f8d9 cd3b 9764 01be a2a5 533d 37e4 263d

enc_std.0.weight f4 [12, 32]
-0.042116877 0.073920496 0.12306757 0.08558963 0.08657342 -0.092916965 -0.09121881 -0.15430242
0.14740196 -0.047131155 -0.018264068 -0.13460553 -0.05484763 -0.07499794 -0.11812751 0.13889171
0.0055204993 0.19193867 -0.10539564 0.09045362 -0.16057034 -0.074852206 0.070191085 -0.13033599
-0.07420402 -0.07172868 0.00524677 -0.072068945 -0.0411782 0.13022198 0.18293186 0.13397285
0.15841866 -0.011053771 -0.10669934 -0.07581566 0.16903944 -0.021746725 -0.05633522 0.07360076
0.04132214 -0.069822975 -0.10994926 0.022592228 0.0716574 -0.07103823 -0.10971682 0.08210547
0.14253756 0.14774942 0.090615734 0.13472334 0.15435976 -0.03917135 -0.15702912 0.05682217
0.14623196 0.15511203 -0.029814422 0.020591673 0.03663122 -0.1413245 -0.08360799 0.0109087275
0.085225284 -0.08984291 -0.105831385 -0.034846198 0.0015937198 -0.18939991 -0.15757893 0.049072977
-0.0019043632 -0.12351151 0.039784614 0.170355 0.02902588 0.02553962 -0.088397466 0.1389037
0.16585489 0.07383093 0.080781356 -0.06497814 -0.09384767 -0.10864966 -0.013202269 0.037249137
-0.060379595 0.05259642 0.01985449 0.063562825 0.020369016 0.07991658 -0.07074002 0.063606076
0.0040283394 -0.0058280327 -0.14940645 -0.12139962 0.042766534 0.100118235 -0.05868157 0.14249912
-0.04920086 0.059509367 -0.13592693 0.062721506 -0.1527721 0.10011478 -0.08066944 0.046289682
-0.1756099 -0.15033442 -0.036938325 -0.06483042 -0.034687363 -0.0064469352 0.15195547 0.10603456
0.05384252 0.19363254 -0.012526971 0.14323823 0.054634012 -0.13748771 -0.18326986 0.13034706
0.16758792 -0.032319635 0.08514361 0.10614365 0.10134167 0.10255939 0.100701995 0.060690735
0.015285081 0.12382447 -0.081995465 -0.013541761 0.009524281 0.10209921 -0.008360124 0.1455623
0.11755188 -0.10542417 -0.120142296 0.08924975 0.097085856 -0.01149393 0.14554036 0.062984936
0.07971635 0.17241257 -0.069890395 0.031285517 0.12638593 -0.054270517 -0.14680105 0.19647786
-0.11601237 -0.06288651 -0.06748777 0.0058338596 0.1206628 0.04652007 -0.13348454 -0.057408907
-0.1587507 -0.054900568 -0.01723249 -0.1756668 -0.10968871 -0.10513374 -0.11928834 -0.008206457
-0.011267264 0.030268934 -0.15939523 0.039345223 0.031493433 0.109432876 -0.023438305 0.1733834
-0.1165165 -0.12742618 -0.032686822 0.112861425 0.08299126 -0.04568171 -0.16046979 0.00784555
0.051119078 0.10390354 0.16836503 0.025463978 0.010230136 0.20582004 0.10608466 -0.11316942
0.17457499 0.11867941 0.06532011 0.029761069 0.09584821 0.005978683 -0.21700616 -0.053337954
0.047167633 -0.058582433 -0.043123856 0.07313673 0.02578443 0.21966414 -0.07602172 -0.097523116
-0.0109274285 0.112889074 0.04731546 0.12336279 -0.09723251 -0.032253664 0.1231398 -0.09389962
-0.10730425 0.03900246 0.11298118 -0.030927615 -0.12187979 0.090980366 -0.009337316 -0.0027563449
0.043760523 -0.061443992 -0.058657505 -0.058653135 0.11056739 -0.08206683 0.029062219 0.07728332
-0.041083947 -0.038340744 0.031203117 -0.059779882 -0.12289751 0.1273461 0.103390224 -0.025879087
0.10494978 -0.05738456 0.08878483 -0.09564615 -0.08837166 -0.1327482 0.07526331 0.033809435
00000000: bf82 2cbd a163 973d da0a fc3d 9e49 af3d
00000010: 684d b13d 404b bebd edd0 babd 7401 1ebe
00000020: 8af0 163e 990c 41bd 879e 95bc 08d6 09be
00000030: e9a7 60bd 8598 99bd d6ec f1bd a139 0e3e
00000040: 4ee5 b43b 928b 443e abd9 d7bd bf3f b93d
00000050: 8d6c 24be 1d4c 99bd 58c0 8f3d cc76 05be
00000060: 47f8 97bd 7ce6 92bd 19ed ab3b e298 93bd
00000070: 79aa 28bd e958 053e 7d52 3b3e 2e30 093e
00000080: 8038 223e e01a 35bc 2f85 dabd 3e45 9bbd
00000090: ad18 2d3e 3026 b2bc c2bf 66bd ffbb 963d
000000a0: 6741 293d 59ff 8ebd 142d e1bd 5613 b93c
000000b0: 1dc1 923d 7e7c 91bd 36b3 e0bd ea26 a83d
000000c0: 5ef5 113e a04b 173e be94 b93d eaf4 093e
000000d0: 7c10 1e3e 2372 20bd 3ecc 20be 5dbe 683d
000000e0: d5bd 153e b0d5 1e3e 603d f4bc deaf a83c
000000f0: 9e0a 163d 5fb7 10be aa3a abbd 85ba 323c
00000100: 988a ae3d 8fff b7bd 20be d8bd e3ba 0ebd
00000110: 5de4 d03a 0df2 41be 5f5c 21be bf00 493d
00000120: d39b f9ba 9af3 fcbd 31f5 223d 8b71 2e3e
00000130: afc7 ed3c 7738 d13c bb09 b5bd c63c 0e3e
00000140: ddd5 293e ac34 973d b270 a53d 4213 85bd
00000150: 3533 c0bd b783 debd 544e 58bc 8d92 183d
00000160: 9850 77bd 586f 573d e2a5 a23c 3a2d 823d
00000170: ecdc a63c 4eab a33d 25e0 90bd e743 823d
00000180: 2900 843b 15f9 bebb 01fe 18be 5da0 f8bd
00000190: f62b 2f3d ca0a cd3d 165c 70bd 4aeb 113e
000001a0: d786 49bd 18c0 733d 6e30 0bbe 2274 803d
000001b0: 4a70 1cbe fa08 cd3d 0536 a5bd 409a 3d3d
000001c0: 15d3 33be 44f1 19be a44c 17bd d0c5 84bd
000001d0: 5614 0ebd d040 d3bb 379a 1b3e a628 d93d
000001e0: f989 5c3d 9c47 463e ed3d 4dbc 0bad 123e
000001f0: eac7 5f3d 94c9 0cbe 18ab 3bbe b379 053e
00000200: 2b9c 2b3e 9861 04bd c65f ae3d d861 d93d
00000210: 398c cf3d a80a d23d d93c ce3d d996 783d
00000220: 476e 7a3c af97 fd3d 3ded a7bd 43de 5dbc
00000230: bb0b 1c3c 6419 d13d e7f8 08bc 490e 153e
00000240: 0abf f03d a1e8 d7bd 2a0d f6bd 93c8 b63d
00000250: f3d4 c63d 0951 3cbc 8808 153e 3ffe 803d
00000260: 5342 a33d ec8c 303e b222 8fbd 3e25 003d
00000270: 506b 013e c34a 5ebd 0453 16be 7e31 493e
00000280: e597 edbd a4ca 80bd 0737 8abd f629 bf3b
00000290: 0f1e f73d d48b 3e3d 2cb0 08be 9a25 6bbd
000002a0: 8b8f 22be 6bdf 60bd 272b 8dbc ffe1 33be
000002b0: 79a4 e0bd 5c50 d7bd 724d f4bd 6074 06bc
000002c0: 559a 38bc 8ef6 f73c 8138 23be 7528 213d
000002d0: 42ff 003d 581e e03d b001 c0bc 6b8b 313e
000002e0: 34a0 eebd 027c 02be 9ee2 05bd e423 e73d
000002f0: 52f7 a93d bf1c 3bbd 3152 24be 9f8a 003c
00000300: 3d62 513d 61cb d43d e267 2c3e d599 d03c
00000310: 4d9c 273c 7dc2 523e ea42 d93d 5ec5 e7bd
00000320: c9c3 323e 310e f33d 8dc6 853d 7ccd f33c
00000330: 114c c43d d4e8 c33b dd36 5ebe e678 5abd
00000340: d932 413d 22f4 6fbd a4a2 30bd b6c8 953d
00000350: de39 d33c a3ef 603e 47b1 9bbd 33ba c7bd
00000360: f508 33bc 6332 e73d dbcd 413d a1a5 fc3d
00000370: d721 c7bd 6b1c 04bd b830 fc3d 724e c0bd
00000380: 55c2 dbbd 0bc1 1f3d ad62 e73d e95b fdbc
00000390: 1d9c f9bd ea53 ba3d 8bfb 18bc cba3 34bb
000003a0: 3c3e 333d b2ac 7bbd da42 70bd 453e 70bd
000003b0: 2871 e23d a712 a8bd e413 ee3c b846 9e3d
000003c0: a447 28bd 2f0b 1dbd ae9d ff3c c0db 74bd
000003d0: b1b1 fbbd 0467 023e 41be d33d 6100 d4bc
000003e0: e9ef d63d 130c 6bbd d2d4 b53d 21e2 c3bd
000003f0: 33fc b4bd 25ef 07be a623 9a3d c37b 0a3d

enc_std.0.bias f4 [12]
0.07717342 -0.11429267 0.062166505 -0.06978791 -0.082343094 0.1149392 -0.10166464 0.0629773
0.06416205 0.03913809 -0.11455093 0.0043716696
00000000: 190d 9e3d 4612 eabd 4ea2 7e3d f7ec 8ebd
00000010: 7fa3 a8bd 3e65 eb3d 8d35 d0bd 3efa 803d
00000020: 6567 833d 434f 203d ae99 eabd 3940 8f3b
