varRNN/VariationalRNN/VariationalRecurrentNeuralNetwork-master/saves/vrnn_state_dict_71.pth (torch, 92942 bytes, 30 tensors)

phi_x.0.weight f4 [32, 12]
0.2229557 -0.04981699 -0.04537021 -0.26181024 0.07698975 -0.10531018 0.057694685 0.23793638
-0.22806816 0.201588 -0.16068347 -0.1701691 -0.05789462 -0.090989016 0.30490428 0.010853289
-0.018828603 0.25950694 -0.036287796 0.13138822 -0.20876831 -0.24355392 -0.28176028 0.3004715
-0.20726424 0.14180654 -0.09875632 0.08052024 0.1260986 -0.18357241 -0.06830333 -0.26977345
-0.23564872 -0.00959789 -0.028263094 0.13272034 -0.210982 0.15310022 0.213682 -0.2238214
-0.0717963 0.010259612 -0.21694438 -0.22097291 0.032866523 -0.22831185 0.25071552 -0.13823622
-0.006496375 0.18829378 -0.09984977 0.20490383 0.019705683 0.3069022 0.28559583 -0.008158085
-0.048115507 0.15262137 -0.12244564 0.12940165 0.005201066 -0.047015462 0.110107265 0.2770438
-0.210943 0.17842484 0.48270077 -0.22942725 -0.038546693 0.23220012 -0.20137827 0.18269268
-0.034358747 0.03636244 -0.11911285 -0.2814609 0.021518288 0.15118188 -0.30236605 0.30817974
0.2368251 0.050335705 0.2569281 0.08094914 -0.25445178 -0.14460906 -0.014634792 0.07003376
0.09068831 -0.09264417 0.22395031 -0.0086916275 0.0077111535 0.07876268 0.110248 -0.058255322
0.042312298 -0.13326235 0.09228338 0.27445105 -0.15235916 0.21382914 0.21634266 -0.060822695
-0.14767146 -0.17282863 0.05602745 -0.14979014 -0.1673516 0.18491887 -0.19017614 0.1304187
0.017231725 0.12438937 0.1571921 0.04848113 -0.23707835 0.12708698 0.2715052 -0.2679824
-0.036783453 0.16677961 0.166069 0.23305438 0.08560902 0.29260263 0.25219926 0.1185873
-0.11100362 0.14583063 -0.032155868 -0.051379584 0.36699814 0.20062217 -0.08491704 0.19697727
-0.09089529 0.044951737 -0.056977883 -0.1476898 0.27525428 -0.08404422 -0.094469555 0.28821465
-0.21955784 -0.27330226 -0.12118721 -0.04915814 0.2308541 -0.22136863 -0.24218301 0.25991875
-0.17629969 0.06307937 -0.20663838 0.21407536 -0.16169673 0.26407775 0.07892921 -0.13360983
-0.2667819 0.11731027 -0.16634795 -0.20992579 0.3121892 -0.16053899 0.26699007 -0.09104865
-0.0070050964 -0.23242427 0.28213453 0.20772268 0.22968756 -0.089318685 0.16454817 0.34320232
0.017593887 -0.2638029 -0.11616012 0.35680887 -0.08869389 0.09096975 0.06240501 0.18620847
0.26597488 0.060204566 0.4076926 0.30078843 0.04467172 0.112550505 -0.16627847 -0.0068588615
-0.13651462 0.10162181 0.061608132 0.032602575 0.12117658 0.037668806 -0.3181385 0.011159466
0.12263158 0.113920294 -0.2191495 -0.1775459 0.03236386 0.19564487 0.109125435 0.119999364
0.19744928 -0.32923782 0.03257382 0.13708466 -0.20918795 -0.2254939 -0.11368185 -0.25510672
-0.04488631 -0.28128108 -0.06429823 0.084064454 0.1810637 -0.05867654 -0.1139007 -0.26044926
0.18136348 -0.2087979 0.17995885 -0.30472842 -0.07878058 -0.11388458 -0.25137332 -0.17929015
0.15782158 0.11913319 0.12655991 0.2260652 -0.2557733 0.12152484 -0.298996 0.01294254
-0.032178305 0.012951965 -0.027795192 0.29075685 0.011609539 0.08134359 0.32667708 0.024460884
0.12500133 0.12780242 0.17925887 0.11549558 0.29268876 0.122393616 -0.07419567 0.25550178
00000000: 804e 643e e60c 4cbd 1dd6 39bd fe0b 86be
00000010: cdac 9d3d ddac d7bd 4351 6c3d 98a5 733e
00000020: b38a 69be 166d 4e3e 358a 24be cf40 2ebe
00000030: e922 6dbd 7358 babd 6a1c 9c3e fed1 313c
00000040: 713e 9abc 18de 843e 83a2 14bd a28a 063e
00000050: 5cc7 55be 3366 79be e242 90be 67d7 993e
00000060: 143d 54be bc35 113e c140 cabd cce7 a43d
00000070: fe1f 013e 68fa 3bbe 9ee2 8bbd bf1f 8abe
00000080: e64d 71be 7840 1dbc 0188 e7bc d7e7 073e
00000090: aa0b 58be 4ec6 1c3e 74cf 5a3e 7031 65be
000000a0: f009 93bd ef17 283c ab26 5ebe b946 62be
000000b0: 0c9f 063d 95ca 69be c95d 803e cc8d 0dbe
000000c0: 8bdf d4bb 16d0 403e 097e ccbd 4fd2 513e
000000d0: d06d a13c 4922 9d3e 9e39 923e 7da9 05bc
000000e0: c414 45bd c748 1c3e c8c4 fabd de81 043e
000000f0: b46d aa3b 4993 40bd eb7f e13d afd8 8d3e
00000100: 7101 58be 00b5 363e 8e24 f73e faee 6abe
00000110: 23e3 1dbd dec5 6d3e 1b36 4ebe ca13 3b3e
00000120: c2bb 0cbd c8f0 143d 70f1 f3bd a51b 90be
00000130: 1f47 b03c 6ccf 1a3e b9cf 9abe bcc9 9d3e
00000140: 4782 723e d02c 4e3d 148c 833e aac8 a53d
00000150: 8147 82be 6614 14be c4c6 6fbc dc6d 8f3d
00000160: cbba b93d 3abc bdbd 3b53 653e 5467 0ebc
00000170: d8ad fc3b 544e a13d b4c9 e13d 229d 6ebd
00000180: a94f 2d3d ed75 08be 12ff bc3d d984 8c3e
00000190: 0a04 1cbe 07f6 5a3e ee88 5d3e 3821 79bd
000001a0: 3037 17be fdf9 30be 0a7d 653d 9662 19be
000001b0: 385e 2bbe 5f5b 3d3e 89bd 42be 7b8c 053e
000001c0: 8c29 8d3c dbbf fe3d f7f6 203e 2694 463d
000001d0: abc4 72be 1723 023e bb02 8b3e fd34 89be
000001e0: 3faa 16bd 46c8 2a3e fe0d 2a3e cfa5 6e3e
000001f0: c853 af3d 03d0 953e 4320 813e e6dd f23d
00000200: de55 e3bd a054 153e dfb5 03bd 6673 52bd
00000210: 2ee7 bb3e e66f 4d3e fce8 adbd 69b4 493e
00000220: 4f27 babd 501f 383d a461 69bd ff3b 17be
00000230: 21ee 8c3e 601f acbd 4179 c1bd df90 933e
00000240: c5d3 60be 46ee 8bbe 0031 f8bd 0c5a 49bd
00000250: 0465 6c3e 75ae 62be d3fe 77be 1214 853e
00000260: e887 34be c22f 813d 0399 53be 9236 5b3e
00000270: d493 25be 3335 873e a3a5 a13d 04d1 08be
00000280: a397 88be 5e40 f03d 1e57 2abe c9f6 56be
00000290: 43d7 9f3e 5564 24be ecb2 883e b777 babd
000002a0: 028b e5bb a100 6ebe f073 903e 41b5 543e
000002b0: 3733 6b3e b7ec b6bd 517f 283e 37b8 af3e
000002c0: 0e21 903c 2c11 87be 5be5 edbd a7af b63e
000002d0: 24a5 b5bd 594e ba3d 659c 7f3d 6fad 3e3e
000002e0: dc2d 883e 1099 763d 16bd d03e f100 9a3e
000002f0: b2f9 363d e180 e63d e744 2abe 4dc0 e0bb
00000300: 7dca 0bbe 181f d03d cf58 7c3d 478a 053d
00000310: 6d2b f83d 9b4a 1a3d 0de3 a2be 31d6 363c
00000320: 4426 fb3d 0b4f e93d ba68 60be 98ce 35be
00000330: f88f 043d 2157 483e 287d df3d 3ac2 f53d
00000340: 2530 4a3e dc91 a8be 206c 053d ec5f 0c3e
00000350: 5e35 56be dfe7 66be 08d2 e8bd 599d 82be
00000360: b5da 37bd 1304 90be caae 83bd fc29 ac3d
00000370: c368 393e d056 70bd c544 e9bd 9b59 85be
00000380: 59b7 393e 1ecf 55be 2247 383e 5d05 9cbe
00000390: b657 a1bd 523c e9bd 01b4 80be d697 37be
000003a0: fb9b 213e 1afc f33d ec98 013e a37d 673e
000003b0: b8f4 82be 04e2 f83d 0116 99be f30c 543c
000003c0: 66cd 03bd 7b34 543c beb2 e3bc 15de 943e
000003d0: f035 3e3c 7897 a63d 3842 a73e 3162 c83c
000003e0: 5900 003e a3de 023e a38f 373e f288 ec3d
000003f0: 4ddb 953e 81a9 fa3d e6f3 97bd 21d1 823e

phi_x.0.bias f4 [32]
0.24258523 0.16298133 -0.18658993 -0.2207545 0.009902874 -0.13073064 -0.11425569 0.10043443
0.084323265 -0.07829076 -0.19805555 -0.17875192 -0.043900836 0.291388 -0.194804 -0.13993257
0.2917524 0.38887423 -0.17830576 0.12750183 -0.23449527 0.05126451 0.15470725 0.047372706
0.055465985 0.047328398 0.20465122 -0.047155585 -0.025765598 0.17008263 0.10355899 0.15859842
00000000: 4368 783e 94e4 263e 6e11 3fbe 780d 62be
00000010: aa3f 223c 41de 05be e3fe e9bd 91b0 cd3d
00000020: adb1 ac3d e856 a0bd 13cf 4abe be0a 37be
00000030: 5dd1 33bd cf30 953e b37a 47be 7c4a 0fbe
00000040: 9260 953e 861a c73e c995 36be d78f 023e
00000050: 871f 70be bcfa 513d 946b 1e3e e209 423d
00000060: 4d30 633d 6cdb 413d 1790 513e 3726 41bd
00000070: 6012 d3bc 242a 2e3e bc16 d43d a067 223e

phi_x.2.weight f4 [32, 32]
0.1424473 0.15969127 0.024283476 0.17292595 -0.10045506 -0.023170222 -0.0029943534 0.13176604
-0.08599842 0.1564673 -0.20625189 -0.12868874 0.14057529 0.07425017 -0.06510257 -0.12782185
0.11080682 -0.07520604 -0.13513935 -0.016880387 -0.06318957 0.14405759 0.1332482 -0.016200002
0.076982036 0.06332703 0.105114385 -0.015153732 0.61915594 0.021861875 -0.033450793 -0.123949945
-0.09715971 -0.03922407 -0.17100875 -0.060197163 -0.078778505 -0.06398918 -0.13506937 0.02645271
-0.17117757 0.019230468 0.061264426 -0.08858439 -0.10369248 0.045140095 0.12466911 -0.03879219
0.13552237 -0.08551035 -0.04536792 0.17133176 0.049364876 -0.007258678 -0.14299063 0.14881204
-0.0024923328 0.119309634 -0.043437257 0.052345015 0.17594242 -0.071296535 -0.09927551 -0.061271697
-0.074003324 -0.017910741 -0.060094956 0.13839267 -0.04138297 0.07951317 -0.0769133 -0.15034632
-0.1903904 -0.1143335 -0.06388522 0.07822313 0.09069546 0.07782546 -0.050240498 0.1597022
-0.131478 -0.06579586 -0.14605168 0.0801707 -0.155598 0.006508283 -0.09372854 0.101103455
0.09949184 -0.120366216 0.1692327 -0.1624449 -0.01879939 -0.08955443 0.0018955966 -0.09590739
0.00023743509 -0.011924034 -0.09007968 -0.17145513 -0.24220665 0.02599011 -0.08438464 -0.12616466
-0.029904969 0.090292946 -0.07399238 -0.19169863 0.100379586 -0.039775576 -0.011652048 0.03748292
-0.111124694 0.026100188 -0.13545357 -0.00444774 0.062553436 -0.012210182 -0.06998792 -0.060558576
0.07558237 -0.12599368 0.0723828 -0.085784286 0.1315787 -0.076215714 -0.16759369 0.023472378
0.0793967 -0.14697173 0.045309126 -0.067478135 0.09609883 -0.05218964 -0.10890133 -0.042082556
0.05066948 0.13459258 -0.1531666 -0.19450432 0.0131939445 -0.054207254 -0.048388354 0.08996061
0.01606464 0.21059394 -0.07685578 -0.17161623 0.15405893 0.2123701 0.10613027 0.15200686
-0.10647191 -0.016333008 0.0071067032 0.057130743 -0.22351801 0.0047285412 -0.00794076 0.16878723
-0.1847888 0.15968864 0.028297309 0.051959623 0.13382238 0.39659557 0.13971727 0.0163852
0.101366915 -0.10696082 0.024483064 0.19104567 0.06320872 0.1848233 -0.15951143 -0.14225742
-0.16454168 -0.27624986 0.021708565 -0.0476403 0.08040207 0.08690145 0.14736804 0.100803606
-0.0222708 -0.07508035 -0.05678023 0.2213134 0.13078402 -0.14500338 -0.20603614 0.06725768
-0.24539177 -0.062414814 0.1077661 0.0019372166 0.15990688 0.014820694 0.13397995 0.098071605
-0.13479441 -0.16415502 -0.07114249 0.15404503 0.0030014035 0.0471473 0.02819233 0.048855104
-0.104593486 -0.21018761 0.028693082 -0.16302988 0.07048434 0.111022785 -0.15156694 -0.098149665
-0.017893245 -0.2091164 -0.2530934 0.0943227 -0.46966216 0.0060196286 0.04706696 -0.23127715
-0.052523077 0.17046452 0.14553344 -0.1253663 0.16775914 0.008064826 -0.018740194 0.05191668
-0.20027211 0.14786428 -0.005350693 0.1134737 0.1065859 -0.20572984 0.1334681 -0.07649866
0.03392142 -0.30886912 0.12978259 -0.032100365 0.011916141 -0.097267434 0.045001864 -0.009333293
-0.004577127 0.1637757 -0.055923216 -0.08758393 -0.022619486 0.027391713 0.11869882 -0.12166309
00000000: b4dd 113e 1c86 233e 24ee c63c 8013 313e
00000010: 62bb cdbd 7acf bdbc ea3c 44bb aded 063e
00000020: f11f b0bd f738 203e b233 53be fbc6 03be
00000030: f8f2 0f3e 7910 983d 7f54 85bd bbe3 02be
00000040: b0ee e23d a005 9abd f861 0abe bd48 8abc
00000050: 8969 81bd d583 133e 3772 083e deb5 84bc
00000060: c2a8 9d3d 9ab1 813d 3646 d73d 5c47 78bc
00000070: 0181 1e3f ad17 b33c b303 09bd 78d9 fdbd
00000080: acfb c6bd 6ba9 20bd eb1c 2fbe 4d91 76bd
00000090: a056 a1bd c20c 83bd a04f 0abe 5bb3 d83c
000000a0: 2c49 2fbe 3789 9d3c 68f0 7a3d bc6b b5bd
000000b0: b95c d4bd d2e4 383d 8552 ff3d 8fe4 1ebd
000000c0: 60c6 0a3e 0d20 afbd b6d3 39bd 9871 2f3e
000000d0: d332 4a3d 34da edbb 236c 12be 2f62 183e
000000e0: 6856 23bb 9c58 f43d 44eb 31bd ba67 563d
000000f0: 402a 343e eb03 92bd f550 cbbd 08f8 7abd
00000100: 0e8f 97bd 8cb9 92bc 2126 76bd cfb6 0d3e
00000110: 3081 29bd cdd7 a23d b884 9dbd 63f4 19be
00000120: b3f5 42be af27 eabd 41d6 82bd 7333 a03d
00000130: 8bbe b93d f462 9f3d fbc8 4dbd f988 233e
00000140: 2ba2 06be fbbf 86bd 928e 15be 8930 a43d
00000150: 1555 1fbe 6f43 d53b c0f4 bfbd 540f cf3d
00000160: 61c2 cb3d 9082 f6bd 564b 2d3e f557 26be
00000170: 2e01 9abc 5068 b7bd ab75 f83a 186b c4bd
00000180: fff7 7839 065d 43bc b27b b8bd ef91 2fbe
00000190: 0505 78be 36e9 d43c dbd1 acbd 4f31 01be
000001a0: 44fb f4bc 82eb b83d 5189 97bd a54c 44be
000001b0: d093 cd3d b7eb 22bd 3be8 3ebc b187 193d
000001c0: 5895 e3bd 10d0 d53c 57b4 0abe 59be 91bb
000001d0: 041c 803d 370d 48bc d455 8fbd 450c 78bd
000001e0: eeca 9a3d 7d04 01be 6f3d 943d acaf afbd
000001f0: 91bc 063e fc16 9cbd ae9d 2bbe 2549 c03c
00000200: bd9a a23d c27f 16be 1096 393d fa31 8abd
00000210: 77cf c43d cec4 55bd a907 dfbd c25e 2cbd
00000220: cd8a 4f3d a3d2 093e b5d7 1cbe 242c 47be
00000230: 6a2b 583c 6d08 5ebd de32 46bd 453d b83d
00000240: fe99 833c f0a5 573e 9066 9dbd 2abc 2fbe
00000250: a0c1 1d3e 8c77 593e d45a d93d b0a7 1b3e
00000260: f20d dabd cdcc 85bc 59df e83b ed01 6a3d
00000270: e8e1 64be e1f1 9a3b f619 02bc 8fd6 2c3e
00000280: 4639 3dbe 6b85 233e c2cf e73c 9dd3 543d
00000290: bc08 093e 930e cb3e 0b12 0f3e 413a 863c
000002a0: 7599 cf3d 460e dbbd b590 c83c 7aa1 433e
000002b0: 9373 813d 5242 3d3e f756 23be eeab 11be
000002c0: 9d7d 28be 9f70 8dbe 29d6 b13c 7a22 43bd
000002d0: d7a9 a43d 63f9 b13d a6e7 163e 1f72 ce3d
000002e0: 4171 b6bc bac3 99bd 6392 68bd fb9f 623e
000002f0: 3fec 053e c47b 14be 23fb 52be 65be 893d
00000300: fb47 7bbe ada6 7fbd 79b4 dc3d 34ea fd3a
00000310: a1be 233e 7fd2 723c 0a32 093e c4d9 c83d
00000320: 8c07 0abe 4118 28be 27b3 91bd fbbd 1d3e
00000330: 32b3 443b 871d 413d 9af3 e63c 4a1c 483d
00000340: 1c35 d6bd 6c3b 57be c10d eb3c 4ef1 26be
00000350: 185a 903d ea5f e33d 5d34 1bbe b102 c9bd
00000360: db94 92bc 9c22 56be 7595 81be 422c c13d
00000370: 8f77 f0be 4e40 c53b 49c9 403d ebd3 6cbe
00000380: 7022 57bd 408e 2e3e b806 153e 0660 00be
00000390: 0dc9 2b3e 5522 043c 0985 99bc 96a6 543d
000003a0: 2214 4dbe bc69 173e de54 afbb e664 e83d
000003b0: b549 da3d d8aa 52be ddab 083e 54ab 9cbd
000003c0: 30f1 0a3d 1824 9ebe bae5 043e ac7b 03bd
000003d0: eb3b 433c 2634 c7bd e053 383d abea 18bc
000003e0: b9fb 95bb d1b4 273e be0f 65bd 345f b3bd
000003f0: 804c b9bc 9664 e03c 5e18 f33d 802a f9bd

phi_x.2.bias f4 [32]
0.21815382 -0.15444444 -0.011968149 -0.039302956 0.070023485 0.035443075 0.09184617 0.067247175
-0.102405086 -0.09518847 0.050292138 -0.017184008 -0.12513064 -0.14409743 -0.08706927 0.081420965
0.113573454 0.29257753 0.078060634 0.11849969 0.08618777 -0.06366547 -0.017844575 0.06783012
0.13886513 -0.12465523 -0.14940804 0.018793024 0.13664673 -0.034790684 -0.21146761 -0.020039238
00000000: b763 5f3e af26 1ebe 0e16 44bc 23fc 20bd
00000010: 7968 8f3d c22c 113d d819 bc3d e3b8 893d
00000020: c2b9 d1bd 2cf2 c2bd 21ff 4d3d 7ac5 8cbc
00000030: 3f22 00be 478e 13be 6051 b2bd 09c0 a63d
00000040: 3399 e83d b9cc 953e 41de 9f3d f7af f23d
00000050: 3783 b03d 0b63 82bd c92e 92bc 85ea 8a3d
00000060: a932 0e3e 3e4b ffbd 6cfe 18be d4f3 993c
00000070: 1fed 0b3e ad80 0ebd f78a 58be 5429 a4bc

phi_z.0.weight f4 [32, 12]
0.022290256 -0.006033885 0.0069352393 -0.012037541 -0.030797834 0.00091538765 -0.057840206 -0.015359244
-0.013115622 0.016802583 -0.0065261326 0.023650188 0.009104786 -0.01998782 0.0072166864 -0.0020192473
0.005985795 0.0072903614 -0.002416412 -0.006677818 -0.002438039 0.0063375775 -0.00380655 0.008064502
0.0024170338 0.0073275054 -0.0008198113 -0.0034723682 -0.0001696284 0.007288872 0.0027196652 -0.0015922907
0.0009949005 -0.003019137 -0.004939628 -0.0046625677 -0.0001937405 0.02454052 0.005164692 -0.0047233854
-0.0042035184 0.008326723 0.011930729 -0.016159516 -0.0056686494 0.0028429395 -0.0026145142 -0.004720063
-0.049807843 0.014827927 0.036709853 -0.011990814 -0.0054100724 -0.00050617335 0.018651223 -0.011221848
-0.0028425348 0.013041515 0.027050754 0.002317099 0.00244016 0.0051182653 0.009362297 -0.012197439
-0.0032591948 0.009212033 -0.011674474 -0.027359568 0.0042118193 0.022628814 -0.014026048 -0.016751023
0.061851397 -0.07280858 0.0004897343 -0.017074443 0.013884695 0.00903604 0.028903933 0.032484956
0.012649621 -0.073548876 0.038568754 -0.08453425 -5.711037e-05 0.0068049757 -0.0018257068 -0.0019152748
-0.010935091 0.0025082063 -0.0024593964 -0.00038832764 -0.012290472 -0.0015786225 0.005920927 -0.0087757725
0.014960222 0.02346719 0.025639918 0.029439157 -0.045934897 0.019576835 -0.0139975 -0.07258853
-0.04913277 -0.01949116 0.10329791 0.0142006045 0.026476957 0.0368783 -0.04486904 -0.013170035
-0.008594255 0.018520117 0.025145324 -0.017386777 -0.019345952 -0.041595004 0.06864565 0.0465506
-0.029106576 0.020348758 0.0022171536 -0.026736727 -0.013918557 -5.4669516e-05 0.004931354 0.0026334028
0.006430493 -0.023400376 -0.0021574423 -0.016359111 0.0040890514 -0.0019553967 0.0023917346 0.0112707615
-0.0066377567 0.00034250802 0.0047424478 0.024582699 0.00011417412 -0.019385343 0.00894268 0.0016217232
-0.04024188 -0.0014552654 -0.016101914 -0.026837418 0.04164498 0.025823947 0.012274722 -0.07810506
-0.009951795 0.019212207 -0.055865858 -0.055835236 -0.01499962 -0.0026161885 0.011925472 -0.017442888
-0.0020429692 -0.05641589 -0.0058906176 0.01167083 -0.02208251 -0.006139032 -0.007824201 -0.019064598
-0.0072941454 -0.00781039 0.0135169905 0.004267664 0.03098408 -0.019736702 0.008382955 0.041947585
-0.07614918 0.08424628 0.030847602 0.012465908 0.025621057 0.017939897 -0.009087915 0.011688187
0.022118015 0.040532872 -0.010891547 0.0017846782 0.006803843 0.016369684 0.043239336 -0.017992873
0.034071427 0.02498353 -0.0013342155 -0.008597742 -0.020534966 -0.010208664 0.023461614 -0.008123146
-0.0135428915 0.022615006 -0.005628737 -0.078501776 -0.03091017 -0.037042513 -0.0463255 -0.0044405996
0.03402547 -0.012116516 0.040808536 0.0041322405 -0.011366511 -0.039921157 -0.015585352 0.03266477
-0.02031038 -0.005857638 -0.018760394 0.026735371 0.030209417 -0.029468035 -0.012610929 -0.022831513
-0.014911861 0.025856666 0.005836643 -0.0013285348 -0.0057189213 -0.03634592 -0.0172669 -0.020789357
-0.059177116 0.01377994 -0.05831799 0.011959832 0.008193747 0.04358846 -0.06549319 -0.046995953
0.011409323 0.008269057 0.04505834 -0.02983635 -0.008810487 -0.0036334828 -0.03172362 0.05371199
-0.0034530503 0.044010352 0.04456274 0.0056351246 -0.029554637 -0.035041608 0.022672072 -0.016790075
00000000: 0e9a b63c e5b7 c5bb 0141 e33b 1b39 45bc
00000010: bd4b fcbc a0f6 6f3a dae9 6cbd 57a5 7bbc
00000020: e8e2 56bc 92a5 893c 2bd9 d5bb 0abe c13c
00000030: 3e2c 153c 7fbd a3bc f479 ec3b 5955 04bb
00000040: 7d24 c43b fce3 ee3b ab5c 1ebb 99d1 dabb
00000050: 82c7 1fbb 74ab cf3b 5077 79bb f920 043c
00000060: 1967 1e3b 921b f03b 9be8 56ba ac90 63bb
00000070: 47de 31b9 7dd7 ee3b 693c 323b 69b4 d0ba
00000080: 5267 823a b7dc 45bb 9adc a1bb 74c8 98bb
00000090: d226 4bb9 3309 c93c 943c a93b a1c6 9abb
000000a0: abbd 89bb cf6c 083c 1b79 433c f660 84bc
000000b0: 14c0 b9bb 9c50 3a3b 4558 2bbb c2aa 9abb
000000c0: 4f03 4cbd d5f0 723c 125d 163d 1e75 44bc
000000d0: fa46 b1bb b8b0 04ba 73ca 983c d8db 37bc
000000e0: d249 3abb 14ac 553c 8b99 dd3c 78da 173b
000000f0: 17eb 1f3b 1fb7 a73b 5264 193c c4d7 47bc
00000100: 3798 55bb 11ee 163c 4b46 3fbc 2c21 e0bc
00000110: 4d03 8a3b 1060 b93c 82cd 65bc 7139 89bc
00000120: e457 7d3d aa1c 95bd 8361 003a b4df 8bbc
00000130: a27c 633c e60b 143c f1c7 ec3c f20e 053d
00000140: 5b40 4f3c cba0 96bd 45fa 1d3d 4b20 adbd
00000150: cb89 6fb8 46fc de3b 8e4c efba f509 fbba
00000160: 1929 33bc b860 243b d32d 21bb 7498 cbb9
00000170: fa5d 49bc c8e9 ceba 5604 c23b 42c8 0fbc
00000180: b81b 753c 443e c03c ce0a d23c 632a f13c
00000190: 3b26 3cbd 995f a03c c555 65bc 4ca9 94bd
000001a0: 723f 49bd edab 9fbc db8d d33d a7a9 683c
000001b0: 34e6 d83c b30d 173d 99c8 37bd 21c7 57bc
000001c0: ebce 0cbc 80b7 973c 91fd cd3c b76e 8ebc
000001d0: 677b 9ebc 865f 2abd 1796 8c3d d8ab 3e3d
000001e0: ea70 eebc 70b2 a63c aa4d 113b fb06 dbbc
000001f0: a90a 64bc f24c 65b8 3297 a13b 2b95 2c3b
00000200: e3b6 d23b 25b2 bfbc e063 0dbb 8b03 86bc
00000210: 73fd 853b 1d26 00bb a6be 1c3b 00a9 383c
00000220: 8a81 d9bb a692 b339 8966 9b3b a861 c93c
00000230: c470 ef38 03ce 9ebc 5284 123c 0090 d43a
00000240: abd4 24bd 9bbe beba 29e8 83bc 25da dbbc
00000250: ed93 2a3d be8c d33c ea1b 493c 8cf5 9fbd
00000260: db0c 23bc eb62 9d3c 99d3 64bd 7db3 64bd
00000270: f7c0 75bc 5c74 2bbb 0e63 433c 63e4 8ebc
00000280: 56e3 05bb 5914 67bd 1506 c1bb 0237 3f3c
00000290: 61e6 b4bc ef29 c9bb 1431 00bc 5c2d 9cbc
000002a0: ba03 efbb 4dee ffbb 5e76 5d3c c3d7 8b3b
000002b0: 53d2 fd3c ddae a1bc a958 093c 3bd1 2b3d
000002c0: 1af4 9bbd 5089 ac3d 1cb4 fc3c cf3d 4c3c
000002d0: 40e3 d13c b1f6 923c 7ae5 14bc cf7f 3f3c
000002e0: d730 b53c cc05 263d 7672 32bc ddeb e93a
000002f0: c6f2 de3b b719 863c bb1b 313d ca65 93bc
00000300: 7b8e 0b3d 43aa cc3c d8e0 aeba 8bdd 0cbc
00000310: f238 a8bc 3e42 27bc 9232 c03c f216 05bc
00000320: 01e3 5dbc 1b43 b93c 4571 b8bb 8ac5 a0bd
00000330: 5337 fdbc e4b9 17bd cfbf 3dbd 7382 91bb
00000340: 4b5e 0b3d 5a84 46bc da26 273d bf67 873b
00000350: 9a3a 3abc 5e84 23bd b459 7fbc 7ecb 053d
00000360: f461 a6bc 6ef1 bfbb 66af 99bc 2304 db3c
00000370: bd79 f73c f366 f1bc 129e 4ebc 2709 bbbc
00000380: e150 74bc 5cd1 d33c 4f41 bf3b 3b22 aeba
00000390: ca65 bbbb 76df 14bd 5073 8dbc 714e aabc
000003a0: b463 72bd 42c5 613c d8de 6ebd 2cf3 433c
000003b0: 113f 063c d089 323d 4b21 86bd d47e 40bd
000003c0: 2bee 3a3c f07a 073c 188f 383d 5c6b f4bc
000003d0: dc59 10bc ba1f 6ebb a0f0 01bd 1b01 5c3d
000003e0: 924c 62bb 3344 343d 6b87 363d daa6 b83b
000003f0: 911c f2bc ca87 0fbd c8ba b93c 578b 89bc

phi_z.0.bias f4 [32]
-0.20528114 0.17599146 0.060120054 -0.05705993 -0.21612747 0.13089031 -0.3360637 -0.040133625
-0.2624779 -0.28891212 -0.015581443 0.17678176 -0.39615327 -0.16445108 -0.3780105 -0.16377303
-0.2496994 -0.24381982 -0.12105502 -0.3905279 -0.312782 -0.37577555 -0.14661072 -0.21078992
-0.30000523 -0.18436082 0.16839011 -0.19381496 -0.34205195 -0.2838885 0.15155429 0.13634767
00000000: 3835 52be 1b37 343e 7240 763d acb7 69bd
00000010: 8550 5dbe 1c08 063e 8b10 acbe 2863 24bd
00000020: 8163 86be 4aec 93be 4f49 7fbc 4706 353e
00000030: 9ad4 cabe dd65 28be 988a c1be 1eb4 27be
00000040: 33b1 7fbe e7ab 79be b2eb f7bd 46f3 c7be
00000050: f624 a0be a765 c0be 1f21 16be 50d9 57be
00000060: 499a 99be 15c9 3cbe 756e 2c3e 6e77 46be
00000070: 6f21 afbe d559 91be 0c31 1b3e b99e 0b3e

enc.0.weight f4 [32, 64]
-0.0049356963 -0.0008713007 -0.030150622 -0.12564147 0.030129157 -0.09233538 0.065415636 -0.06487018
0.12273614 -0.012936586 -0.021531507 -0.024493545 0.09231131 -0.09730919 -0.0026439866 -0.11882669
0.038006797 0.13960838 -0.05873467 -0.020056814 -0.022503942 0.086260214 0.070132986 0.05655078
-0.025024034 -0.011427243 0.08392292 0.04982514 -0.020947982 -0.01599349 0.101307146 -0.007289789
-0.16853264 -0.26492447 0.019376304 -0.087127596 0.013013641 -0.030067282 0.037883434 -0.13149261
-0.20719633 0.15345618 0.044471312 0.049940106 0.039590377 0.03542846 -0.048327684 -0.021579055
0.08721763 -0.15448684 -0.08621291 -0.10148476 -0.03554583 -0.006841353 -0.022746619 -0.002398446
0.055649564 0.01656401 -0.023853539 -0.017030839 -0.09534096 0.050236207 0.040209487 0.1043949
-0.049371067 -0.025514513 -0.11243349 0.05531034 -0.08216941 0.07169046 0.09765748 0.051275752
-0.05404541 0.052532263 -0.013368145 0.110750616 0.11889173 0.08901358 -0.015494447 -0.016313342
0.016615242 0.09207079 -0.11850043 -0.034070667 0.07768746 0.107879385 -0.08163835 -0.10178123
-0.047058936 -0.04747089 -0.030981034 0.046704568 -0.13151853 -0.06310785 0.0065367073 0.08209732
0.016526075 -0.093875796 -0.093303755 -0.11167051 -0.057709813 0.11782894 -0.014579177 -0.061945975
-0.034836754 -0.10735213 0.036435615 0.052064773 -0.027495148 -0.080171995 -0.10337424 -0.041524924
0.09969521 0.000120912526 0.013317351 -0.10761117 -0.100631185 0.06995034 0.065457605 0.054329623
-0.0880502 -0.03270068 0.026013548 0.026095456 -0.0016281646 0.10657561 -0.08599063 0.087226324
-0.014455599 0.008907139 -0.051579103 0.032138206 0.043742776 -0.02727776 0.2592227 -0.0446814
-0.03445308 0.10293068 0.06609143 -0.09930928 -0.08658674 0.04857126 -0.005502705 -0.06735829
-0.09964911 0.15374674 0.1110113 0.2372727 0.032927256 0.07896124 -0.03428541 0.051447682
-0.009923411 -0.039367445 -0.014723942 0.0414711 0.08037591 -0.044518173 0.008330125 -0.08997149
-0.09765699 -0.1700561 0.16878565 0.066216014 -0.1707064 0.05902503 -0.12949252 -0.21019389
-0.21213304 0.17229064 0.15326224 0.04970337 0.2052831 0.018457176 -0.10728952 0.04883235
0.20385835 -0.11491089 -0.20336767 -0.06334491 -0.1316855 0.13528886 -0.011383687 -0.0056856917
0.15213901 0.17192608 -0.11325209 0.069108866 0.09688713 0.01297921 0.15025717 0.08778098
-0.11395654 0.017588317 0.09564714 -0.109743655 -0.06801821 -0.027034253 -0.061118945 -0.064836234
-0.0120856315 -0.026683941 0.0037235767 0.122402206 -0.10605198 0.05878617 -0.031638786 0.06087725
0.119460344 0.010954782 0.07415372 -0.040395156 0.051357552 -0.012899488 0.022855148 -0.00240165
-0.107760355 -0.07550061 0.05287525 -0.116857365 -0.067825496 0.120783865 0.030061036 -0.10105735
-0.03415823 0.0019814223 0.09439677 -0.03284788 0.027153268 -0.05480738 -0.03122501 -0.065017745
-0.10996345 -0.009326369 0.013618469 0.06569737 0.016078085 -0.0034924448 -0.063593775 0.012288302
-0.069099516 0.060344398 -0.12020685 -0.041097254 0.030200869 0.0064216554 0.063832894 -0.05034226
0.089266375 -0.09170441 0.009647161 -0.045027137 -0.034086898 0.11544646 -0.026464 0.07987693
00000000: 9fbb a1bb 0068 64ba 70fe f6bc 28a8 00be
00000010: 6cd1 f63c 551a bdbd a2f8 853d a8da 84bd
00000020: 165d fb3d f9f3 53bc d862 b0bc b0a6 c8bc
00000030: b60d bd3d 0a4a c7bd bc46 2dbb 685b f3bd
00000040: 04ad 1b3d 80f5 0e3e c493 70bd 304e a4bc
00000050: 305a b8bc 32a9 b03d e2a1 8f3d caa1 673d
00000060: 34ff ccbc 5539 3bbc c8df ab3d 7215 4c3d
00000070: 1a9b abbc c804 83bc 1f7a cf3d 2fdf eebb
00000080: d293 2cbe 2ea4 87be 0ebb 9e3c f46f b2bd
00000090: 2b37 553c a94f f6bc a92b 1b3d 00a6 06be
000000a0: 462b 54be 9e23 1d3e 8d27 363d ff8d 4c3d
000000b0: 8529 223d 6f1d 113d 40f3 45bd 8fc6 b0bc
000000c0: 289f b23d cc31 1ebe 6590 b0bd 3ed7 cfbd
000000d0: 8198 11bd 6e2d e0bb 1e57 babc 3f2f 1dbb
000000e0: ccf0 633d 3fb1 873c 7f68 c3bc 4284 8bbc
000000f0: 1f42 c3bd 7bc4 4d3d b4b2 243d fecc d53d
00000100: 5139 4abd d003 d1bc 8843 e6bd 188d 623d
00000110: 7048 a8bd 73d2 923d a500 c83d 8606 523d
00000120: b85e 5dbd 122c 573d 1006 5bbc 38d1 e23d
00000130: 827d f33d c04c b63d 6cdc 7dbc 8fa3 85bc
00000140: b01c 883c 9c8f bc3d 5ab0 f2bd af8d 0bbd
00000150: 9a1a 9f3d deef dc3d 0232 a7bd ad72 d0bd
00000160: dfc0 40bd d670 42bd f0cb fdbc 4a4d 3f3d
00000170: cbac 06be b03e 81bd e031 d63b a422 a83d
00000180: b161 873c f441 c0bd 0a16 bfbd 82b3 e4bd
00000190: 2061 6cbd 4d50 f13d 80dd 6ebc 10bb 7dbd
000001a0: fcb0 0ebd 6fdb dbbd 833d 153d df41 553d
000001b0: 813d e1bc 3731 a4bd e0b5 d3bd 0a16 2abd
000001c0: 012d cc3d 6b92 fd38 0531 5a3c 3f63 dcbd
000001d0: b917 cebd 2042 8f3d a30e 863d bd88 5e3d
000001e0: aa53 b4bd 26f1 05bd 5d1a d53c 23c6 d53c
000001f0: 2368 d5ba 5044 da3d db1b b0bd b7a3 b23d
00000200: 2dd7 6cbc 40ef 113c 9c44 53bd 5aa3 033d
00000210: a02b 333d 9c75 dfbc d6b8 843e d803 37bd
00000220: ac1e 0dbd 52cd d23d f25a 873d aa62 cbbd
00000230: 6454 b1bd a8f2 463d 0950 b4bb 25f3 89bd
00000240: d514 ccbd c96f 1d3e e459 e33d 9df7 723e
00000250: bbde 063d 6eb6 a13d dc6e 0cbd ceba 523d
00000260: cd95 22bc c23f 21bd b03c 71bc 9add 293d
00000270: 209c a43d b058 36bd 147b 083c f942 b8bd
00000280: 6300 c8bd 3023 2ebe 25d6 2c3e 439c 873d
00000290: a9cd 2ebe 3bc4 713d b099 04be 113d 57be
000002a0: 6739 59be f56c 303e c7f0 1c3e c395 4b3d
000002b0: bc35 523e 8133 973c 9cba dbbd 6e04 483d
000002c0: 3ec0 503e 6756 ebbd 9d3f 50be faba 81bd
000002d0: 90d8 06be 2a89 0a3e a582 3abc 0a4f babb
000002e0: 54ca 1b3e 640d 303e b6f0 e7bd f388 8d3d
000002f0: c26c c63d c1a6 543c 04dd 193e 84c6 b33d
00000300: 0c62 e9bd 6015 903c a6e2 c33d 48c1 e0bd
00000310: 224d 8bbd f076 ddbc dc57 7abd dcc8 84bd
00000320: d002 46bc 4898 dabc 4007 743b 02ae fa3d
00000330: c831 d9bd c4c9 703d ac97 01bd 6c5a 793d
00000340: a0a7 f43d b07b 333c e8dd 973d 6475 25bd
00000350: 4c5c 523d 6058 53bc b83a bb3c 0065 1dbb
00000360: 76b1 dcbd 10a0 9abd b893 583d ea52 efbd
00000370: 18e8 8abd 885d f73d 9042 f63c 28f7 cebd
00000380: 80e9 0bbd c0da 013b 1853 c13d 808b 06bd
00000390: 8870 de3c b47d 60bd 98cb ffbc 0628 85bd
000003a0: 8434 e1bd a0cd 18bc 0020 5f3c 588c 863d
000003b0: 30b6 833c 80e1 64bb 743d 82bd e054 493c
000003c0: 0c84 8dbd b02b 773d 022f f6bd 9855 28bd
000003d0: d067 f73c c06c d23b d2ba 823d b033 4ebd
000003e0: 4ad1 b63d 86cf bbbd 200f 1e3c 606e 38bd
000003f0: b49e 0bbd 326f ec3d 08cb d8bc 8496 a33d

enc.0.bias f4 [32]
-0.038110137 -0.124471374 0.112650126 -0.07446177 0.10586125 0.08807535 -0.12966427 0.11990604
0.12022515 -0.009521142 -0.10968678 -0.1229122 0.015074076 -0.05964297 0.042303074 -0.043034546
-0.03969836 0.02431628 0.0055728457 -0.028963724 -0.026882615 0.03058927 0.048114195 0.113289736
-0.06830657 0.14362355 -0.016258463 -0.0500617 0.056502853 0.010348101 -0.053109236 0.01597821
00000000: 6019 1cbd d9ea febd 1cb5 e63d 6a7f 98bd
00000010: c8cd d83d d960 b43d b6c6 04be 4c91 f53d
00000020: 9a38 f63d 90fe 1bbc 76a3 e0bd 64b9 fbbd
00000030: 42f9 763c 304c 74bd fd45 2d3d fe44 30bd
00000040: bf9a 22bd ef32 c73c 6b9c b63b 5545 edbc
00000050: ee38 dcbc 5996 fa3c 6413 453d 7304 e83d
00000060: 51e4 8bbd 0d12 133e 7830 85bc 7f0d 4dbd
00000070: 896f 673d 158b 293c 1289 59bd bce4 823c

enc.2.weight f4 [32, 32]
0.0737694 -0.094210744 0.40024757 -0.06857347 -0.033640526 -0.014318751 -0.026148375 0.07362666
-0.044784144 0.17197514 -0.09274117 -0.13187987 0.1491589 -0.119466774 -0.13152361 -0.08102558
-0.17596433 0.0006640986 0.08845105 -0.009266231 0.12847646 -0.06462943 -0.023556659 -0.04214901
-0.100691535 0.110314704 0.024681421 -0.08099515 0.061176162 0.1306351 -0.004921198 0.1380437
-0.021667765 0.1584459 0.057851266 -0.009138785 0.07369372 -0.17825325 -0.045745976 -0.06861304
-0.04370031 0.08651568 -0.110422805 0.16946697 -0.107719034 0.050605275 0.104935646 0.07840509
0.0097556515 0.048718028 -0.12713353 -0.089940116 0.1510122 -0.18719287 -0.023754973 -0.11506814
0.04077652 0.13144259 0.122740686 0.11468481 0.043178774 0.07862478 -0.013790027 0.007403655
-1.9240037e-05 0.14225484 -0.033735074 0.039756596 0.000930202 0.07411727 -0.16155787 -0.11100409
0.1605186 -0.10221258 -0.08448243 -0.033484615 -0.12784618 -0.08135762 0.015161612 -0.14299646
0.09414276 -0.025313355 0.0145051535 -0.11204082 -0.08235922 0.0003841053 0.121014684 -0.090233855
0.09513165 -0.00065072626 0.027789608 0.04911979 0.012269832 -0.116633095 -0.00028151987 0.08122947
-0.0056260685 0.1199874 0.15174167 -0.032617908 -0.026093084 -0.079474285 0.08358199 -0.06476
-0.17390603 -0.16178793 -0.06693343 -0.13910285 -0.065143555 0.105950214 0.026047308 0.07340118
-0.01765133 0.15417828 -0.03459745 0.18916626 0.14775945 0.119130716 -0.106031775 -0.13279887
-0.08492438 0.12764725 -0.036873437 0.039921205 0.052648395 0.10962699 0.14246288 -0.064240694
0.025160277 0.13930064 0.1761233 -0.14561968 0.16126096 0.14872248 0.13168408 -0.12416377
-0.11088389 0.13015015 -0.17671825 -0.06888095 -0.1300112 -0.060129244 -0.08433287 -0.15062295
0.0691289 -0.056752227 -0.013920893 -0.02289166 0.024796592 -0.11687053 0.12968197 0.07887833
0.09895458 -0.17463838 -0.06568359 -0.02021327 -0.03467042 0.109718546 -0.066002004 -0.08484188
0.087337896 0.0074709943 0.45777783 0.14282034 -0.04554864 0.034426216 -0.012335726 0.016198501
-0.053543605 0.04314678 -0.10311106 0.04917993 0.0360595 -0.040511683 0.056347974 -0.046448905
-0.06062501 0.05458404 -0.070338964 0.09654894 -0.08754897 -0.09908644 -0.114052325 -0.054763865
0.021182245 0.11624449 0.07761646 -0.16346425 0.17826864 0.02166855 -0.073087 -0.11554479
0.06958633 0.11367887 -0.011833688 0.17507851 -0.009777929 0.033699144 -0.08511058 0.11956674
0.108099625 0.051089376 -0.040574245 0.046546124 0.090874046 0.033971682 -0.046906162 0.041792348
0.122826084 -0.11027914 -0.07642001 -0.1897517 -0.12535448 0.09567722 0.11696534 -0.01995105
0.12916048 0.18213552 -0.033256818 0.15574762 -0.16490047 -0.00087621884 0.04847655 -0.050368264
0.0081306705 -0.14003599 0.20523027 -0.027260097 0.11063603 -0.044196304 0.034831632 0.05351636
0.05532996 0.10089203 -0.15493049 0.114035524 -0.10032041 -0.024861766 0.061744153 -0.09332286
0.14803992 0.14802325 -0.077674285 0.06729309 0.13724741 -0.047603246 0.06931736 -0.028665338
-0.13676152 -0.12027769 0.03123238 0.106394835 -0.010700934 0.12611458 -0.09512547 -0.1461797
00000000: 6914 973d 90f1 c0bd 40ed cc3e 3f70 8cbd
00000010: a6ca 09bd 3299 6abc 1e35 d6bc 93c9 963d
00000020: 946f 37bd 401a 303e 15ef bdbd 840b 07be
00000030: 1cbd 183e ffaa f4bd 20ae 06be bdf0 a5bd
00000040: fe2f 34be e716 2e3a d325 b53d 64d1 17bc
00000050: 558f 033e 6f5c 84bd e5f9 c0bc 71a4 2cbd
00000060: 5d37 cebd adec e13d b130 ca3c c9e0 a5bd
00000070: db93 7a3d 35c5 053e 0042 a1bb 545b 0d3e
00000080: 9980 b1bc a43f 223e 73f5 6c3d d8ba 15bc
00000090: bcec 963d 0588 36be 2260 3bbd fe84 8cbd
000000a0: 19ff 32bd 222f b13d 5a25 e2bd c088 2d3e
000000b0: cc9b dcbd 7a47 4f3d 80e8 d63d d992 a03d
000000c0: 2bd6 1f3c 8e8c 473d 4b2f 02be 8632 b8bd
000000d0: f1a2 1a3e 7daf 3fbe ca99 c2bc d8a8 ebbd
000000e0: 4805 273d e398 063e 785f fb3d dfdf ea3d
000000f0: 3adc 303d 0706 a13d 91ef 61bc 5c9a f23b
00000100: aa65 a1b7 41ab 113e ca2d 0abd d0d7 223d
00000110: cdd8 733a ccca 973d 6d6f 25be 1d56 e3bd
00000120: fd5e 243e d454 d1bd 2005 adbd 2a27 09bd
00000130: 1cea 02be d39e a6bd 6968 783c aa6d 12be
00000140: ebcd c03d f45d cfbc 06a7 6d3c a875 e5bd
00000150: f3ab a8bd be61 c939 8cd6 f73d 87cc b8bd
00000160: 62d4 c23d 8095 2aba 08a7 e33c d531 493d
00000170: 6807 493c 55dd eebd f598 93b9 a35b a63d
00000180: e25a b8bb f4bb f53d 2b62 1b3e 5b9a 05bd
00000190: 2ac1 d5bc 6ac3 a2bd 092d ab3d e4a0 84bd
000001a0: 6c14 32be bcab 25be 6514 89bd fa70 0ebe
000001b0: fc69 85bd 6dfc d83d 2a61 d53c 5c53 963d
000001c0: 8699 90bc e9e0 1d3e 0eb6 0dbd cdb4 413e
000001d0: 414e 173e cefa f33d 3027 d9bd 6dfc 07be
000001e0: d5ec adbd f6b5 023e 9a08 17bd 6b84 233d
000001f0: d8a5 573d 1e84 e03d cae1 113e a090 83bd
00000200: ed1c ce3c d4a4 0e3e ab59 343e 531d 15be
00000210: 9821 253e b54a 183e 31d8 063e 9349 febd
00000220: 1817 e3bd 1546 053e a1f5 34be 7511 8dbd
00000230: a821 05be 154a 76bd b6b6 acbd e73c 1abe
00000240: 7493 8d3d 0675 68bd 7514 64bc 4a87 bbbc
00000250: 3922 cb3c d159 efbd 5acb 043e f68a a13d
00000260: b3a8 ca3d 67d4 32be 1e85 86bd 4d96 a5bc
00000270: 9202 0ebd 1eb4 e03d 0f2c 87bd 94c1 adbd
00000280: 36de b23d 3ecf f43b db61 ea3e 7f3f 123e
00000290: 3691 3abd 8102 0d3d c91b 4abc b8b2 843c
000002a0: 8a50 5bbd aeba 303d e42b d3bd e570 493d
000002b0: 20b3 133d 94ef 25bd 22cd 663d 3541 3ebd
000002c0: ee51 78bd 8493 5f3d e00d 90bd 73bb c53d
000002d0: e04c b3bd d5ed cabd 4494 e9bd 1350 60bd
000002e0: 6386 ad3c 9711 ee3d 61f5 9e3d 2c63 27be
000002f0: 0e8c 363e 3e82 b13c a3ae 95bd bfa2 ecbd
00000300: 4783 8e3d 78d0 e83d 16e2 41bc c847 333e
00000310: 9b33 20bc 1d08 0a3d 754e aebd 68df f43d
00000320: 5663 dd3d 1843 513d 2e31 26bd 26a7 3e3d
00000330: 2c1c ba3d e425 0b3d ad20 40bd 742e 2b3d
00000340: 3e8c fb3d 08da e1bd 1882 9cbd 454e 42be
00000350: ed5c 00be 6bf2 c33d 868b ef3d 6270 a3bc
00000360: a542 043e bc81 3a3e 4d38 08bd 4e7c 1f3e
00000370: abdb 28be 0db2 65ba 598f 463d f44e 4ebd
00000380: 8136 053c 9865 0fbe e227 523e 9150 dfbc
00000390: 2595 e23d 2f07 35bd 9dab 0e3d f933 5b3d
000003a0: aba1 623d 7ba0 ce3d 19a6 1ebe 758b e93d
000003b0: ca74 cdbd e7aa cbbc 70e7 7c3d 0e20 bfbd
000003c0: c797 173e 6893 173e b213 9fbd f6d0 893d
000003d0: 968a 0c3e 9ffb 42bd 43f6 8d3d 92d3 eabc
000003e0: 360b 0cbe 2654 f6bd 0cdb ff3c 89e5 d93d
000003f0: f852 2fbc 2e24 013e 24d1 c2bd 22b0 15be

enc.2.bias f4 [32]
0.0031900252 0.056503158 -0.08234596 -0.0059786295 -0.16025786 0.07926768 0.15769006 0.16818197
-0.16028872 -0.11420965 0.05449115 -0.09360006 -0.10895795 -0.00821962 -0.12083623 -0.012672954
-0.05773798 0.16253191 -0.03904859 0.13071463 -0.11972579 0.07086346 -0.08191621 0.12411376
0.11371072 0.10470917 -0.010992975 -0.08525513 0.06817424 -0.0847497 -0.09512093 0.057395544
00000000: be0f 513b db6f 673d 00a5 a8bd 61e8 c3bb
00000010: a31a 24be 1857 a23d 8179 213e e537 2c3e
00000020: ba22 24be c0e6 e9bd 1d32 5f3d 63b1 bfbd
00000030: 5825 dfbd 96ab 06bc fc78 f7bd 39a2 4fbc
00000040: a97e 6cbd c46e 263e 6af1 1fbd 0eda 053e
00000050: cc32 f5bd dd20 913d b0c3 a7bd 5b2f fe3d
00000060: 2ae1 e83d c371 d63d e11b 34bc 3e9a aebd
00000070: f09e 8b3d 4091 adbd c3ce c2bd 9717 6b3d

enc_mean.weight f4 [12, 32]
0.05699544 -0.13297299 -0.14582302 -0.03101182 -0.004128284 0.048220072 0.034261 0.013046843
-0.16097336 0.15435965 -0.07160599 0.02608443 0.12573737 -0.07812339 -0.063387424 -0.11700152
0.032550875 -0.082925305 -0.12212033 -0.0230806 -0.16632202 -0.014870379 0.112569995 -0.068647295
0.029900622 -0.0054110326 0.02284643 0.04562711 -0.031647086 -0.028370287 -0.049413543 0.02136206
0.047658682 0.09827982 -0.118311346 -0.03617397 -0.025364416 0.1281172 -0.13732633 -0.18147235
0.11316985 0.045351714 -0.03688703 -0.09412278 -0.028104741 -0.11063215 0.064522594 0.09776116
0.08578392 -0.10754876 0.10700219 -0.11829784 -0.0771261 0.07240895 0.03653122 0.06459299
0.047222894 0.034970585 0.014746494 0.121107504 0.023242198 0.05706369 -0.013205703 -0.04632651
-0.17828941 0.05209896 -0.104497015 -0.10869262 -0.04084295 0.14866108 0.07176449 0.002540322
-0.15530755 -0.062096298 0.13988018 -0.06895875 0.009089537 0.06435629 0.04119979 -0.12856008
0.055575572 0.08325089 -0.05936986 -0.1499325 -0.09262042 -0.050750334 -0.101896875 -0.015666667
0.015599999 -0.050794497 0.098063365 0.06560979 0.11987013 0.07451719 0.0799035 0.079908594
0.09088836 0.13926728 0.07355967 0.049613554 -0.07681254 0.012736084 0.029291043 -0.16404647
-0.12347564 0.17274015 -0.1039653 -0.06290124 -0.13360348 -0.028162612 -0.06508536 -0.13982211
-0.0007222073 -0.07852698 0.09416793 -0.14836071 0.035822988 -0.057092596 -0.040299993 0.14852993
-0.11808841 0.036710277 0.08648968 0.069333136 0.20973715 0.122471064 0.1031227 0.051479343
0.10072805 -0.07174906 -0.116403505 0.024638997 -0.04045674 -0.068276405 0.06260711 0.11645549
0.16231278 0.16057031 0.0016744806 0.15401767 -0.04993074 -0.030291298 0.0055495906 -0.099046215
-0.16927731 0.122093834 -0.086466156 0.089263774 0.0034637754 -0.038728237 -0.011380176 0.09134935
-0.01818389 0.07214748 -0.03131422 -0.12491457 -0.11544625 0.11009512 -0.0010084279 0.04294505
-0.1486819 0.0081683975 0.013619016 -0.029189967 0.09677709 -0.038839392 0.09522069 0.21322253
0.15159403 0.12778707 -0.05600517 0.16370484 -0.17294088 -0.07775243 -0.097232476 0.1627747
0.09214669 0.21195793 -0.0012151691 0.10021905 0.16809835 -0.0019273072 0.15382579 0.078338794
-0.010847593 -0.12005024 0.19586644 -0.090045914 0.19538364 -0.03258071 -0.18451267 0.037827395
-0.096173525 -0.011205065 0.04326317 0.020526135 0.1741464 0.05387828 0.034370903 0.15226585
-0.08375175 0.14041667 -0.018497111 -0.02382359 -0.10632828 0.13700889 0.02729018 0.042538796
-0.057831965 0.1804918 0.072887026 0.07860141 -0.13106188 0.01242322 0.14899705 -0.0025305029
-0.044973917 0.15023145 -0.112528965 -0.13227282 -0.015466807 0.16263443 0.026417518 -0.10734511
-0.05133102 0.1270514 0.15379435 -0.04179016 0.13704813 0.04208834 0.02707956 0.07015535
-0.16065434 -0.14197429 -0.028287435 0.124262854 0.12031863 0.09021083 -0.06718583 0.10633116
0.049214706 0.07133474 -0.10459876 -0.043749686 -0.09240222 -0.06944635 -0.076603115 -0.0061826534
-0.04797804 0.04619065 -0.054294374 -0.049372967 -0.0124243125 -0.010193821 0.110285796 -0.18091777
00000000: 0d74 693d 122a 08be a152 15be 800c febc
00000010: 8e46 87bb 6982 453d 4355 0c3d 6dc2 553c
00000020: 33d6 24be 7510 1e3e 29a6 92bd 04af d53c
00000030: 4cc1 003e 28ff 9fbd 44d1 81bd 7e9e efbd
00000040: 1154 053d bed4 a9bd 391a fabd 8713 bdbc
00000050: 5250 2abe e4a2 73bc 198b e63d f496 8cbd
00000060: 26f2 f43c 084f b1bb 7028 bb3c 7ee3 3a3d
00000070: 60a0 01bd ce68 e8bc db65 4abd 7dff ae3c
00000080: c035 433d ee46 c93d 384d f2bd 282b 14bd
00000090: 09c9 cfbc 2831 033e 469f 0cbe e3d3 39be
000000a0: 98c5 e73d b8c2 393d db16 17bd 72c3 c0bd
000000b0: ea3b e6bc 1c93 e2bd 6c24 843d 0137 c83d
000000c0: 7baf af3d 8642 dcbd f723 db3d 2346 f2bd
000000d0: 4af4 9dbd 254b 943d c3a1 153d 5449 843d
000000e0: cb6c 413d 513d 0f3d 479b 713c 3607 f83d
000000f0: 6c66 be3c 9ebb 693d bc5c 58bc dec0 3dbd
00000100: 8091 36be b865 553d 8802 d6bd 3d9a debd
00000110: f04a 27bd 9c3a 183e 43f9 923d 887b 263b
00000120: f108 1fbe b058 7ebd c03c 0f3e 3f3a 8dbd
00000130: 48ec 143c 3bcd 833d 1cc1 283d 41a5 03be
00000140: 36a3 633d 717f aa3d cf2d 73bd e887 19be
00000150: c6af bdbd 95df 4fbd 4faf d0bd 6257 80bc
00000160: 2397 7f3c e40d 50bd 72d5 c83d 6d5e 863d
00000170: 797e f53d 789c 983d 72a4 a33d 1ea7 a33d
00000180: ad23 ba3d 159c 0e3e 74a6 963d 9537 4b3d
00000190: e54f 9dbd 02ab 503c c5f3 ef3c ccfb 27be
000001a0: cce0 fcbd cbe2 303e c2eb d4bd 5ed2 80bd
000001b0: 5acf 08be 47b5 e6bc 794b 85bd 872d 0fbe
000001c0: 8352 3dba c1d2 a0bd 1edb c03d dfeb 17be
000001d0: 20bb 123d edd9 69bd 9b11 25bd 3b18 183e
000001e0: 56d8 f1bd 845d 163d 8021 b13d 88fe 8d3d
000001f0: 56c5 563e 1cd2 fa3d fe31 d33d 01dc 523d
00000200: 824a ce3d 2cf1 92bd f664 eebd b9d7 c93c
00000210: f7b5 25bd 80d4 8bbd 2838 803d 3780 ee3d
00000220: 5235 263e 8b6c 243e 3f7a db3a cfb6 1d3e
00000230: 2d84 4cbd 7525 f8bc 57d9 b53b bed8 cabd
00000240: 0857 2dbe 550c fa3d 2b15 b1bd edcf b63d
00000250: 8200 633b 80a1 1ebd eb73 3abc 5e15 bb3d
00000260: 62f6 94bc 0fc2 933d 5743 00bd 36d3 ffbd
00000270: 156f ecbd 8d79 e13d 3a2d 84ba 26e7 2f3d
00000280: 1140 18be bed4 053c 4b22 5f3c cc1f efbc
00000290: 1133 c63d 0e16 1fbd 1103 c33d 0257 5a3e
000002a0: 773b 1b3e 9dda 023e ad65 65bd 3ea2 273e
000002b0: 6a17 31be ab3c 9fbd d221 c7bd 69ae 263e
000002c0: 67b7 bc3d 800b 593e 4f46 9fba a53f cd3d
000002d0: f921 2c3e b39d fcba 8284 1d3e 1770 a03d
000002e0: 1aba 31bc e6dc f5bd 3691 483e fe69 b8bd
000002f0: a612 483e 5a73 05bd e4f0 3cbe e6f0 1a3d
00000300: a0f6 c4bd 7395 37bc b934 313d 6d26 a83c
00000310: 6f53 323e 79af 5c3d 81c8 0c3d 94eb 1b3e
00000320: 0a86 abbd 63c9 0f3e 4187 97bc b029 c3bc
00000330: a4c2 d9bd 0f4c 0c3e a88f df3c 293d 2e3d
00000340: 36e1 6cbd d8d2 383e cb45 953d c7f9 a03d
00000350: 1635 06be c38a 4b3c af92 183e cbd6 25bb
00000360: 9236 38bd 46d6 193e 9675 e6bd 8772 07be
00000370: 7e68 7dbc a489 263e 8d69 d83c c1d7 dbbd
00000380: 7a40 52bd c319 023e 447c 1d3e 292c 2bbd
00000390: 5856 0c3e d364 2c3d f4d5 dd3c 9cad 8f3d
000003a0: 9282 24be b561 11be 0dbb e7bc 867d fe3d
000003b0: 9d69 f63d 75c0 b83d b998 89bd 27c4 d93d
000003c0: 5c95 493d f317 923d e037 d6bd df32 33bd
000003d0: 603d bdbd e339 8ebd 18e2 9cbd db97 cabb
000003e0: 9f84 44bd 6832 3d3d c763 5ebd 4f3b 4abd
000003f0: 588f 4bbc fc03 27bc 85dd e13d 8242 39be

enc_mean.bias f4 [12]
-0.05032368 0.036036644 -0.011601301 0.15465002 0.06914918 -0.11940457 -0.16408078 0.14305693
0.009844746 -0.12628771 0.04645592 0.03996741
00000000: 3420 4ebd 299b 133d 6213 3ebc 935c 1e3e
00000010: 169e 8d3d 628a f4bd cb04 28be 847d 123e
00000020: dc4b 213c 9151 01be 9048 3e3d deb4 233d

enc_std.0.weight f4 [12, 32]
-0.047802757 0.06906652 0.12306757 0.07560041 0.08657342 -0.09302567 -0.088880815 -0.15208063
0.14740196 -0.047131155 -0.018089622 -0.13460553 -0.05484763 -0.08408732 -0.11812751 0.13690129
0.0055204993 0.19430695 -0.10539564 0.09194008 -0.16057034 -0.06978068 0.070191085 -0.12631619
-0.06307316 -0.06920256 -0.00066440104 -0.072068945 -0.038092572 0.13022198 0.18293186 0.13083328
0.14483564 -0.01011232 -0.10669934 -0.09631401 0.16903944 -0.020534705 -0.05078637 0.07841123
0.04132214 -0.069822975 -0.10977216 0.022592228 0.0716574 -0.09433129 -0.10971682 0.08354931
0.14253756 0.15233961 0.090615734 0.13993764 0.15435976 -0.03631626 -0.15702912 0.05969018
0.15404372 0.16041645 -0.027087307 0.020591673 0.04468618 -0.1413245 -0.08360799 0.008451954
0.09233321 -0.0866456 -0.105831385 -0.021651486 0.0015937198 -0.18740252 -0.15765935 0.048759807
-0.0019043632 -0.12351151 0.03968103 0.170355 0.02902588 -0.009497086 -0.088397466 0.13916764
0.16585489 0.07314178 0.080781356 -0.06459295 -0.09384767 -0.109081686 -0.013202269 0.037131373
-0.057186607 0.050697517 0.022902856 0.063562825 0.019792113 0.07991658 -0.07074002 0.06647017
0.0058787907 -0.0055567846 -0.14940645 -0.1084957 0.042766534 0.09952824 -0.056562867 0.14364971
-0.04920086 0.059509367 -0.13581274 0.062721506 -0.1527721 0.1332489 -0.08066944 0.04686248
-0.1756099 -0.14797461 -0.036938325 -0.06437976 -0.034687363 -0.002883954 0.15195547 0.107026175
0.050906237 0.19168049 -0.012062176 0.14323823 0.054467008 -0.13748771 -0.18326986 0.12992208
0.15918323 -0.035326142 0.08514361 0.09655503 0.10134167 0.104692206 0.10311372 0.064516775
0.015285081 0.12382447 -0.08186098 -0.013541761 0.009524281 0.10055877 -0.008360124 0.14554533
0.11755188 -0.10071408 -0.120142296 0.091572754 0.097085856 -0.004514599 0.14554036 0.06693201
0.0822357 0.1728502 -0.069098555 0.031285517 0.12976193 -0.054270517 -0.14680105 0.19364822
-0.12056078 -0.060266983 -0.06748777 -0.0075460933 0.1206628 0.04572504 -0.13183619 -0.05653442
-0.1587507 -0.054900568 -0.017416345 -0.1756668 -0.10968871 -0.13185604 -0.11928834 -0.005628321
-0.011267264 0.0287441 -0.15939523 0.040558614 0.031493433 0.106098115 -0.023438305 0.16966279
-0.11921889 -0.124576785 -0.025187986 0.112861425 0.084893495 -0.04568171 -0.16046979 0.009075327
0.044788618 0.104144916 0.16836503 0.018059248 0.010230136 0.20894347 0.11053691 -0.108877316
0.17457499 0.11867941 0.06551632 0.029761069 0.09584821 -0.029238028 -0.21700616 -0.05235593
0.047167633 -0.052636784 -0.043123856 0.07786064 0.02578443 0.22505015 -0.07602172 -0.09114894
0.005914516 0.11771447 0.04517572 0.12336279 -0.09046146 -0.032253664 0.1231398 -0.0951975
-0.11190402 0.04237297 0.11298118 -0.03514858 -0.12187979 0.09173976 -0.008680558 -0.0012569334
0.043760523 -0.061443992 -0.05849406 -0.058653135 0.11056739 -0.06964196 0.029062219 0.07947314
-0.041083947 -0.037462328 0.031203117 -0.05961857 -0.12289751 0.12623253 0.103390224 -0.025740102
0.09818019 -0.05401778 0.08357541 -0.09564615 -0.08347675 -0.1327482 0.07526331 0.035322264
00000000: d3cc 43bd bf72 8d3d da0a fc3d 63d4 9a3d
00000010: 684d b13d 3e84 bebd 2507 b6bd 06bb 1bbe
00000020: 8af0 163e 990c 41bd b030 94bc 08d6 09be
00000030: e9a7 60bd f935 acbd d6ec f1bd da2f 0c3e
00000040: 4ee5 b43b 67f8 463e abd9 d7bd 154b bc3d
00000050: 8d6c 24be 2ce9 8ebd 58c0 8f3d 0859 01be
00000060: 802c 81bd 12ba 8dbd 332b 2eba e298 93bd
00000070: f506 1cbd e958 053e 7d52 3b3e 29f9 053e
00000080: cb4f 143e 25ae 25bc 2f85 dabd 4840 c5bd
00000090: ad18 2d3e 6638 a8bc 5e05 50bd 1196 a03d
000000a0: 6741 293d 59ff 8ebd 3ad0 e0bd 5613 b93c
000000b0: 1dc1 923d c330 c1bd 36b3 e0bd e71b ab3d
000000c0: 5ef5 113e eafe 1b3e be94 b93d d04b 0f3e
000000d0: 7c10 1e3e 5cc0 14bd 3ecc 20be b17d 743d
000000e0: a3bd 1d3e 3644 243e 33e6 ddbc deaf a83c
000000f0: db08 373d 5fb7 10be aa3a abbd 117a 0a3c
00000100: 3219 bd3d 4073 b1bd 20be d8bd 755e b1bc
00000110: 5de4 d03a 72e6 3fbe 7471 21be 5db8 473d
00000120: d39b f9ba 9af3 fcbd 9388 223d 8b71 2e3e
00000130: afc7 ed3c aa99 1bbc bb09 b5bd f681 0e3e
00000140: ddd5 293e 5ccb 953d b270 a53d 4f49 84bd
00000150: 3533 c0bd 3866 dfbd 544e 58bc 1117 183d
00000160: 813c 6abd 33a8 4f3d c59e bb3c 3a2d 823d
00000170: 1223 a23c 4eab a33d 25e0 90bd 8321 883d
00000180: dfa2 c03b b015 b6bb 01fe 18be fe32 debd
00000190: f62b 2f3d 76d5 cb3d 77ae 67bd e918 133e
000001a0: d786 49bd 18c0 733d 7f12 0bbe 2274 803d
000001b0: 4a70 1cbe 6672 083e 0536 a5bd dff2 3f3d
000001c0: 15d3 33be a886 17be a44c 17bd 89d9 83bd
000001d0: 5614 0ebd b800 3dbb 379a 1b3e 8a30 db3d
000001e0: 0f83 503d e447 443e 6fa0 45bc 0bad 123e
000001f0: cc18 5f3d 94c9 0cbe 18ab 3bbe 4b0a 053e
00000200: ee00 233e 25b2 10bd c65f ae3d a5be c53d
00000210: 398c cf3d de68 d63d 492d d33d 5f21 843d
00000220: 476e 7a3c af97 fd3d bba6 a7bd 43de 5dbc
00000230: bb0b 1c3c c2f1 cd3d e7f8 08bc d609 153e
00000240: 0abf f03d 2f43 cebd 2a0d f6bd 7f8a bb3d
00000250: f3d4 c63d 34ef 93bb 8808 153e a613 893d
00000260: 316b a83d a5ff 303e 8b83 8dbd 3e25 003d
00000270: 50e0 043e c34a 5ebd 0453 16be b84b 463e
00000280: 92e8 f6bd 83da 76bd 0737 8abd 3845 f7bb
00000290: 0f1e f73d 2e4a 3b3d 1100 07be a390 67bd
000002a0: 8b8f 22be 6bdf 60bd b9ac 8ebc ffe1 33be
000002b0: 79a4 e0bd 4505 07be 724d f4bd c76d b8bb
000002c0: 559a 38bc bf78 eb3c 8138 23be ca20 263d
000002d0: 42ff 003d f849 d93d b001 c0bc 15bc 2d3e
000002e0: 0929 f4bd 1d22 ffbd 0957 cebc e423 e73d
000002f0: a4dc ad3d bf1c 3bbd 3152 24be aeb0 143c
00000300: 4574 373d ee49 d53d e267 2c3e fdf0 933c
00000310: 4d9c 273c 47f5 553e 2d61 e23d 12fb debd
00000320: c9c3 323e 310e f33d 6c2d 863d 7ccd f33c
00000330: 114c c43d 9784 efbc dd36 5ebe 2c73 56bd
00000340: d932 413d ab99 57bd a4a2 30bd 6675 9f3d
00000350: de39 d33c 8c73 663e 47b1 9bbd 4cac babd
00000360: 8ece c13b 4914 f13d 2d0a 393d a1a5 fc3d
00000370: dc43 b9bd 6b1c 04bd b830 fc3d e8f6 c2bd
00000380: ef2d e5bd 488f 2d3d ad62 e73d f5f7 0fbd
00000390: 1d9c f9bd 0ee2 bb3d e638 0ebc b0bf a4ba
000003a0: 3c3e 333d b2ac 7bbd 7897 6fbd 453e 70bd
000003b0: 2871 e23d 72a0 8ebd e413 ee3c d0c2 a23d
000003c0: a447 28bd 1972 19bd ae9d ff3c 9a32 74bd
000003d0: b1b1 fbbd 1a43 013e 41be d33d e8dc d2bc
000003e0: b212 c93d bf41 5dbd 9629 ab3d 21e2 c3bd
000003f0: dcf5 aabd 25ef 07be a623 9a3d 14ae 103d

enc_std.0.bias f4 [12]
0.080400646 -0.10841468 0.061111644 -0.068332314 -0.07849826 0.1151482 -0.09579287 0.06420486
0.06643529 0.036195923 -0.11238928 0.0042711743
00000000: 18a9 a43d 8408 debd 3450 7a3d d0f1 8bbd
00000010: b2c3 a0bd d2d2 eb3d 0d2f c4bd d67d 833d
00000020: 3a0f 883d 2d42 143d 5a2c e6bd 35f5 8b3b
