varRNN/VariationalRNN/VariationalRecurrentNeuralNetwork-master/saves/vrnn_state_dict_31.pth (torch, 92942 bytes, 30 tensors)

phi_x.0.weight f4 [32, 12]
000000 65 eb 6e 3e c9 a5 89 bd 42 06 89 bd 54 c9 89 be
       0.23331983 -0.06721074 -0.06690647 -0.26911414
000010 7c 6e 79 3d 1f 03 b8 bd f7 50 87 3d 65 b5 79 3e
       0.06089638 -0.0898497 0.0660724 0.24385603
000020 42 ca 57 be 83 7c 2a 3e 75 ca 1b be 65 06 36 be
       -0.21073249 0.1664906 -0.1521395 -0.17775877
000030 96 46 ab bd aa da 95 bd 14 24 89 3e 76 ee 76 3d
       -0.083630726 -0.073170975 0.26785338 0.060286008
000040 58 e7 a8 bc ea be 68 3e 7c c2 27 bc 20 1b 0d 3e
       -0.020618126 0.22729078 -0.01023924 0.13779879
000050 8c 46 6c be aa 97 90 be 9f 35 91 be d4 32 88 3e
       -0.23073786 -0.2824071 -0.28361222 0.2660128
000060 14 3d 54 be bc 35 11 3e c1 40 ca bd cc e7 a4 3d
       -0.20726424 0.14180654 -0.09875632 0.08052024
000070 fe 1f 01 3e 68 fa 3b be 9e e2 8b bd bf 1f 8a be
       0.1260986 -0.18357241 -0.06830333 -0.26977345
000080 e6 4d 71 be 78 40 1d bc 01 88 e7 bc d7 e7 07 3e
       -0.23564872 -0.00959789 -0.028263094 0.13272034
000090 aa 0b 58 be 4e c6 1c 3e 74 cf 5a 3e 70 31 65 be
       -0.210982 0.15310022 0.213682 -0.2238214
0000a0 f0 09 93 bd ef 17 28 3c ab 26 5e be b9 46 62 be
       -0.0717963 0.010259612 -0.21694438 -0.22097291
0000b0 0c 9f 06 3d 95 ca 69 be c9 5d 80 3e cc 8d 0d be
       0.032866523 -0.22831185 0.25071552 -0.13823622
0000c0 d9 8f 14 3c d0 99 65 3e bf 1d a6 bd 61 98 58 3e
       0.009067499 0.22421956 -0.08111142 0.21151878
0000d0 01 9b 2e 3d b2 41 96 3e cd bc 93 3e b0 bb 07 bb
       0.042628292 0.29346997 0.2885498 -0.0020711236
0000e0 c8 08 81 bd f0 04 47 3e e5 8a 0d be e3 5c 14 3e
       -0.06300503 0.19435477 -0.13822515 0.14488558
0000f0 bf 07 ef 3a 01 d8 75 bd e8 c2 dd 3d 87 2c 7d 3e
       0.0018236561 -0.06002045 0.10828191 0.24724017
000100 42 18 48 be 45 6e 1a 3e 48 5b e6 3e 0b 9e 66 be
       -0.19540504 0.15081127 0.44991517 -0.22521226
000110 33 3c 85 bd 26 42 86 3e e9 a6 7c be 56 4e 42 3e
       -0.06505623 0.26222342 -0.24673046 0.18975195
000120 ab 3f e6 bd 97 ee bf 3d 80 b4 11 be 7f ef 89 be
       -0.112426125 0.09371679 -0.14229012 -0.26940534
000130 9c ac 4f 3c cf 26 c5 3d 71 ae 92 be a2 af 9f 3e
       0.012675431 0.09626543 -0.28648713 0.31188685
000140 f9 36 42 3e 35 0f 44 3d 78 fd 8c 3e e6 41 50 3d
       0.18966283 0.047866065 0.2753713 0.050844096
000150 dd 12 78 be f5 cf e0 bd 99 c6 a2 3c 74 c1 8a 3d
       -0.24225946 -0.10977165 0.01987009 0.067751795
000160 25 83 0f 3e d9 f8 84 bd 18 1f 79 3e bc 7a 04 3d
       0.14014871 -0.064927764 0.24328268 0.03234361
000170 63 27 0c 3d c7 94 1b 3e 0d ae 05 3e 9e b7 38 bc
       0.03421725 0.15193473 0.13054676 -0.0112742465
000180 91 6e aa 3d 2f 53 ea bd f9 00 0d 3e 77 a4 80 3e
       0.0832187 -0.11441647 0.13769902 0.25125477
000190 12 e2 c7 bd a9 4d 78 3e 0e e0 56 3e b8 b6 57 bc
       -0.09759916 0.24248375 0.20983908 -0.013166122
0001a0 8f fb fd bd 75 b5 d9 bd 85 b8 7f 3d 67 20 cf bd
       -0.124014966 -0.10630313 0.06243183 -0.10113602
0001b0 40 94 b6 bd 8d 66 68 3e 14 fe fa bd 24 31 ef 3d
       -0.08914995 0.2269537 -0.12255493 0.11679295
0001c0 c7 8f 53 3d dc 8a 70 3e 85 c0 33 3e 5c a2 84 3d
       0.05165079 0.2349047 0.17553909 0.0647628
0001d0 ce 91 0d be b5 0d 41 3e 04 c3 8d 3e 8b 22 30 be
       -0.13825151 0.18852885 0.27687848 -0.17200677
0001e0 02 96 51 bd be 65 34 3e a8 69 28 3e f5 24 6a 3e
       -0.05116845 0.17616937 0.16446555 0.2286566
0001f0 1d bd b7 3d 8a 6d 85 3e f0 53 73 3e 17 8b d9 3d
       0.08971617 0.26060134 0.23762488 0.106222324
000200 af c5 18 be c7 ff 28 3e fb 19 31 bd c4 2e 94 bd
       -0.1491916 0.16503821 -0.043237668 -0.07235482
000210 16 86 a2 3e c5 cf 88 3e 02 c1 f8 bd 67 0a 67 3e
       0.31742924 0.26721016 -0.12146188 0.22562562
000220 6d fb a5 bd f1 10 29 bd 5e 04 7c bd 2b 11 1a be
       -0.08104596 -0.041275922 -0.061527602 -0.15045612
000230 f9 e9 45 3e a3 93 a2 bd 87 9f f9 bd e5 ba 74 3e
       0.19327535 -0.07938316 -0.121886306 0.2389942
000240 c5 d3 60 be 46 ee 8b be 00 31 f8 bd 0c 5a 49 bd
       -0.21955784 -0.27330226 -0.12118721 -0.04915814
000250 04 65 6c 3e 75 ae 62 be d3 fe 77 be 12 14 85 3e
       0.2308541 -0.22136863 -0.24218301 0.25991875
000260 e8 87 34 be c2 2f 81 3d 03 99 53 be 92 36 5b 3e
       -0.17629969 0.06307937 -0.20663838 0.21407536
000270 a4 ca 3c be a4 59 91 3e eb a1 2f 3d 09 2a bf bd
       -0.18436676 0.28388703 0.042879026 -0.093341894
000280 b6 1e 8b be d2 98 b1 3d 62 26 10 be 55 ec 4f be
       -0.27171868 0.08671726 -0.14077142 -0.20304997
000290 7d bf 95 3e 11 14 45 be 38 71 8e 3e a8 0e fc bd
       0.29247656 -0.19245936 0.27820754 -0.12307483
0002a0 80 bc 0b bd 9c ba 5c be fc 9a 8b 3e 73 81 6f 3e
       -0.034115314 -0.21555561 0.2726668 0.23389225
0002b0 8e 6e 65 3e 30 a0 05 be 6e 51 2f 3e 3a d1 a0 3e
       0.22405455 -0.13049388 0.17120907 0.31409627
0002c0 49 55 ce bc 5e 49 84 be f7 97 f5 bd e6 f4 a4 3e
       -0.025187152 -0.25837225 -0.119918756 0.32218093
0002d0 69 f4 c4 bd a9 cc c3 3d ee 17 76 3d ec 2b 31 3e
       -0.0961693 0.0956052 0.060081415 0.17301911
0002e0 00 27 88 3e d5 12 06 3d f2 34 c9 3e a2 f4 91 3e
       0.26592255 0.032732803 0.39298207 0.28506953
0002f0 4f 5a 29 3c a1 f5 07 3e 4d 72 3c be 06 94 b1 bc
       0.010336473 0.13277294 -0.18402977 -0.021677028
000300 5f b6 c9 bd 08 1d 10 3e b6 c9 d1 3d de ca 93 3d
       -0.09849238 0.14073575 0.102435514 0.07216428
000310 a0 8f 19 3e 82 cb d4 3d fa 2b 81 be 8c 9d 65 3d
       0.14996195 0.103903785 -0.25228864 0.05605845
000320 61 bd 3f 3e 82 3c 20 3e c6 25 0e be 7a e8 08 be
       0.18724586 0.15648082 -0.13881597 -0.13369933
000330 68 6f 27 3e 20 7f 19 3e cb 3b fb 3d ce 8e 1c 3d
       0.16351092 0.149899 0.12267264 0.038222127
000340 41 98 4a 3e 0e 34 84 be b1 2e a3 3c f9 5a 25 3e
       0.19784643 -0.25820965 0.019919725 0.16147985
000350 1a ba 23 be bc b7 6b be 76 65 c7 bd 7a fb 6c be
       -0.15988961 -0.23019308 -0.09736149 -0.23142806
000360 7b 30 8e bc 83 6c 82 be 7c 01 09 bd c8 29 ea 3d
       -0.017357102 -0.25473413 -0.03344868 0.114337504
000370 3b 2c 58 3e 96 ef e6 bc 53 92 aa bd 84 5e 6b be
       0.21110623 -0.028190415 -0.083286904 -0.22985274
000380 cd 11 59 3e 34 0e 37 be 8f 71 56 3e ba 72 8c be
       0.21198197 -0.17876512 0.20941757 -0.2743128
000390 95 80 03 bd 12 56 ea bc de 87 7a be 08 f7 0e be
       -0.032105047 -0.028605495 -0.24465892 -0.13961422
0003a0 5c b8 1f 3e 6b 22 c3 3d 8f 55 b1 3d 5b 95 65 3e
       0.15597671 0.09528049 0.08658897 0.22420256
0003b0 55 1d 8c be 02 76 93 3d b4 07 87 be 9b 2b 7c 3d
       -0.2736613 0.072002426 -0.26373065 0.061565023
0003c0 0d 88 0e bd 9f 00 8f 3c 13 f0 d9 bc 52 d0 8d 3e
       -0.034797717 0.01745635 -0.026603734 0.27697998
0003d0 bb 29 b8 3c 5e 88 6c 3d 9f ea 9e 3e 85 c3 91 3c
       0.022480836 0.057747237 0.31038377 0.017793426
0003e0 db 3f c2 3d 46 0f 20 3e 64 20 28 3e 3d 67 e0 3d
       0.09484836 0.15630826 0.16418606 0.10957191
0003f0 c9 94 99 3e eb c0 09 3e c1 85 8a bd 22 21 7b 3e
       0.29996327 0.13452499 -0.06763793 0.24524358

phi_x.0.bias f4 [32]
000000 85 1f 5a 3e ee d4 2e 3e 6e 11 3f be 78 0d 62 be
       0.21301086 0.17073414 -0.18658993 -0.2207545
000010 e3 ef 12 3d ce 1e 12 be 22 27 b9 bd ef cf 03 3e
       0.035873305 -0.14269564 -0.09040667 0.12872289
000020 64 88 c5 3d 04 98 9e bd 73 d9 41 be 69 e9 19 be
       0.09645155 -0.077438384 -0.18930607 -0.15030445
000030 5d d1 33 bd 9a 82 97 3e f7 be 30 be 9f f8 0f be
       -0.043900836 0.2959183 -0.17260347 -0.14059685
000040 5f 81 96 3e 58 41 8d 3e 59 9d 17 be ca e3 b5 3d
       0.29395577 0.27588916 -0.14806117 0.08881338
000050 f9 2a 73 be cf be 64 3d e6 33 27 3e 97 5f 3a 3c
       -0.23746862 0.05584603 0.16328391 0.011375329
000060 f4 e5 99 3d 64 f8 98 3d 82 62 27 3e a7 8b 47 bc
       0.07514563 0.07469252 0.16346171 -0.012179292
000070 a1 a1 0d be c8 c8 36 3e 68 0f 03 3e 29 09 8a 3d
       -0.13831188 0.1785003 0.12798846 0.067400284

phi_x.2.weight f4 [32, 32]
000000 21 b6 c7 3d d9 41 28 3e 24 ee c6 3c 80 13 31 3e
       0.09751535 0.16431369 0.024283476 0.17292595
000010 dd a8 eb bd cb 55 01 bd 5a 8f 29 bc a5 aa ee 3d
       -0.115068175 -0.03157596 -0.010349119 0.116536416
000020 a8 d9 b8 bd 71 6b 12 3e 1d ab 62 be ee bf 33 be
       -0.0902589 0.14298798 -0.22135587 -0.17553684
000030 f8 f2 0f 3e 8c f3 d7 3d 0e c5 8e bd e6 9d 13 be
       0.14057529 0.105445 -0.06971179 -0.14415702
000040 04 29 c3 3d 30 08 eb bd 83 16 14 be f7 f3 00 be
       0.095293075 -0.11476171 -0.14461713 -0.12593065
000050 e8 17 71 bd d0 0a 03 3e 9a 85 0f 3e 81 63 27 3c
       -0.05886069 0.12797093 0.14015809 0.010216595
000060 90 16 97 3d 36 26 73 bc 34 18 58 3d 77 13 ce bc
       0.0737735 -0.014840653 0.052757457 -0.025155766
000070 73 0a 14 3e ee fa 04 3c bb 2d 2a bd 33 4f 1f be
       0.14457111 0.008116467 -0.04154752 -0.15557556
000080 ac fb c6 bd 6b a9 20 bd eb 1c 2f be 4d 91 76 bd
       -0.09715971 -0.03922407 -0.17100875 -0.060197163
000090 a0 56 a1 bd c2 0c 83 bd a0 4f 0a be 5b b3 d8 3c
       -0.078778505 -0.06398918 -0.13506937 0.02645271
0000a0 2c 49 2f be 37 89 9d 3c 68 f0 7a 3d bc 6b b5 bd
       -0.17117757 0.019230468 0.061264426 -0.08858439
0000b0 b9 5c d4 bd d2 e4 38 3d 85 52 ff 3d 8f e4 1e bd
       -0.10369248 0.045140095 0.12466911 -0.03879219
0000c0 60 c6 0a 3e 0d 20 af bd b6 d3 39 bd 98 71 2f 3e
       0.13552237 -0.08551035 -0.04536792 0.17133176
0000d0 d3 32 4a 3d 34 da ed bb 23 6c 12 be 2f 62 18 3e
       0.049364876 -0.007258678 -0.14299063 0.14881204
0000e0 68 56 23 bb 9c 58 f4 3d 44 eb 31 bd ba 67 56 3d
       -0.0024923328 0.119309634 -0.043437257 0.052345015
0000f0 40 2a 34 3e eb 03 92 bd f5 50 cb bd 08 f8 7a bd
       0.17594242 -0.071296535 -0.09927551 -0.061271697
000100 0e 8f 97 bd 8c b9 92 bc 21 26 76 bd cf b6 0d 3e
       -0.074003324 -0.017910741 -0.060094956 0.13839267
000110 30 81 29 bd cd d7 a2 3d b8 84 9d bd 63 f4 19 be
       -0.04138297 0.07951317 -0.0769133 -0.15034632
000120 b3 f5 42 be af 27 ea bd 41 d6 82 bd 73 33 a0 3d
       -0.1903904 -0.1143335 -0.06388522 0.07822313
000130 8b be b9 3d f4 62 9f 3d fb c8 4d bd f9 88 23 3e
       0.09069546 0.07782546 -0.050240498 0.1597022
000140 2b a2 06 be fb bf 86 bd 92 8e 15 be 89 30 a4 3d
       -0.131478 -0.06579586 -0.14605168 0.0801707
000150 15 55 1f be 6f 43 d5 3b c0 f4 bf bd 54 0f cf 3d
       -0.155598 0.006508283 -0.09372854 0.101103455
000160 61 c2 cb 3d 90 82 f6 bd 56 4b 2d 3e f5 57 26 be
       0.09949184 -0.120366216 0.1692327 -0.1624449
000170 2e 01 9a bc 50 68 b7 bd ab 75 f8 3a 18 6b c4 bd
       -0.01879939 -0.08955443 0.0018955966 -0.09590739
000180 47 f8 13 3d ef 9a 99 3c b2 7b b8 bd ef 91 2f be
       0.036125448 0.018750636 -0.09007968 -0.17145513
000190 93 28 28 be 5b d2 b7 3d 41 24 2a bd af 19 c6 bd
       -0.16421728 0.08975669 -0.04153848 -0.096728675
0001a0 e8 70 42 bb 3d 20 d8 3d 91 93 80 3a d8 4a 1e be
       -0.0029669348 0.10553024 0.0009809603 -0.15458238
0001b0 d0 93 cd 3d a5 29 25 3c 71 bf 01 3d 44 a6 a9 3d
       0.100379586 0.01008073 0.031676713 0.08283666
0001c0 d0 ce a9 bd d7 ee 81 3d 57 b4 0a be 28 a2 e4 3c
       -0.082913995 0.06344383 -0.13545357 0.027909353
0001d0 83 36 c7 3d e2 9d bc 3c 64 3f 39 bd 5b c6 01 bd
       0.09727194 0.023024503 -0.04522647 -0.031683307
0001e0 40 19 11 3e 5c e6 00 be 1e f8 d3 3d 9a fa 85 bd
       0.14169788 -0.12587875 0.10350059 -0.06541939
0001f0 0e 64 29 3e 4b 99 3d bd b1 59 08 be 06 de 6f 3d
       0.16542074 -0.04628877 -0.13315465 0.058561347
000200 aa c8 81 3d da 16 09 be 10 96 39 3d fa 31 8a bd
       0.06337102 -0.13387623 0.045309126 -0.067478135
000210 dd db f9 3d 8e 01 9e 3c 25 9c 89 bd 5e 83 29 bd
       0.12200139 0.01928785 -0.06719235 -0.041385047
000220 46 18 58 3d dd 50 1d 3e 37 bc f2 bd bc c6 e9 bd
       0.052757524 0.15362878 -0.118523054 -0.11414859
000230 6a 2b 58 3c a3 f0 71 bd 21 45 ed 3b e1 9e d0 3d
       0.0131939445 -0.05906738 0.007240907 0.10186554
000240 e7 17 cd 3c d0 8e 07 3e a3 cd ad bd 7f fa ec bd
       0.025035812 0.13238072 -0.08486488 -0.11571216
000250 15 2d 48 3e 28 4a 58 3e fb 72 e6 3d 50 98 0a 3e
       0.19548447 0.21122038 0.112523995 0.13534665
000260 f7 17 5b bd a9 8d 92 bd f3 db ba bd ee 5d e4 3d
       -0.05348965 -0.07155926 -0.09123983 0.11150728
000270 07 83 1e bd 0a b3 ec 3c 2f 5a 86 3c d7 78 16 3e
       -0.038699176 0.028893966 0.016400425 0.14694534
000280 b7 bc 94 bd 5d 17 12 3e c2 cf e7 3c 9d d3 54 3d
       -0.07262557 0.14266725 0.028297309 0.051959623
000290 c7 c6 08 3e 44 c4 b9 3e a7 15 1c bb b0 de 71 3d
       0.13357078 0.3628255 -0.0023816617 0.059050262
0002a0 ff ae df 3d 49 8a 2b be 44 02 11 3c e7 4b fe 3d
       0.1092205 -0.1675197 0.008850638 0.12416821
0002b0 93 73 81 3d 67 f9 20 3e 04 38 57 be 8d d2 05 be
       0.06320872 0.1572014 -0.21017462 -0.130686
0002c0 40 e8 1c be 0c ea e7 bd 89 2f eb 3c 97 2c 0b be
       -0.15322971 -0.11323938 0.02870919 -0.13591228
0002d0 79 57 1c 3d 0b 75 f3 3d 82 c7 13 3e 30 bc 11 3e
       0.038169358 0.118875585 0.14431575 0.14231944
0002e0 01 e7 8d bd 52 7c 14 3e f8 00 d8 3c 83 9b 34 3e
       -0.06928826 0.1450055 0.02636765 0.17637448
0002f0 91 41 f3 3d 2d 6a 0b be e0 8d 58 be 8a 55 ce 3d
       0.1187774 -0.13614722 -0.21147871 0.10074909
000300 ed 27 3a be dd 13 52 bd 79 b4 dc 3d 34 ea fd 3a
       -0.18179293 -0.051288474 0.1077661 0.0019372166
000310 f0 43 3f 3e f4 79 25 3c a3 e3 93 3d 3b 5f 32 3e
       0.1867826 0.010099877 0.07221153 0.1741914
000320 1c 64 ea bd 27 18 16 be f1 6e 79 bd 16 99 88 3d
       -0.114448756 -0.14657651 -0.060896818 0.06669824
000330 32 b3 44 3b 5f 19 9d 3d 7c cb 08 3c da 62 a3 3d
       0.0030014035 0.07670855 0.008349296 0.07977839
000340 69 bd 81 bd c6 ad 79 bd bd 9b e3 3c f7 5b 1d bd
       -0.06334955 -0.06095674 0.027784223 -0.038417783
000350 a5 38 8a 3d ba 3c 15 3e 84 cc f3 bd 29 2d ca bc
       0.06749085 0.14573947 -0.11904243 -0.024679737
000360 e9 e5 06 bc d6 b6 e4 bd 2f 0c 09 be 44 8f 98 3d
       -0.008233526 -0.11167686 -0.13383554 0.07449201
000370 20 85 0e be c8 e9 f9 3c da 18 8c 3d dd e1 1f be
       -0.1391797 0.030506983 0.068406776 -0.15613504
000380 59 cd 9e bd 26 74 15 3e b8 06 15 3e 06 60 00 be
       -0.07754011 0.14595088 0.14553344 -0.1253663
000390 58 f4 24 3e f9 71 00 bd 39 35 a9 bd 66 99 9f 3d
       0.16108835 -0.031358693 -0.082621045 0.0779293
0003a0 b7 9a 2d be bc 5a 0d 3e a2 bc b1 bc 11 86 b6 bb
       -0.1695355 0.13804144 -0.021696392 -0.005570181
0003b0 b5 49 da 3d e1 2e 23 be b0 4f 56 3d 28 86 97 bd
       0.1065859 -0.15935852 0.05232209 -0.07398635
0003c0 cb e5 a7 3c 66 cc 03 be a0 4a 09 3e 95 fb 7a 3c
       0.020495316 -0.1287094 0.13407373 0.015318771
0003d0 85 59 26 bc 77 36 9b bd 1b 97 82 3d 76 ae 7b 3d
       -0.010153179 -0.07578748 0.06376477 0.061445676
0003e0 81 48 aa bd 5d af f1 3d 2a 78 aa 3c 34 e4 09 be
       -0.0831461 0.11801026 0.020809252 -0.13465959
0003f0 df af d6 3c 69 ed fe 3b 6d 36 44 3d 85 6e 77 bd
       0.026206909 0.0077797663 0.047903467 -0.060408134

phi_x.2.bias f4 [32]
000000 0e f1 4e 3e af 26 1e be 0e 16 44 bc 61 94 a6 bb
       0.20209143 -0.15444444 -0.011968149 -0.005083606
000010 81 81 8e 3d 15 a8 84 3d 0b 15 12 3e bc fd a7 3d
       0.06958295 0.064773716 0.1426584 0.08202693
000020 90 71 ce bd c0 00 d5 bd 21 ff 4d 3d 7a c5 8c bc
       -0.10080254 -0.10400534 0.050292138 -0.017184008
000030 3f 22 00 be 47 8e 13 be 5f 00 a8 bd 1a cc db 3c
       -0.12513064 -0.14409743 -0.08203196 0.026830722
000040 99 e5 0b 3e 10 a6 8e 3e 98 05 d0 3d f8 3d 9e 3d
       0.13661803 0.2786107 0.10157317 0.07726663
000050 37 83 b0 3d 0b 63 82 bd 21 8f ce bb 8c 0f 36 3d
       0.08618777 -0.06366547 -0.0063036834 0.04444842
000060 fe 0b 07 3e 33 80 fc bd 6c fe 18 be 18 24 45 3c
       0.13188168 -0.123291396 -0.14940804 0.012032531
000070 db bb 0a 3e ad 80 0e bd 3b e1 53 be 2e f8 08 bd
       0.13548224 -0.034790684 -0.20691387 -0.033439808

phi_z.0.weight f4 [32, 12]
000000 66 33 cb 3d 14 5b da bd 00 d5 ac 3c 97 89 c4 bb
       0.09921913 -0.10661903 0.02109766 -0.0059978473
000010 67 cc 3e 3d bd df a9 3b 0a 75 dc bd 4a f1 96 bd
       0.046581652 0.0051841424 -0.10764511 -0.07370241
000020 5e f4 8f 3a 14 06 a7 3a 57 2f 3a bd 9e 01 23 bd
       0.0010982861 0.00127429 -0.045455303 -0.039796464
000030 78 09 13 bc 93 45 0c be 37 bb d0 bc 42 5a 6f 3d
       -0.0089744255 -0.13698415 -0.025479896 0.058435686
000040 e5 58 ba 3d b8 f2 9a 3d 93 27 27 3d c2 09 51 bd
       0.090989865 0.07565826 0.040809225 -0.051034696
000050 e1 09 8d 3c 50 5a bc 3c b0 84 c9 bc d6 ed d4 3d
       0.017216625 0.022992283 -0.024599403 0.10396926
000060 40 dd bd bd 73 df de 3c 43 7d 2a be d5 c9 8f bd
       -0.09270716 0.027206158 -0.16649346 -0.07020918
000070 ff 6c aa 3d 33 9c d5 bd fc a1 72 3d 36 e2 14 3d
       0.083215706 -0.10430183 0.05923651 0.036348544
000080 7b 7c e9 3d 61 e3 fa bd 84 b7 90 bd 60 ff 77 bd
       0.11400696 -0.122504 -0.07066253 -0.06054628
000090 d2 f2 91 3d af 03 c8 bd a6 4f 1d be 95 87 30 bd
       0.071263924 -0.097663276 -0.15362415 -0.04309805
0000a0 4f 22 c1 3c 09 92 c7 bd f0 d8 90 3d 6c 3d 9d bd
       0.02357593 -0.09744651 0.070726275 -0.07677731
0000b0 8b 77 74 3d 9e 32 9b bd 48 83 36 bb b7 b5 bb 3b
       0.059684318 -0.07578014 -0.0027849246 0.005728449
0000c0 02 16 39 be 98 5d d7 3d e1 fb 0e 3e cd 9f 12 bd
       -0.18074802 0.105158985 0.13963272 -0.03579693
0000d0 5f e5 06 bd 71 95 8f 3c 05 ae 36 bd 6c ac a1 3d
       -0.03293359 0.017527314 -0.04459955 0.07894215
0000e0 16 bc e4 bc b2 d8 80 3d 43 2d 88 3d 93 a5 23 3c
       -0.027921718 0.06291331 0.06649258 0.009988206
0000f0 7d 8f 2e bd f8 e3 d0 3d 12 97 56 3d 6e 42 9a bd
       -0.04261731 0.101997316 0.052390166 -0.07532202
000100 07 fb 72 bd 3b 45 3a bc 0f 84 a7 bd 66 c0 81 bd
       -0.05932143 -0.011369045 -0.08179485 -0.06335525
000110 5c 43 27 bd a5 87 9a 3d 47 88 86 3c f9 72 ab bd
       -0.040835723 0.075454034 0.016422404 -0.08371539
000120 43 00 12 3e be d1 1b be 1c 11 15 bd 64 2f d6 bd
       0.14257912 -0.15216729 -0.03639327 -0.10458258
000130 47 33 d9 ba e4 52 e6 3d bd 58 b6 bc b6 4e 19 3e
       -0.0016571068 0.11246279 -0.02225911 0.14971432
000140 57 f2 c6 3d aa 93 1f be 13 48 90 3d 21 f2 27 be
       0.097141914 -0.15583673 0.07044997 -0.16400959
000150 35 d5 9e bc 9f d0 3d 3e 9b be e4 3d 17 84 3b 3d
       -0.019388774 0.18536614 0.111691676 0.045780268
000160 60 d7 63 bd 8b 57 7c 3d fe d6 12 bd dd bf 00 3d
       -0.05562532 0.061606925 -0.035849564 0.031432975
000170 f0 8e cb bd c1 ef 28 3e f8 ad d3 3c e6 3d 1f be
       -0.099393725 0.16497709 0.02583979 -0.15550956
000180 fa 62 d9 3d 2c cd 4d 3d d8 28 21 3e 25 12 ee bd
       0.106145814 0.050244495 0.15738237 -0.116245545
000190 ac f6 92 bd 66 d2 34 3c 3c a7 be bd 29 68 1e bd
       -0.07175955 0.011036491 -0.09309241 -0.038673554
0001a0 5b b5 03 be 09 4f d7 bc 0d 6b 39 3e bf 53 80 bd
       -0.1286215 -0.026282804 0.18107243 -0.06265973
0001b0 ca 97 4f 3e b8 6b 74 3e ca f1 59 be e3 81 8b bd
       0.20272747 0.23869216 -0.21283641 -0.06811883
0001c0 30 91 33 be fc 64 f9 bc a4 f8 ee 3c 71 5f 89 bd
       -0.17535853 -0.03044366 0.029171295 -0.06707657
0001d0 e5 6d 87 3d 96 d4 64 be 59 9b 71 3e c1 1a 69 3e
       0.066127576 -0.2234672 0.23594417 0.22764112
0001e0 aa 4c 87 3d 65 08 9b bb 92 2f 49 3e c0 60 06 3b
       0.066064194 -0.0047312253 0.19647053 0.0020504445
0001f0 1d 12 b6 3d c8 fe 7f 3d 5d 8f 82 3d 08 11 50 3e
       0.088901736 0.062498838 0.063750006 0.20318997
000200 bf dd d9 bd ab d8 13 be 7c 32 c5 3d ab c0 5d bc
       -0.10637998 -0.14438121 0.0962877 -0.013534705
000210 34 fe 94 3d 5b 45 79 3d d2 92 e1 3c 5a 90 7c bc
       0.07275048 0.06085716 0.02753583 -0.0154152755
000220 ab aa 9d bd 97 3f f1 3d fb cd 7c 3d 05 94 b9 3c
       -0.07698568 0.11779707 0.061719876 0.022653589
000230 a2 11 20 bd ed 4b fe bd 8c 31 f7 3d 79 76 d8 bc
       -0.039079316 -0.124168254 0.12069997 -0.02642368
000240 0c 8d 09 be e6 ea 1b 3d 08 5d 23 bd 7c 3e c3 bd
       -0.13432711 0.038065813 -0.039883643 -0.09533402
000250 99 c8 2c 3d 19 ea 81 3d 85 74 36 bc 5f 1b a9 bd
       0.042183492 0.06343479 -0.011136179 -0.08257174
000260 2f f7 22 3b c5 20 5e 3d 2a bb 02 be 75 79 da bd
       0.0024866571 0.05423047 -0.1276671 -0.10667697
000270 f4 6c 1e be 60 34 18 3d e5 47 0c 3e f6 18 12 be
       -0.1547125 0.037159324 0.136993 -0.14267334
000280 ea 76 0c bd 6d 29 52 be 5b f3 1d be 0d fd 6a 3d
       -0.034293093 -0.20523615 -0.15424864 0.057370234
000290 1f 32 ce bd d3 d9 80 bc 3f 16 b1 3c ec e2 de bc
       -0.100681536 -0.015728867 0.021617053 -0.027207814
0002a0 ad c4 08 3d e0 42 e1 3c fb d1 9b 3c 21 de 26 bc
       0.03339069 0.027497709 0.019021025 -0.010184796
0002b0 dd ec 97 3d a9 02 c6 3c 71 8b 71 bc db 20 65 3d
       0.07418225 0.02417119 -0.014742718 0.055939537
0002c0 21 fa e8 bd 89 6c 15 3e b0 68 9c 3d 78 76 2c 3d
       -0.11375833 0.14592184 0.07637155 0.042105168
0002d0 52 36 d2 3d 8f 0e 24 3a bd 4f 0c 3c b2 36 b7 3d
       0.10264267 0.0006258273 0.008563933 0.08945979
0002e0 4a c8 c3 3d 78 25 3e 3e c2 5f 1b 3d 80 5a 85 3b
       0.095596865 0.1856898 0.03793312 0.0040696263
0002f0 cc 1c 99 bb 70 93 cd 3d ae 86 c2 bc 7c 69 c5 bc
       -0.0046726223 0.10037887 -0.02374586 -0.02409815
000300 31 3e 0b 3e 49 0d e4 3d 3e 96 89 bd f7 e7 d8 3b
       0.13597943 0.111353464 -0.067181095 0.0066194492
000310 0a d7 ac 3c 58 18 bb bd 13 f9 14 3d c1 5e ac bd
       0.021098632 -0.091355026 0.03637035 -0.084165104
000320 33 8f 4c bd 21 db 86 3d e0 21 ff bb 38 59 49 be
       -0.049941253 0.06584764 -0.0077860206 -0.1966294
000330 19 5e 2d be 49 1f ba bd 3b 90 e0 bd f1 5d 90 3c
       -0.16930427 -0.090879984 -0.1096501 0.01762292
000340 e2 6e 25 3e ee 58 fe bd fe f4 6d 3d 21 47 e5 3d
       0.1615558 -0.12419306 0.05809497 0.111952074
000350 9b b7 9a 3d d5 64 54 be 8d c7 1d bd 7e b3 78 3d
       0.07554551 -0.2074159 -0.038520385 0.060718052
000360 75 49 0c be b8 3f 29 3d 6b 57 a0 bb da 43 48 3e
       -0.13699897 0.041320533 -0.0048932335 0.19557133
000370 0c 6c 5f 3e ea 25 2f 3d 8d a1 97 bc 37 49 b6 bd
       0.2181856 0.042760767 -0.01850965 -0.089006834
000380 6c 4a 27 3d 22 fd f6 3d 47 df 4d bd a2 f9 dc 3d
       0.04084246 0.1206 -0.050261762 0.10789801
000390 98 21 9e 3c bc bb 94 bd b2 f5 4e bc 48 67 82 bc
       0.019303128 -0.0726237 -0.0126318205 -0.015918389
0003a0 29 f0 a7 bd f7 4f 0a 3d 5a da ca bd b4 a0 3b 3d
       -0.08200104 0.033767667 -0.099049285 0.045807555
0003b0 e7 b5 0b 3c d7 4c 37 3d 0c cb c5 bd 20 25 9c bd
       0.008527256 0.044751015 -0.09657869 -0.076242685
0003c0 48 de d5 3c d3 ff 08 3c d4 2e ab 3d 1c 48 9e bc
       0.026106969 0.0083617745 0.08358541 -0.019321494
0003d0 af ac 5f 3c c3 7c e6 bc c7 0c 85 bd 9b 18 c7 3d
       0.013652011 -0.028135663 -0.06496578 0.0972149
0003e0 37 ae 92 3c 6b 70 d4 3d f2 3e be 3d 0a 85 0d 3d
       0.017905338 0.103730045 0.092893496 0.034550704
0003f0 05 1b 1a 3d fc bb df bd 9b df d1 3c b7 03 92 bd
       0.037623424 -0.10924527 0.025619319 -0.07129615

phi_z.0.bias f4 [32]
000000 69 6c 0b be c0 8d 7b 3e 67 80 cd 3d f4 32 8f 3d
       -0.13615574 0.24565792 0.100342564 0.069921404
000010 e2 1d 13 be 74 01 31 3e 32 d1 89 be d1 84 f2 3d
       -0.14366868 0.1728571 -0.26917416 0.11841739
000020 1d 66 3e be a6 01 37 be 04 6b e3 3d 16 d5 80 3e
       -0.1859364 -0.17871723 0.11104396 0.25162572
000030 7b e4 af be 20 8b ac bd 71 c4 af be eb cc c1 bd
       -0.34354004 -0.084249735 -0.3432956 -0.09462913
000040 7a dd 3f be 4e 03 2c be 51 c0 f1 bc 74 48 bc be
       -0.1873683 -0.16798136 -0.029510649 -0.36774027
000050 39 81 94 be 75 3d 94 be be 89 b3 bd 53 b5 02 be
       -0.2900484 -0.28953138 -0.087665066 -0.12764482
000060 9b 71 70 be 75 7f de bd 82 8c 7b 3e d7 46 cd bd
       -0.23480837 -0.10864154 0.24565318 -0.10023277
000070 c7 4f 87 be 13 b5 32 be d8 c8 47 3e d9 84 89 3e
       -0.26428053 -0.17451887 0.1951021 0.26859167

enc.0.weight f4 [32, 64]
000000 2a 83 1d bd 00 68 64 ba 70 fe f6 bc 28 a8 00 be
       -0.038455166 -0.0008713007 -0.030150622 -0.12564147
000010 60 69 0b 3d ef e5 e3 bd ff 8a b2 bd ff 31 94 bd
       0.03403604 -0.11127841 -0.08717918 -0.072360985
000020 16 5d fb 3d 21 ee 06 3d d8 62 b0 bc b0 a6 c8 bc
       0.12273614 0.03294194 -0.021531507 -0.024493545
000030 b6 0d bd 3d 0a 4a c7 bd 42 21 e7 bd de ca cc bd
       0.09231131 -0.09730919 -0.1128564 -0.09999631
000040 04 ad 1b 3d e4 f4 af 3d c4 93 70 bd 4f 4e 00 bd
       0.038006797 0.08591631 -0.05873467 -0.03132468
000050 30 5a b8 bc 32 a9 b0 3d 3e 55 91 3d ad ee 98 3d
       -0.022503942 0.086260214 0.07096337 0.07467399
000060 a1 21 8e 3c a7 4d 4b bc c8 df ab 3d 29 34 a9 3d
       0.01735002 -0.0124086505 0.08392292 0.08261902
000070 2f 98 99 bd c8 04 83 bc f8 d1 38 3d 23 58 c0 3c
       -0.0749973 -0.01599349 0.045122117 0.023479527
000080 b8 81 e4 bd 8d 15 9f bd ec 2d 3f bd 7e 37 b3 bd
       -0.111575544 -0.07767782 -0.046674654 -0.08750819
000090 bd c0 86 3d 53 b7 0a bd c8 ce 7b 3d b5 6e 9b bd
       0.06579731 -0.033866238 0.0614765 -0.07589475
0000a0 4d 7f fe bd 52 7d 05 3e 10 22 24 bc 02 f5 59 3c
       -0.124266244 0.13036087 -0.010017887 0.013303043
0000b0 f6 06 27 bd 54 5a 64 3d 57 81 78 bd 65 69 8d bd
       -0.040778123 0.055750206 -0.060670223 -0.06904868
0000c0 99 35 85 3d a6 98 05 be 64 65 83 bc dc 9f ea bd
       0.065043636 -0.13046512 -0.016039558 -0.11456272
0000d0 3d 88 15 3d 46 64 b2 bc 71 21 c7 3b 11 a8 86 38
       0.03650688 -0.02177633 0.0060769846 6.420923e-05
0000e0 4f 1c bc bc fb 3a 8c bc 92 5f 02 3d 64 ef 04 3c
       -0.022962717 -0.017117968 0.031829424 0.008113716
0000f0 97 67 23 bd 67 fa 07 3c b3 86 c8 bc 91 b4 88 3d
       -0.039893713 0.008299447 -0.024478292 0.06675065
000100 51 39 4a bd d0 03 d1 bc 88 43 e6 bd 18 8d 62 3d
       -0.049371067 -0.025514513 -0.11243349 0.05531034
000110 70 48 a8 bd 73 d2 92 3d a5 00 c8 3d 86 06 52 3d
       -0.08216941 0.07169046 0.09765748 0.051275752
000120 b8 5e 5d bd 12 2c 57 3d 10 06 5b bc 38 d1 e2 3d
       -0.05404541 0.052532263 -0.013368145 0.110750616
000130 82 7d f3 3d c0 4c b6 3d 6c dc 7d bc 8f a3 85 bc
       0.11889173 0.08901358 -0.015494447 -0.016313342
000140 b0 1c 88 3c 9c 8f bc 3d 5a b0 f2 bd af 8d 0b bd
       0.016615242 0.09207079 -0.11850043 -0.034070667
000150 9a 1a 9f 3d de ef dc 3d 02 32 a7 bd ad 72 d0 bd
       0.07768746 0.107879385 -0.08163835 -0.10178123
000160 df c0 40 bd d6 70 42 bd f0 cb fd bc 4a 4d 3f 3d
       -0.047058936 -0.04747089 -0.030981034 0.046704568
000170 cb ac 06 be b0 3e 81 bd e0 31 d6 3b a4 22 a8 3d
       -0.13151853 -0.06310785 0.0065367073 0.08209732
000180 b1 61 87 3c f4 41 c0 bd 0a 16 bf bd 82 b3 e4 bd
       0.016526075 -0.093875796 -0.093303755 -0.11167051
000190 20 61 6c bd 4d 50 f1 3d 80 dd 6e bc 10 bb 7d bd
       -0.057709813 0.11782894 -0.014579177 -0.061945975
0001a0 fc b0 0e bd 6f db db bd 83 3d 15 3d df 41 55 3d
       -0.034836754 -0.10735213 0.036435615 0.052064773
0001b0 81 3d e1 bc 37 31 a4 bd e0 b5 d3 bd 0a 16 2a bd
       -0.027495148 -0.080171995 -0.10337424 -0.041524924
0001c0 01 2d cc 3d 6b 92 fd 38 05 31 5a 3c 3f 63 dc bd
       0.09969521 0.000120912526 0.013317351 -0.10761117
0001d0 b9 17 ce bd 20 42 8f 3d a3 0e 86 3d bd 88 5e 3d
       -0.100631185 0.06995034 0.065457605 0.054329623
0001e0 aa 53 b4 bd 26 f1 05 bd 5d 1a d5 3c 23 c6 d5 3c
       -0.0880502 -0.03270068 0.026013548 0.026095456
0001f0 23 68 d5 ba 50 44 da 3d db 1b b0 bd b7 a3 b2 3d
       -0.0016281646 0.10657561 -0.08599063 0.087226324
000200 24 37 f9 3b 40 ef 11 3c 9c 44 53 bd de 8f 82 3d
       0.00760545 0.008907139 -0.051579103 0.06375097
000210 5b 1f 94 3c 97 b8 de bd 11 dd 61 3e 21 2f a0 3c
       0.018081358 -0.108750515 0.22056986 0.019553723
000220 ac 1e 0d bd cb 96 24 3e f2 5a 87 3d aa 62 cb bd
       -0.03445308 0.16073148 0.06609143 -0.09930928
000230 64 54 b1 bd a8 f2 46 3d 33 bf 1b 3d 04 7b 13 bd
       -0.08658674 0.04857126 0.03802414 -0.03600599
000240 d5 14 cc bd 2d 66 62 3e e4 59 e3 3d 87 5f 7e 3e
       -0.09964911 0.2210929 0.1110113 0.24841128
000250 bb de 06 3d 6e b6 a1 3d bb fc 1d 3d 8c fb 45 3d
       0.032927256 0.07896124 0.0385711 0.048335597
000260 3c d7 c5 3d f8 9f 20 bd b0 3c 71 bc 54 c6 e7 3c
       0.09660193 -0.039215058 -0.014723942 0.028292812
000270 70 c4 06 3e b0 58 36 bd d1 c9 8f bc 89 2c e5 bc
       0.13160872 -0.044518173 -0.017552288 -0.027975338
000280 d1 be 76 bd 4d 17 bc bd d4 7c f2 3d a0 36 f7 3d
       -0.06024057 -0.09184132 0.11840215 0.12070966
000290 aa 12 23 be f1 e5 9a 3d 1d e6 1d be c7 99 17 be
       -0.15925089 0.07563389 -0.15419813 -0.14804755
0002a0 a7 08 0f be f1 cf 17 3e 63 e5 f3 3d 00 2b ba 3c
       -0.13968144 0.14825417 0.119089864 0.022725582
0002b0 70 59 26 3e 52 38 fd 3d f1 0c 4a bd cb c8 0c bd
       0.16245055 0.12364258 -0.049328748 -0.03437118
0002c0 06 a9 5c 3e 29 bc de bd b4 89 20 be b0 50 df 3c
       0.21548852 -0.108757325 -0.1567753 0.027260154
0002d0 b0 57 c1 bd d4 bc cb 3d de 66 98 bd a2 8d 7f bd
       -0.09440553 0.099481255 -0.07441495 -0.06239093
0002e0 b1 87 ed 3d a6 7c b7 3c b2 d4 87 3d a9 e9 bd 3d
       0.11598147 0.022398304 0.06632365 0.09273083
0002f0 66 96 41 3d 9a d3 16 bd cf 86 de 3d a6 5c 3f bb
       0.04726257 -0.036822893 0.108655564 -0.002919951
000300 0c 62 e9 bd 60 15 90 3c a6 e2 c3 3d 48 c1 e0 bd
       -0.11395654 0.017588317 0.09564714 -0.109743655
000310 22 4d 8b bd f0 76 dd bc dc 57 7a bd dc c8 84 bd
       -0.06801821 -0.027034253 -0.061118945 -0.064836234
000320 d0 02 46 bc 48 98 da bc 40 07 74 3b 02 ae fa 3d
       -0.0120856315 -0.026683941 0.0037235767 0.122402206
000330 c8 31 d9 bd c4 c9 70 3d ac 97 01 bd 6c 5a 79 3d
       -0.10605198 0.05878617 -0.031638786 0.06087725
000340 a0 a7 f4 3d b0 7b 33 3c e8 dd 97 3d 64 75 25 bd
       0.119460344 0.010954782 0.07415372 -0.040395156
000350 4c 5c 52 3d 60 58 53 bc b8 3a bb 3c 00 65 1d bb
       0.051357552 -0.012899488 0.022855148 -0.00240165
000360 76 b1 dc bd 10 a0 9a bd b8 93 58 3d ea 52 ef bd
       -0.107760355 -0.07550061 0.05287525 -0.116857365
000370 18 e8 8a bd 88 5d f7 3d 90 42 f6 3c 28 f7 ce bd
       -0.067825496 0.120783865 0.030061036 -0.10105735
000380 80 e9 0b bd c0 da 01 3b 18 53 c1 3d 80 8b 06 bd
       -0.03415823 0.0019814223 0.09439677 -0.03284788
000390 88 70 de 3c b4 7d 60 bd 98 cb ff bc 06 28 85 bd
       0.027153268 -0.05480738 -0.03122501 -0.065017745
0003a0 84 34 e1 bd a0 cd 18 bc 00 20 5f 3c 58 8c 86 3d
       -0.10996345 -0.009326369 0.013618469 0.06569737
0003b0 30 b6 83 3c 80 e1 64 bb 74 3d 82 bd e0 54 49 3c
       0.016078085 -0.0034924448 -0.063593775 0.012288302
0003c0 0c 84 8d bd b0 2b 77 3d 02 2f f6 bd 98 55 28 bd
       -0.069099516 0.060344398 -0.12020685 -0.041097254
0003d0 d0 67 f7 3c c0 6c d2 3b d2 ba 82 3d b0 33 4e bd
       0.030200869 0.0064216554 0.063832894 -0.05034226
0003e0 4a d1 b6 3d 86 cf bb bd 20 0f 1e 3c 60 6e 38 bd
       0.089266375 -0.09170441 0.009647161 -0.045027137
0003f0 b4 9e 0b bd 32 6f ec 3d 08 cb d8 bc 84 96 a3 3d
       -0.034086898 0.11544646 -0.026464 0.07987693

enc.0.bias f4 [32]
000000 a2 2f 3b bd d9 ea fe bd a3 08 e9 3d 6a 7f 98 bd
       -0.045699723 -0.124471374 0.113786004 -0.07446177
000010 b8 74 df 3d 69 b7 c6 3d 44 51 02 be 6a 9a ff 3d
       0.10910934 0.097029515 -0.12726313 0.12480624
000020 28 aa f9 3d 90 fe 1b bc 76 a3 e0 bd 64 b9 fb bd
       0.12190658 -0.009521142 -0.10968678 -0.1229122
000030 52 ed a4 3c 52 47 56 bd fd 45 2d 3d ea 8f 94 bc
       0.020132694 -0.05231411 0.042303074 -0.01813503
000040 18 33 1a bd fe 0a ba 3c d8 c9 ba 3b 0a ac db bc
       -0.037646383 0.02271032 0.005700331 -0.026815433
000050 cd 37 dc bc b6 20 22 3d 64 13 45 3d 11 52 e5 3d
       -0.026882077 0.039581977 0.048114195 0.111972935
000060 51 e4 8b bd 65 79 16 3e 0b d7 b7 bb 7f 0d 4d bd
       -0.06830657 0.14694746 -0.005610352 -0.0500617
000070 de 48 9c 3d 7c c0 46 3c 12 89 59 bd e8 ed 82 3c
       0.07631086 0.012130853 -0.053109236 0.015982583

enc.2.weight f4 [32, 32]
000000 3e 14 55 3e 90 f1 c0 bd 86 90 b3 3e 3f 70 8c bd
       0.20808503 -0.094210744 0.350712 -0.06857347
000010 36 c2 8b bd 3a de 3b bc 5d 0c a2 bc 84 de a2 3d
       -0.06824152 -0.011466557 -0.019781286 0.07952598
000020 ec 89 1c bd 40 1a 30 3e 15 ef bd bd 84 0b 07 be
       -0.03821747 0.17197514 -0.09274117 -0.13187987
000030 1c 6e 25 3e f7 e7 16 be 20 ae 06 be 06 b8 c1 bd
       0.16155285 -0.14736925 -0.13152361 -0.09458928
000040 67 46 34 be 0f 95 5f 3c 41 80 b3 3d 0f f1 8c bc
       -0.17604981 0.013646378 0.08764697 -0.01720479
000050 55 8f 03 3e 95 4c 67 bd e5 f9 c0 bc db 01 81 bd
       0.12847646 -0.05646952 -0.023556659 -0.06299182
000060 5d 37 ce bd d8 fd 03 3e 55 00 0b 3d c9 e0 a5 bd
       -0.100691535 0.12889802 0.033935864 -0.08099515
000070 d3 aa c6 3d 16 65 19 3e 00 42 a1 bb 9c 5b 0d 3e
       0.09700551 0.14979967 -0.004921198 0.13804477
000080 eb e7 a3 bd a4 3f 22 3e a1 a0 17 3d d8 ba 15 bc
       -0.08003219 0.1584459 0.037018422 -0.009138785
000090 48 b6 99 3d 8a c2 3d be cb 1c 95 bc e3 9c 4f bd
       0.075054705 -0.18531242 -0.018202206 -0.05068673
0000a0 6b f8 28 bd 22 2f b1 3d 5a 25 e2 bd c0 88 2d 3e
       -0.041252535 0.08651568 -0.110422805 0.16946697
0000b0 7e d8 dd bd 47 98 7d 3d 80 e8 d6 3d 30 4a b2 3d
       -0.10832308 0.0619128 0.104935646 0.087055564
0000c0 15 bb 1f 3c a1 52 8d 3d 23 29 02 be bf 3b c4 bd
       0.009749194 0.06900526 -0.12711005 -0.09581708
0000d0 f1 a2 1a 3e 00 5c 36 be ca 99 c2 bc 17 69 eb bd
       0.1510122 -0.17808533 -0.023754973 -0.11494654
0000e0 48 05 27 3d 95 43 0b 3e 35 9a 03 3e df df ea 3d
       0.04077652 0.13599999 0.12851794 0.11468481
0000f0 4c 88 95 3d 0b e4 6c 3d 91 ef 61 bc 7d 9a f2 3b
       0.07301387 0.057834666 -0.013790027 0.0074036703
000100 aa 65 a1 b7 41 ab 11 3e ca 2d 0a bd d0 d7 22 3d
       -1.9240037e-05 0.14225484 -0.033735074 0.039756596
000110 cd d8 73 3a cc ca 97 3d 6d 6f 25 be 1d 56 e3 bd
       0.000930202 0.07411727 -0.16155787 -0.11100409
000120 fd 5e 24 3e d4 54 d1 bd 20 05 ad bd 2a 27 09 bd
       0.1605186 -0.10221258 -0.08448243 -0.033484615
000130 1c ea 02 be d3 9e a6 bd 69 68 78 3c aa 6d 12 be
       -0.12784618 -0.08135762 0.015161612 -0.14299646
000140 eb cd c0 3d f4 5d cf bc 06 a7 6d 3c a8 75 e5 bd
       0.09414276 -0.025313355 0.0145051535 -0.11204082
000150 f3 ab a8 bd be 61 c9 39 8c d6 f7 3d 87 cc b8 bd
       -0.08235922 0.0003841053 0.121014684 -0.090233855
000160 62 d4 c2 3d 80 95 2a ba 08 a7 e3 3c d5 31 49 3d
       0.09513165 -0.00065072626 0.027789608 0.04911979
000170 68 07 49 3c 55 dd ee bd f5 98 93 b9 a3 5b a6 3d
       0.012269832 -0.116633095 -0.00028151987 0.08122947
000180 33 1f f0 3c f4 bb f5 3d 63 a3 56 3e 5b 9a 05 bd
       0.029311752 0.1199874 0.20960765 -0.032617908
000190 b0 c0 6d bc c8 dd 9c bd e5 2b 9e 3d 98 12 c9 bd
       -0.014511272 -0.07659489 0.07723216 -0.098179996
0001a0 c4 9e 31 be bc ab 25 be 65 14 89 bd fa 70 0e be
       -0.1734572 -0.16178793 -0.06693343 -0.13910285
0001b0 c6 e6 81 bd 2a 79 b7 3d 2a 61 d5 3c 2f e8 2f 3d
       -0.06342845 0.08958657 0.026047308 0.042946037
0001c0 34 30 c8 bc bf 4b 01 3e 63 f7 0c bd 40 fd 27 3e
       -0.024437048 0.12626551 -0.034415614 0.16405201
0001d0 41 4e 17 3e 69 68 ee 3d 30 27 d9 bd 53 e8 05 be
       0.14775945 0.116410084 -0.106031775 -0.13076906
0001e0 d5 ec ad bd 51 72 d7 3d 41 e4 67 bd 6b 84 23 3d
       -0.08492438 0.10519851 -0.056614164 0.039921205
0001f0 a5 96 8c 3a 5d 2d d3 3d ca e1 11 3e a0 90 83 bd
       0.0010726048 0.10311387 0.14246288 -0.064240694
000200 ed 1c ce 3c d4 a4 0e 3e ab 59 34 3e 53 1d 15 be
       0.025160277 0.13930064 0.1761233 -0.14561968
000210 98 21 25 3e b5 4a 18 3e 31 d8 06 3e 93 49 fe bd
       0.16126096 0.14872248 0.13168408 -0.12416377
000220 18 17 e3 bd 15 46 05 3e a1 f5 34 be 75 11 8d bd
       -0.11088389 0.13015015 -0.17671825 -0.06888095
000230 a8 21 05 be 15 4a 76 bd b6 b6 ac bd e7 3c 1a be
       -0.1300112 -0.060129244 -0.08433287 -0.15062295
000240 74 93 8d 3d 06 75 68 bd 75 14 64 bc 4a 87 bb bc
       0.0691289 -0.056752227 -0.013920893 -0.02289166
000250 39 22 cb 3c d1 59 ef bd 5a cb 04 3e f6 8a a1 3d
       0.024796592 -0.11687053 0.12968197 0.07887833
000260 b3 a8 ca 3d 67 d4 32 be 1e 85 86 bd 4d 96 a5 bc
       0.09895458 -0.17463838 -0.06568359 -0.02021327
000270 92 02 0e bd 1e b4 e0 3d 0f 2c 87 bd 94 c1 ad bd
       -0.03467042 0.109718546 -0.066002004 -0.08484188
000280 74 66 dd bd 3e cf f4 3b fd fb fa 3e 7f 3f 12 3e
       -0.10810557 0.0074709943 0.49020377 0.14282034
000290 dc 9d a1 bd 50 71 e7 3c 5d 0b 5c bc af 74 ca 3c
       -0.078914374 0.028252274 -0.013430444 0.024713842
0002a0 38 1b 7b bd ae ba 30 3d e4 2b d3 bd e5 70 49 3d
       -0.061305255 0.04314678 -0.10311106 0.04917993
0002b0 ee 30 1f 3d b4 a8 96 bd 22 cd 66 3d 29 1d 15 bb
       0.038865022 -0.07356396 0.056347974 -0.0022752977
0002c0 7c c6 78 bd 92 cb 6a 3d 51 b4 90 bd e4 87 f5 3d
       -0.060736164 0.057323046 -0.070656426 0.1198881
0002d0 e0 4c b3 bd 22 bb cc bd 44 94 e9 bd f4 a6 3f bd
       -0.08754897 -0.0999663 -0.114052325 -0.04679008
0002e0 63 86 ad 3c d2 9e 0a 3e 59 f1 c4 3d 2c 63 27 be
       0.021182245 0.13537148 0.09616346 -0.16346425
0002f0 a2 7f 2f 3e bd 16 2e 3d a3 ae 95 bd c6 a2 ec bd
       0.17138532 0.042502154 -0.073087 -0.11554484
000300 10 a4 91 bd 78 d0 e8 3d a8 55 69 3d c8 47 33 3e
       -0.071113706 0.11367887 0.056966454 0.17507851
000310 72 c5 e8 3c 4e 04 1f 3d 03 6d bd bd 27 5a 0a 3e
       0.028414462 0.038822465 -0.09249308 0.13510953
000320 1c f1 02 3e 18 43 51 3d 2e 31 26 bd 26 a7 3e 3d
       0.12787288 0.051089376 -0.040574245 0.046546124
000330 64 40 b1 3d 56 9b ad 3d ad 20 40 bd b1 24 3a 3d
       0.0865486 0.084768936 -0.046906162 0.045445148
000340 68 4e 01 3e e7 a9 d6 bd 3f c5 9b bd 60 15 3b be
       0.12627566 -0.10481625 -0.07605981 -0.18269873
000350 ed 5c 00 be 75 be ff 3d 86 8b ef 3d 65 b3 a3 bb
       -0.12535448 0.12487499 0.11696534 -0.0049957507
000360 a5 42 04 3e 57 12 47 3e 4e 0b 6a bc 4e 7c 1f 3e
       0.12916048 0.1944059 -0.014284922 0.15574762
000370 d3 39 fa bc 6b 5e da 3c 59 8f 46 3d 67 4f 4e bd
       -0.03054515 0.02665635 0.04847655 -0.050368693
000380 46 4c d5 bd 98 65 0f be 9e 93 70 3e 91 50 df bc
       -0.10414939 -0.14003599 0.23493811 -0.027260097
000390 8c a9 24 3e 27 d8 00 bd 41 b9 2e 3d c2 3d 67 3d
       0.16080302 -0.03145614 0.04265714 0.05645538
0003a0 9d 07 6e 3d 7b a0 ce 3d 19 a6 1e be 75 8b e9 3d
       0.05811273 0.10089203 -0.15493049 0.114035524
0003b0 e7 cc d1 bd 77 83 b3 3b 70 e7 7c 3d ea 2b ce bd
       -0.1024416 0.0054783183 0.061744153 -0.1006697
0003c0 c6 f3 17 3e 28 19 1f 3e 75 7f 9e bd 1d 0b a7 3d
       0.14839086 0.1553694 -0.07739154 0.081564166
0003d0 96 8a 0c 3e 7c 22 51 bd 43 f6 8d 3d 21 b0 09 bd
       0.13724741 -0.051058277 0.06931736 -0.033615235
0003e0 36 0b 0c be f9 9c 08 be ce 0e 27 3d 89 e5 d9 3d
       -0.13676152 -0.1334113 0.040785603 0.106394835
0003f0 69 51 12 bc 0a 7a 24 3e 24 d1 c2 bd 3a b0 15 be
       -0.0089305425 0.16062179 -0.09512547 -0.14618006

enc.2.bias f4 [32]
000000 8e a0 bc 3b 53 51 8c 3d 00 a5 a8 bd b0 ce 31 bc
       0.0057564443 0.06851449 -0.08234596 -0.010852501
000010 a3 1a 24 be 51 4d 92 3d 51 1f 20 3e b9 9b 27 3e
       -0.16025786 0.07143653 0.15636946 0.16367997
000020 ba 22 24 be c0 e6 e9 bd 68 4c 89 3d 63 b1 bf bd
       -0.16028872 -0.11420965 0.067040265 -0.09360006
000030 58 25 df bd da fa f7 3b fc 78 f7 bd dc a5 c6 bb
       -0.10895795 0.0075677456 -0.12083623 -0.0060622524
000040 a9 7e 6c bd 23 66 2a 3e ec e7 1f bd 1a 6a 02 3e
       -0.05773798 0.16640525 -0.039039537 0.12735787
000050 cc 32 f5 bd 61 aa ab 3d b0 c3 a7 bd c5 d6 05 3e
       -0.11972579 0.083821066 -0.08191621 0.1307021
000060 79 f5 fa 3d 14 84 e5 3d 76 e9 98 bc 3e 9a ae bd
       0.122538514 0.112068325 -0.01866601 -0.08525513
000070 1b 1a 8c 3d 40 91 ad bd c3 ce c2 bd 55 92 7f 3d
       0.06840917 -0.0847497 -0.09512093 0.062395412

enc_mean.weight f4 [12, 32]
000000 97 be 98 3d ce 5e 1e be a1 52 15 be 10 71 a6 bd
       0.07458227 -0.15465853 -0.14582302 -0.08127034
000010 8e 46 87 bb 9e 28 62 3d fa 8f 05 3d 3a be 6b 3c
       -0.004128284 0.055214517 0.03260801 0.014388615
000020 33 d6 24 be 75 10 1e 3e 5c a2 93 bd 04 af d5 3c
       -0.16097336 0.15435965 -0.07208702 0.02608443
000030 4c c1 00 3e 03 6c b6 bd 44 d1 81 bd e6 56 e9 bd
       0.12573737 -0.0890732 -0.063387424 -0.11393528
000040 11 54 05 3d e4 64 ae bd 28 15 fa bd dd 13 d6 bc
       0.032550875 -0.08515337 -0.122110665 -0.026132518
000050 52 50 2a be 29 11 9f bc 19 8b e6 3d 95 3e 97 bd
       -0.16632202 -0.019417362 0.112569995 -0.073849835
000060 1c 68 5b bc 43 8c 44 bc 8c 43 05 3d 7e e3 3a 3d
       -0.013391521 -0.011996332 0.03253512 0.04562711
000070 4d 7c fc bc ce 68 e8 bc db 65 4a bd 6a df 70 3c
       -0.03082099 -0.028370287 -0.049413543 0.014701704
000080 37 0b b0 3d 41 f6 c8 3d 38 4d f2 bd ff 8b 00 ba
       0.08595889 0.09812594 -0.118311346 -0.00049036735
000090 09 c9 cf bc 9c b5 0d 3e a2 63 0f be 7e fe 3d be
       -0.025364416 0.1383881 -0.1400285 -0.18554112
0000a0 98 c5 e7 3d b8 c2 39 3d b0 a0 16 bd 72 c3 c0 bd
       0.11316985 0.045351714 -0.036774337 -0.09412278
0000b0 ea 3b e6 bc d0 98 05 be 6c 24 84 3d 42 ad d2 3d
       -0.028104741 -0.13046575 0.064522594 0.102869526
0000c0 7b af af 3d e6 c9 d6 bd c2 1f db 3d c0 94 02 be
       0.08578392 -0.10487728 0.10699417 -0.12752056
0000d0 4a f4 9d bd 68 90 b0 3d c3 a1 15 3d 7e d8 94 3d
       -0.0771261 0.08621293 0.03653122 0.07267855
0000e0 b5 9c 97 3d 30 01 0a 3d 9f 49 2e 3c 36 07 f8 3d
       0.07402936 0.03369254 0.01063767 0.121107504
0000f0 a3 ef 13 3d 9e bb 69 3d bc 5c 58 bc e5 e7 75 bd
       0.036117207 0.05706369 -0.013205703 -0.060035605
000100 64 29 23 be 60 d8 7a 3d 88 02 d6 bd 82 8c e6 bc
       -0.15933758 0.061241508 -0.104497015 -0.028143171
000110 f0 4a 27 bd 16 23 1f 3e 52 d7 87 3d 2c b9 09 bb
       -0.04084295 0.15540728 0.06632866 -0.0021014912
000120 f1 08 1f be b0 58 7e bd 54 33 0f 3e 3f 3a 8d bd
       -0.15530755 -0.062096298 0.13984424 -0.06895875
000130 48 ec 14 3c bc c4 a5 3d 1c c1 28 3d 42 41 0f be
       0.009089537 0.08094165 0.04119979 -0.13989738
000140 36 a3 63 3d 5e 87 a5 3d 99 29 73 bd 4d 2c 21 be
       0.055575572 0.0808246 -0.059365842 -0.15739556
000150 c6 af bd bd e2 b6 77 bd 4f af d0 bd fe 17 cf bc
       -0.09262042 -0.060477145 -0.101896875 -0.025279995
000160 57 b4 f4 39 3a ea 66 bd e3 1c f1 3d 6d 5e 86 3d
       0.0004667367 -0.05637572 0.11773088 0.06560979
000170 a9 71 f4 3d 78 9c 98 3d 72 a4 a3 3d 4b 95 a1 3d
       0.119357415 0.07451719 0.0799035 0.078898035
000180 20 fa d3 3d 7a ff 23 3e 74 a6 96 3d 81 b9 b3 3d
       0.10350442 0.16015425 0.07355967 0.087756164
000190 e5 4f 9d bd 2a 6e 80 3c a4 13 ea 3c 51 61 28 be
       -0.07681254 0.01567753 0.028573819 -0.16443373
0001a0 cc e0 fc bd cb e2 30 3e 37 6b db bd 5e d2 80 bd
       -0.12347564 0.17274015 -0.10713809 -0.06290124
0001b0 5a cf 08 be 03 2b 9d 3d 79 4b 85 bd 1b e3 14 be
       -0.13360348 0.076742195 -0.06508536 -0.14539759
0001c0 83 52 3d ba 23 a2 a0 bd d7 b2 c0 3d e6 e4 18 be
       -0.0007222073 -0.07843425 0.09409111 -0.14931068
0001d0 20 bb 12 3d 45 0d 70 bd 9b 11 25 bd 01 dd 1a 3e
       0.035822988 -0.058606405 -0.040299993 0.15123369
0001e0 86 72 1f be 86 e8 22 3d 83 cd ae 3d 88 fe 8d 3d
       -0.15571031 0.039772533 0.08535292 0.069333136
0001f0 d6 39 62 3e 1c d2 fa 3d fe 31 d3 3d ec c6 49 3d
       0.22092375 0.122471064 0.1031227 0.049261972
000200 dc 27 ed 3d 6b fd 97 bd f6 64 ee bd 24 a6 25 3d
       0.11579868 -0.074213825 -0.116403505 0.040441647
000210 f7 b5 25 bd 5d df 87 bd 9c cb 81 3d 7d b0 f4 3d
       -0.04045674 -0.066344 0.063376635 0.11947725
000220 52 35 26 3e 8b 6c 24 3e 66 14 0e ba cf b6 1d 3e
       0.16231278 0.16057031 -0.000541991 0.15401767
000230 2d 84 4c bd 8d 6d 23 bd 57 d9 b5 3b a2 2a dc bd
       -0.04993074 -0.039899398 0.0055495906 -0.10750319
000240 08 57 2d be f1 87 01 3e 8d 0b b1 bd 97 a6 bf 3d
       -0.16927731 0.12649514 -0.08644781 0.09357946
000250 82 00 63 3b e3 0c 12 bd eb 73 3a bc 7e e7 ca 3d
       0.0034637754 -0.03565682 -0.011380176 0.09907435
000260 78 e0 a5 bd 28 91 87 3d f6 24 1a bd 36 d3 ff bd
       -0.08099455 0.06619483 -0.037632905 -0.12491457
000270 15 2a 03 be 8d 79 e1 3d 3a 2d 84 ba f2 c7 56 3d
       -0.12809022 0.11009512 -0.0010084279 0.052436776
000280 24 ac 0e be 1d be 71 bc 4b 22 5f 3c 7e d9 9f bb
       -0.13932854 -0.014754799 0.013619016 -0.004878222
000290 11 33 c6 3d 46 92 56 bd 44 62 a3 3d 77 51 4b 3e
       0.09677709 -0.05238559 0.07977727 0.19855295
0002a0 77 3b 1b 3e 9d da 02 3e 70 50 66 bd 3e a2 27 3e
       0.15159403 0.12778707 -0.056229055 0.16370484
0002b0 6a 17 31 be 94 2e 8c bd d2 21 c7 bd 9d 9a 25 3e
       -0.17294088 -0.068448216 -0.097232476 0.16172262
0002c0 67 b7 bc 3d 42 3f 47 3e ef e6 9f ba d9 3b ac 3d
       0.09214669 0.19457725 -0.0012199561 0.084098525
0002d0 f9 21 2c 3e eb aa b9 bc 82 84 1d 3e 4e 1d 6e 3d
       0.16809835 -0.022664508 0.15382579 0.058133416
0002e0 8f 8d 4d bd 89 60 15 be 93 b5 56 3e fe 69 b8 bd
       -0.05018383 -0.14587606 0.20967703 -0.090045914
0002f0 12 db 2f 3e 5a 73 05 bd e4 f0 3c be 90 83 9c 3c
       0.17173412 -0.03258071 -0.18451267 0.019105703
000300 90 45 c5 bd 15 cf e0 bc b9 34 31 3d 6f d3 89 39
       -0.096324086 -0.027442494 0.04326317 0.00026288207
000310 6f 53 32 3e 74 58 60 3d a1 ac e9 3c c3 8d 1d 3e
       0.1741464 0.054771855 0.028524699 0.15386109
000320 0a 86 ab bd 63 c9 0f 3e 4d f5 98 bc b0 29 c3 bc
       -0.08375175 0.14041667 -0.018671656 -0.02382359
000330 a4 c2 d9 bd 6b f1 10 3e a8 8f df 3c 2a d5 e7 3c
       -0.10632828 0.14154594 0.02729018 0.028299887
000340 36 e1 6c bd fc 08 3b 3e 7e 53 95 3d b0 8a a8 3d
       -0.057831965 0.18265146 0.072913155 0.082295775
000350 16 35 06 be 9b b4 6f 3c af 92 18 3e 61 1c 03 bc
       -0.13106188 0.014630462 0.14899705 -0.0080023715
000360 b6 09 77 bd 72 82 21 3e 44 7b f3 bd 87 72 07 be
       -0.060311995 0.15772417 -0.118887454 -0.13227282
000370 a5 9c 88 bc a4 89 26 3e 8d 69 d8 3c eb 7f ec bd
       -0.016676256 0.16263443 0.026417518 -0.11547836
000380 12 21 b0 bd 4f 8f 0f 3e 44 7c 1d 3e 94 ad f7 bc
       -0.08600058 0.14019512 0.15379435 -0.030234136
000390 58 56 0c 3e d6 e2 2a 3d 2f e3 f5 3c 8a 6d 98 3d
       0.13704813 0.041720234 0.030015556 0.07442768
0003a0 92 82 24 be b5 61 11 be b8 fa e7 bc 86 7d fe 3d
       -0.16065434 -0.14197429 -0.028317794 0.124262854
0003b0 9d 69 f6 3d 9b 50 d8 3d b9 98 89 bd 49 44 f8 3d
       0.12031863 0.10562249 -0.06718583 0.12122399
0003c0 5c 95 49 3d f0 f6 96 3d 12 33 d6 bd f3 a2 34 bd
       0.049214706 0.07371318 -0.1045896 -0.044100713
0003d0 60 3d bd bd 3f 02 9b bd 18 e2 9c bd eb 4b 5f ba
       -0.09240222 -0.07568788 -0.076603115 -0.00085180876
0003e0 84 7e 90 bd 91 28 48 3d 34 cf 9a bd 4f 3b 4a bd
       -0.07055381 0.048866812 -0.07559052 -0.049372967
0003f0 b0 97 70 3b fc 03 27 bc 85 dd e1 3d 28 95 3b be
       0.0036711507 -0.010193821 0.110285796 -0.18318617

enc_mean.bias f4 [12]
000000 90 86 5c bd 8d 3b 17 3d fa d2 9f bc ef 26 20 3e
       -0.053839266 0.036922026 -0.019509781 0.15639852
000010 a8 ba 8d 3d 8c 85 0f be 10 e8 28 be bd e6 16 3e
       0.069203675 -0.14015788 -0.16494775 0.14736457
000020 d6 1f f3 b8 f8 f4 00 be a3 78 7c 3d 35 a0 2c 3d
       -0.00011593073 -0.12593448 0.061638486 0.042144973
