varRNN/VariationalRNN/VariationalRecurrentNeuralNetwork-master/saves/vrnn_state_dict_41.pth (torch, 92942 bytes, 30 tensors)

phi_x.0.weight f4 [32, 12]
0	0x3e757c94	0.23973304
1	0xbd866d62	-0.06563832
2	0xbd81c58c	-0.06336507
3	0xbe8c513a	-0.2740572
4	0x3d85b653	0.06528916
5	0xbdbfae8d	-0.09359465
6	0x3d6f888b	0.058479827
7	0x3e76dc0e	0.24107382
8	0xbe5c1a0f	-0.21494316
9	0x3e371878	0.17880428
10	0xbe1925a5	-0.14955766
11	0xbe37717f	-0.17914389
12	0xbda85cac	-0.08220801
13	0xbd951aec	-0.072805256
14	0x3e9223f5	0.28543058
15	0x3d449eff	0.048003193
16	0xbca90b1f	-0.020635186
17	0x3e740c52	0.23832825
18	0xbca236db	-0.019801548
19	0x3e0c231f	0.13685273
20	0xbe623862	-0.22091821
21	0xbe8f0042	-0.27929884
22	0xbe917637	-0.28410503
23	0x3e8e405f	0.27783486
24	0xbe543d14	-0.20726424
25	0x3e1135bc	0.14180654
26	0xbdca40c1	-0.09875632
27	0x3da4e7cc	0.08052024
28	0x3e011ffe	0.1260986
29	0xbe3bfa68	-0.18357241
30	0xbd8be29e	-0.06830333
31	0xbe8a1fbf	-0.26977345
32	0xbe714de6	-0.23564872
33	0xbc1d4078	-0.00959789
34	0xbce78801	-0.028263094
35	0x3e07e7d7	0.13272034
36	0xbe580baa	-0.210982
37	0x3e1cc64e	0.15310022
38	0x3e5acf74	0.213682
39	0xbe653170	-0.2238214
40	0xbd9309f0	-0.0717963
41	0x3c2817ef	0.010259612
42	0xbe5e26ab	-0.21694438
43	0xbe6246b9	-0.22097291
44	0x3d069f0c	0.032866523
45	0xbe69ca95	-0.22831185
46	0x3e805dc9	0.25071552
47	0xbe0d8dcc	-0.13823622
48	0xba8401ca	-0.0010071334
49	0x3e5f7ec4	0.21825701
50	0xbdb93917	-0.09044092
51	0x3e5f6a91	0.21817996
52	0x3d178df4	0.03700061
53	0x3e95121b	0.29115376
54	0x3e95f209	0.2928622
55	0xbbd1f9ee	-0.006407968
56	0xbd83fb0a	-0.06444366
57	0x3e39485e	0.18094012
58	0xbe0c3d7a	-0.13695326
59	0x3e0bab9a	0.1363968
60	0xbbea4b4a	-0.0071500884
61	0xbd593029	-0.053024445
62	0x3dd199b7	0.10234397
63	0x3e853b9c	0.2602204
64	0xbe5510a9	-0.20807137
65	0x3e1a2211	0.15052058
66	0x3eec49d2	0.4615007
67	0xbe71fc21	-0.23631336
68	0xbd83fa63	-0.06444242
69	0x3e7f9f8d	0.24963208
70	0xbe738f73	-0.2378519
71	0x3e365ba3	0.17808394
72	0xbdbfefb2	-0.0937189
73	0x3db76654	0.089550644
74	0xbe07a9bd	-0.13248344
75	0xbe88de05	-0.26731887
76	0x3d1c7bf2	0.03820414
77	0x3dda8b50	0.10671103
78	0xbe96c484	-0.29446805
79	0x3ea5ac0c	0.32357824
80	0x3e489b59	0.1959051
81	0x3d182a74	0.03714986
82	0x3e8b4988	0.27204537
83	0x3d6a6c50	0.0572322
84	0xbe807cb0	-0.2509513
85	0xbdeabac8	-0.11461407
86	0x3c59d170	0.013294563
87	0x3d92d463	0.07169416
88	0x3e03e255	0.12879308
89	0xbd8283a4	-0.06372765
90	0x3e7c03d9	0.24610843
91	0x3cb6b2bc	0.022302024
92	0x3d104793	0.03522451
93	0x3e088694	0.13332587
94	0x3e00f261	0.1259246
95	0xbc9e47bd	-0.019321317
96	0x3d8a0a64	0.06740263
97	0xbde7ee4a	-0.11324747
98	0x3e00f997	0.12595211
99	0x3e872c83	0.26401147
100	0xbdeab9c5	-0.11461214
101	0x3e726257	0.23670326
102	0x3e615e98	0.22008741
103	0xbce00974	-0.027348258
104	0xbe044028	-0.12915099
105	0xbdf77a5c	-0.12083885
106	0x3d807967	0.06273156
107	0xbdea7ec4	-0.1144996
108	0xbdbdc955	-0.09266917
109	0x3e5fdabd	0.21860786
110	0xbe1d5ce6	-0.15367469
111	0x3dfb2885	0.12263588
112	0x3d31bfd0	0.043395817
113	0x3e5401e0	0.2070384
114	0x3e3554c7	0.17708121
115	0x3d640ee4	0.055678263
116	0xbe271c74	-0.16319448
117	0x3e3b21f1	0.18274666
118	0x3e8a3a41	0.2699757
119	0xbe4bc84e	-0.19900629
120	0xbd4ec887	-0.050484207
121	0x3e36720c	0.17816943
122	0x3e2c0185	0.16797455
123	0x3e723c9d	0.23655935
124	0x3dbe7af7	0.093007974
125	0x3e8a0a91	0.26961187
126	0x3e7c598b	0.24643533
127	0x3deb24eb	0.11481651
128	0xbe0e31f7	-0.13886248
129	0x3e24596f	0.16049741
130	0xbd281819	-0.041038606
131	0xbd7cef0c	-0.06175141
132	0x3e9bbbe3	0.30416784
133	0x3e84af44	0.25914967
134	0xbde52038	-0.11187786
135	0x3e66b1fc	0.22528833
136	0xbdbc963e	-0.09208344
137	0xbcdbc206	-0.026825916
138	0xbd781b10	-0.060572684
139	0xbe204af9	-0.156536
140	0x3e54e29b	0.20789568
141	0xbdcd9218	-0.10037631
142	0xbdffccfc	-0.124902695
143	0x3e7eb979	0.2487544
144	0xbe60d3c5	-0.21955784
145	0xbe8bee46	-0.27330226
146	0xbdf83100	-0.12118721
147	0xbd495a0c	-0.04915814
148	0x3e6c6504	0.2308541
149	0xbe62ae75	-0.22136863
150	0xbe77fed3	-0.24218301
151	0x3e851412	0.25991875
152	0xbe3487e8	-0.17629969
153	0x3d812fc2	0.06307937
154	0xbe539903	-0.20663838
155	0x3e5b3692	0.21407536
156	0xbe3b5da2	-0.18297437
157	0x3e8fc16c	0.28077257
158	0x3d7f24ec	0.06229107
159	0xbdd71846	-0.10502677
160	0xbe8a0e9e	-0.26964277
161	0x3dce7a08	0.10081869
162	0xbe1a2b03	-0.1505547
163	0xbe50ac53	-0.20378236
164	0x3e9bf836	0.30462807
165	0xbe409198	-0.1880554
166	0x3e8d4355	0.27590433
167	0xbddcdcde	-0.107843146
168	0xbceb83ef	-0.028749434
169	0xbe5feaf5	-0.21866973
170	0x3e8d8296	0.27638692
171	0x3e6d3f08	0.23168576
172	0x3e704c5c	0.23466629
173	0xbdfb2e48	-0.12264687
174	0x3e2f2126	0.17102489
175	0x3ea932d2	0.33046585
176	0xbc8e5bee	-0.01737782
177	0xbe835845	-0.25653282
178	0xbdf55cd0	-0.11980593
179	0x3eab8234	0.33497775
180	0xbdc14a9c	-0.09438059
181	0x3dc5cb44	0.096579105
182	0x3d76e585	0.06027748
183	0x3e3a6e66	0.18206176
184	0x3e8a1c61	0.26974776
185	0x3d21c502	0.039494522
186	0x3ecd98d3	0.40155658
187	0x3e9596a9	0.29216507
188	0x3c97a0af	0.018509237
189	0x3e0489cb	0.12943189
190	0xbe390393	-0.1806777
191	0xbc7c9c3e	-0.01541811
192	0xbdc5c8c7	-0.09657436
193	0x3dfd0540	0.12354517
194	0x3db8a454	0.09015718
195	0x3d56949f	0.05238783
196	0x3e120b5e	0.14262149
197	0x3dc36de4	0.09542444
198	0xbe882ac0	-0.26595116
199	0x3d476b06	0.04868605
200	0x3e376059	0.17907847
201	0x3e19c8ea	0.15018049
202	0xbe24a57a	-0.1607875
203	0xbe1218ef	-0.14267324
204	0x3e2aaafc	0.16666788
205	0x3e0f44a2	0.13991025
206	0x3dc42a7d	0.095784165
207	0x3d2c53e1	0.04207218
208	0x3e4bdbd6	0.1990808
209	0xbe917f32	-0.28417355
210	0x3cc98b8b	0.024602672
211	0x3e24cc27	0.16093503
212	0xbe39e9d6	-0.18155608
213	0xbe50fc04	-0.20408636
214	0xbdc3ab55	-0.09554163
215	0xbe801d6a	-0.2502244
216	0xbc8e307b	-0.017357102
217	0xbe826c83	-0.25473413
218	0xbd09017c	-0.03344868
219	0x3dea29c8	0.114337504
220	0x3e582c3b	0.21110623
221	0xbce6ef96	-0.028190415
222	0xbdaa9253	-0.083286904
223	0xbe6b5e84	-0.22985274
224	0x3e5911cd	0.21198197
225	0xbe370e34	-0.17876512
226	0x3e56718f	0.20941757
227	0xbe8c72ba	-0.2743128
228	0xbd594704	-0.05304624
229	0xbd615e47	-0.05502155
230	0xbe8033f2	-0.2503963
231	0xbe1251ab	-0.14288966
232	0x3e28394e	0.1642811
233	0x3dcaa667	0.0989502
234	0x3dc3c958	0.09559888
235	0x3e6e126a	0.23249212
236	0xbe8bc673	-0.27299842
237	0x3dab7b67	0.083731465
238	0xbe7e46eb	-0.2483174
239	0x3d41b627	0.047292855
240	0xbd156b66	-0.036479376
241	0x3c8a4356	0.016877811
242	0xbd0974dc	-0.03355871
243	0x3e925e48	0.28587556
244	0x3ca8cae3	0.020604556
245	0x3d6b9a39	0.057520125
246	0x3ea34edd	0.31896105
247	0x3c98ab4a	0.018636364
248	0x3dc5651b	0.09638425
249	0x3e190bba	0.1494588
250	0x3e295dbd	0.16539665
251	0x3dda2185	0.106509246
252	0x3e992782	0.29912955
253	0x3e07099e	0.13187262
254	0xbd94aeef	-0.072599284
255	0x3e811e94	0.25218642

phi_x.0.bias f4 [32]
0	0x3e5ebbfe	0.21751401
1	0x3e2e2fec	0.17010468
2	0xbe3f116e	-0.18658993
3	0xbe620d78	-0.2207545
4	0x3d05cb83	0.032664787
5	0xbe1112be	-0.14167306
6	0xbdcb6825	-0.09931973
7	0x3dfcc7f9	0.12342829
8	0x3dc077ce	0.09397851
9	0xbd98b31e	-0.07456039
10	0xbe403ed9	-0.18773974
11	0xbe207e76	-0.15673241
12	0xbd33d15d	-0.043900836
13	0x3e971ef2	0.29515797
14	0xbe31f50e	-0.17378637
15	0xbe0bd74f	-0.13656352
16	0x3e94e858	0.29083514
17	0x3e963baf	0.2934241
18	0xbe179d59	-0.14806117
19	0x3dadb66e	0.08482061
20	0xbe70f448	-0.23530686
21	0x3d69b380	0.05705595
22	0x3e2a325d	0.16620775
23	0x3c859e49	0.016310828
24	0x3d8e17eb	0.06938156
25	0x3d7ff4b4	0.062489226
26	0x3e309e5b	0.17247908
27	0xbc9d453a	-0.019198049
28	0xbe0e2d3b	-0.13884442
29	0x3e338859	0.17532481
30	0x3df39c16	0.118950054
31	0x3d896b48	0.067099154

phi_x.2.weight f4 [32, 32]
0	0x3de3575a	0.11100645
1	0x3e2561e0	0.16150618
2	0x3cc6ee24	0.024283476
3	0x3e311380	0.17292595
4	0xbde8f394	-0.11374584
5	0xbd0dbc00	-0.03460312
6	0x3c75455d	0.014970151
7	0x3ded03e3	0.11573007
8	0xbdbce3e1	-0.09223152
9	0x3e1530ae	0.14569351
10	0xbe640f2c	-0.22271413
11	0xbe1c224f	-0.15247463
12	0x3e0ff2f8	0.14057529
13	0x3dc99ed6	0.09844749
14	0xbd99ea06	-0.075153396
15	0xbe14c6cc	-0.1452896
16	0x3dcd3a00	0.10020828
17	0xbde24a7a	-0.110493615
18	0xbe141683	-0.14461713
19	0xbdf3b34c	-0.118994325
20	0xbd83da93	-0.06438174
21	0x3e02fa6e	0.12790844
22	0x3e0b7e27	0.13622342
23	0x3ae16b8b	0.0017198188
24	0x3d9f9ba7	0.0779336
25	0xbbc024e0	-0.005863771
26	0x3d4bb129	0.0497295
27	0xbcbf08fc	-0.023319714
28	0x3e14cb43	0.14530663
29	0x3c26e5d8	0.010186635
30	0xbd25936b	-0.04042379
31	0xbe17ba0b	-0.14817064
32	0xbdc6fbac	-0.09715971
33	0xbd20a96b	-0.03922407
34	0xbe2f1ceb	-0.17100875
35	0xbd76914d	-0.060197163
36	0xbda156a0	-0.078778505
37	0xbd830cc2	-0.06398918
38	0xbe0a4fa0	-0.13506937
39	0x3cd8b35b	0.02645271
40	0xbe2f492c	-0.17117757
41	0x3c9d8937	0.019230468
42	0x3d7af068	0.061264426
43	0xbdb56bbc	-0.08858439
44	0xbdd45cb9	-0.10369248
45	0x3d38e4d2	0.045140095
46	0x3dff5285	0.12466911
47	0xbd1ee48f	-0.03879219
48	0x3e0ac660	0.13552237
49	0xbdaf200d	-0.08551035
50	0xbd39d3b6	-0.04536792
51	0x3e2f7198	0.17133176
52	0x3d4a32d3	0.049364876
53	0xbbedda34	-0.007258678
54	0xbe126c23	-0.14299063
55	0x3e18622f	0.14881204
56	0xbb235668	-0.0024923328
57	0x3df4589c	0.119309634
58	0xbd31eb44	-0.043437257
59	0x3d5667ba	0.052345015
60	0x3e342a40	0.17594242
61	0xbd9203eb	-0.071296535
62	0xbdcb50f5	-0.09927551
63	0xbd7af808	-0.061271697
64	0xbd978f0e	-0.074003324
65	0xbc92b98c	-0.017910741
66	0xbd762621	-0.060094956
67	0x3e0db6cf	0.13839267
68	0xbd298130	-0.04138297
69	0x3da2d7cd	0.07951317
70	0xbd9d84b8	-0.0769133
71	0xbe19f463	-0.15034632
72	0xbe42f5b3	-0.1903904
73	0xbdea27af	-0.1143335
74	0xbd82d641	-0.06388522
75	0x3da03373	0.07822313
76	0x3db9be8b	0.09069546
77	0x3d9f62f4	0.07782546
78	0xbd4dc8fb	-0.050240498
79	0x3e2388f9	0.1597022
80	0xbe06a22b	-0.131478
81	0xbd86bffb	-0.06579586
82	0xbe158e92	-0.14605168
83	0x3da43089	0.0801707
84	0xbe1f5515	-0.155598
85	0x3bd5436f	0.006508283
86	0xbdbff4c0	-0.09372854
87	0x3dcf0f54	0.101103455
88	0x3dcbc261	0.09949184
89	0xbdf68290	-0.120366216
90	0x3e2d4b56	0.1692327
91	0xbe2657f5	-0.1624449
92	0xbc9a012e	-0.01879939
93	0xbdb76850	-0.08955443
94	0x3af875ab	0.0018955966
95	0xbdc46b18	-0.09590739
96	0x3d0a773c	0.033805117
97	0x3c999938	0.018749818
98	0xbdb87bb2	-0.09007968
99	0xbe2f91ef	-0.17145513
100	0xbe4913b8	-0.19636428
101	0x3db6f68c	0.08933744
102	0xbd5970ba	-0.05308602
103	0xbdc89aaf	-0.097951286
104	0xbb7614b6	-0.0037548966
105	0x3dd338dd	0.1031358
106	0xbcff74d8	-0.031183645
107	0xbe3e3a7a	-0.18576995
108	0x3dcd93d0	0.100379586
109	0x39845dbd	0.00025246842
110	0x3cc9825c	0.024598293
111	0x3d97388b	0.073838316
112	0xbdadc8aa	-0.08485539
113	0x3d7486a5	0.05969872
114	0xbe0ab457	-0.13545357
115	0x3cdfe820	0.027332366
116	0x3dc149f5	0.09437934
117	0x3ca415a4	0.02002985
118	0xbd402b3e	-0.04691624
119	0xbd03f93c	-0.03222011
120	0x3de5c0df	0.11218428
121	0xbe01047d	-0.12599368
122	0x3dd3f7a8	0.10349971
123	0xbd8755a1	-0.06608129
124	0x3e29640e	0.16542074
125	0xbd444070	-0.047913015
126	0xbe0b3572	-0.13594607
127	0x3d60405a	0.05474887
128	0x3de4ef51	0.111784585
129	0xbe2562cc	-0.1615097
130	0x3d399610	0.045309126
131	0xbd8a31fa	-0.067478135
132	0x3de94d91	0.11391748
133	0x3b563ee2	0.003269129
134	0xbdf4e0e5	-0.11956958
135	0xbd30196b	-0.04299299
136	0x3d403dc7	0.046933915
137	0x3e1fe5bf	0.15614985
138	0xbe0583f4	-0.13038617
139	0xbe071c33	-0.13194351
140	0x3c582b6a	0.0131939445
141	0xbdafe818	-0.0858919
142	0xbce79172	-0.028267596
143	0x3dcf0fc0	0.10110426
144	0x3c5f1fdb	0.013618435
145	0x3e1a7519	0.15083732
146	0xbdadcda3	-0.08486488
147	0xbde14857	-0.11000126
148	0x3e40caa1	0.18827297
149	0x3e5ea3f4	0.2174223
150	0x3dc0f6ff	0.09422111
151	0x3e0854cc	0.13313597
152	0xbdc5b51e	-0.09653686
153	0xbd95614f	-0.07293951
154	0xbdb1e48f	-0.08686172
155	0x3dc28aae	0.09499107
156	0xbd1c65d8	-0.038183063
157	0x3cc4efbb	0.024040094
158	0x3b3ba061	0.0028629529
159	0x3e24ebf0	0.16105628
160	0xbe272a9c	-0.16324848
161	0x3e24d881	0.16098215
162	0x3ce7cfc2	0.028297309
163	0x3d54d39d	0.051959623
164	0x3e0a99db	0.13535254
165	0x3ebdac47	0.370455
166	0x3d2547e5	0.040351767
167	0x3d729266	0.059221648
168	0x3de6f963	0.112780355
169	0xbe1de3f6	-0.15418991
170	0x3ca4d1af	0.020119516
171	0x3e08a704	0.13344961
172	0x3d817393	0.06320872
173	0x3e4316f1	0.1905172
174	0xbe3b17b8	-0.18270767
175	0xbe03faec	-0.12888688
176	0xbe19d271	-0.15021683
177	0xbe10cce8	-0.14140666
178	0x3ceb2f89	0.02870919
179	0xbe0eaf8d	-0.13934155
180	0x3d58f0ea	0.05296413
181	0x3ddbb6f0	0.10728252
182	0x3e2355c4	0.15950686
183	0x3e180fc2	0.14849761
184	0xbd1295b5	-0.035787303
185	0x3e1b8c19	0.15190162
186	0x3d452688	0.04813245
187	0x3e3dcea5	0.1853586
188	0x3dfabca4	0.122430116
189	0xbe103e42	-0.1408625
190	0xbe56b477	-0.2096728
191	0x3dc3deb6	0.09563963
192	0xbe6b737f	-0.22993277
193	0xbd2633db	-0.040576797
194	0x3ddcb479	0.1077661
195	0x3afdea34	0.0019372166
196	0x3e3974bd	0.18110938
197	0x3c0c976a	0.008581022
198	0x3db3e81e	0.08784507
199	0x3e295868	0.1653763
200	0xbdefd185	-0.117098846
201	0xbe1f7c69	-0.15574802
202	0xbd804cd4	-0.06264654
203	0x3dc15e42	0.094418064
204	0x3b44b332	0.0030014035
205	0x3da041f9	0.07825083
206	0x3cece27d	0.028916592
207	0x3d9ca2f8	0.07648271
208	0xbd8c456e	-0.0684918
209	0xbdb1727a	-0.08664413
210	0x3ce39bbd	0.027784223
211	0xbd38edd7	-0.045148697
212	0x3d898ab0	0.06715906
213	0x3e0a7bbc	0.13523763
214	0xbdf3e9a8	-0.11909801
215	0xbd112331	-0.03543395
216	0xbb12eb83	-0.0022418208
217	0xbde9a865	-0.11409072
218	0xbe02513f	-0.12726305
219	0x3d9ab54b	0.0755411
220	0xbe0d2fbe	-0.13787743
221	0x3cc42861	0.023945035
222	0x3d85996a	0.06523402
223	0xbe34d703	-0.17660145
224	0xbdb4b687	-0.08823877
225	0x3e1a46c3	0.15066056
226	0x3e1506b8	0.14553344
227	0xbe006006	-0.1253663
228	0x3e21e575	0.15810187
229	0xbd1d32b6	-0.03837844
230	0xbd4af7d5	-0.049552757
231	0x3d9583a0	0.07300496
232	0xbe3069fa	-0.17227927
233	0x3e027bfc	0.12742609
234	0xbc981511	-0.018564733
235	0x3c952e5d	0.018210584
236	0x3dda49b5	0.1065859
237	0xbe392de2	-0.18083909
238	0x3dade4af	0.084908836
239	0xbd90a395	-0.07062451
240	0x3ca231a6	0.019799065
241	0xbe13bba4	-0.14427048
242	0x3e094aa0	0.13407373
243	0x3c2090d0	0.009800151
244	0xbc533080	-0.012889981
245	0xbda08bc5	-0.07839159
246	0x3d666792	0.056251116
247	0x3d294175	0.04132219
248	0xbd94cd47	-0.07265716
249	0x3ddbafdc	0.10726902
250	0x3c4a028e	0.012329711
251	0xbe05f51f	-0.13081788
252	0x3cd5dcbc	0.02610623
253	0x3bf4b48c	0.007467812
254	0x3d63da8d	0.05562835
255	0xbd9cd81e	-0.076584086

phi_x.2.bias f4 [32]
0	0x3e52451d	0.20534177
1	0xbe1e26af	-0.15444444
2	0xbc44160e	-0.011968149
3	0xbbe1b674	-0.006888205
4	0x3d83cd49	0.064356394
5	0x3d7a98aa	0.061180748
6	0x3e08a0f9	0.13342656
7	0x3d9c1ecd	0.07623062
8	0xbdd1b9c2	-0.102405086
9	0xbdcd0f7e	-0.100127205
10	0x3d4dff21	0.050292138
11	0xbc8cc57a	-0.017184008
12	0xbe00223f	-0.12513064
13	0xbe138e47	-0.14409743
14	0xbda68c8e	-0.081322774
15	0x3d0d0caf	0.034435924
16	0x3e0be599	0.13661803
17	0x3e902495	0.2815291
18	0x3dd00598	0.10157317
19	0x3db6a69f	0.08918499
20	0x3db08337	0.08618777
21	0xbd82630b	-0.06366547
22	0xbbe4c05a	-0.006980938
23	0x3d4bacba	0.04972527
24	0x3e0fe6db	0.14052908
25	0xbdff5157	-0.12466686
26	0xbe18fe6c	-0.14940804
27	0x3c89212d	0.016739452
28	0x3e0d275e	0.13784549
29	0xbd0e80ad	-0.034790684
30	0xbe528596	-0.20558771
31	0xbcd0603c	-0.025436513

phi_z.0.weight f4 [32, 12]
0	0x3d33b7be	0.043876402
1	0xbdc9a55b	-0.09845992
2	0x3d38217f	0.04495382
3	0xbce3ddc9	-0.027815716
4	0x3d2e7c3c	0.042598948
5	0x3c3ebbca	0.011641452
6	0xbda7ae33	-0.08187523
7	0xbcbab6b8	-0.022792205
8	0x3bf43995	0.0074531534
9	0xbced485e	-0.028965171
10	0xbccaa48f	-0.02473667
11	0xbc2c6b54	-0.010523636
12	0x3ae4faf0	0.0017469805
13	0xbd8403bf	-0.06446027
14	0xbcad6d3e	-0.021170255
15	0x3d32fadc	0.04369627
16	0x3d66146b	0.056171816
17	0x3d11da3f	0.035608526
18	0xbac8e3e8	-0.001532671
19	0xbcf23c2b	-0.029569706
20	0x3c88fd7c	0.016722433
21	0x3cae8f72	0.021308634
22	0xbca31e7b	-0.019911995
23	0x3d85c228	0.06531173
24	0xbd421bb7	-0.047389712
25	0x3acab89f	0.0015466398
26	0xbdbd3fac	-0.0924066
27	0xbd348daf	-0.044080433
28	0x3d2fed21	0.042950753
29	0xbd625101	-0.055253033
30	0x3cea6528	0.028612688
31	0x3c0aa1de	0.008461444
32	0x3d857987	0.0651732
33	0xbd956099	-0.07293815
34	0xbd5045bf	-0.050847765
35	0xbd0a426f	-0.033754762
36	0x3cd5a125	0.026077816
37	0xbd177661	-0.03697813
38	0xbdaee765	-0.08540229
39	0xbceee78e	-0.029163148
40	0x3c57e84e	0.013177944
41	0xbd6137e1	-0.05498493
42	0x3c83d0e3	0.016090816
43	0xbd1a06d1	-0.037604157
44	0x3d166210	0.036714613
45	0xbd2867b4	-0.041114524
46	0xba9ae11e	-0.0011816358
47	0x3d18d0cd	0.037308503
48	0xbe031035	-0.12799151
49	0x3d835068	0.06411821
50	0x3ddeb9c8	0.10875279
51	0xbcf8d2fb	-0.03037404
52	0xbc6cfe55	-0.014464934
53	0x3c8f13b6	0.017465454
54	0xbb6c6ceb	-0.0036075662
55	0x3d6e09e8	0.058114916
56	0xbb826f11	-0.0039805253
57	0x3d238991	0.039926115
58	0x3d7d6912	0.06186778
59	0xbc0ecdaf	-0.008716031
60	0xbbf9b05d	-0.007619901
61	0x3d8a71d4	0.06759992
62	0x3d274d92	0.04084546
63	0xbd2bdecb	-0.04196052
64	0xbcbb49a4	-0.022862263
65	0x3aa8a32d	0.0012866013
66	0xbd544cba	-0.051830985
67	0xbd375902	-0.04476262
68	0xbcbe1cf7	-0.02320717
69	0x3daedf0d	0.08538637
70	0x3ad220cf	0.0016031506
71	0xbd56947b	-0.052387696
72	0x3dc7f911	0.097643025
73	0xbdcd4444	-0.10022786
74	0xbca92fe2	-0.020652715
75	0xbd628759	-0.05530486
76	0xbcdfdf7e	-0.027328249
77	0x3d82dbc2	0.06389572
78	0xbc57151e	-0.013127593
79	0x3df1792c	0.1179069
80	0x3d5af1b3	0.05345316
81	0xbe015bdb	-0.12632696
82	0x3d2df3b2	0.042468734
83	0xbe10e7b9	-0.14150895
84	0x3b5e15ec	0.0033887578
85	0x3e01dcc6	0.12681875
86	0x3d537d73	0.05163331
87	0x3a672f5e	0.0008819009
88	0xbd4bc73c	-0.04975055
89	0x3cc2e9a4	0.02379305
90	0xbd1d53b1	-0.038409892
91	0xbc2ec6eb	-0.010667543
92	0xbd15de8b	-0.036589187
93	0x3da9e7ef	0.08296191
94	0x3b352c52	0.0027644825
95	0xbd9fbc42	-0.07799579
96	0x3d98f158	0.07467908
97	0x3cff65bd	0.031176442
98	0x3dc71253	0.09720292
99	0xbdb8e8cf	-0.0902878
100	0xbd965870	-0.07341087
101	0xbc250c8f	-0.010073795
102	0xbd3f3060	-0.046676993
103	0xbd0e3296	-0.03471621
104	0xbdc17d03	-0.09447672
105	0x3c2248f9	0.009905093
106	0x3e11a29f	0.14222191
107	0xbcef671d	-0.029223973
108	0x3e132ab0	0.14371753
109	0x3e469146	0.19391355
110	0xbe29cb14	-0.16581374
111	0xbd00bc69	-0.031429682
112	0xbe052e94	-0.1300605
113	0xbcd65aa3	-0.026166266
114	0x3cd8d092	0.026466642
115	0xbd5a8c01	-0.053356174
116	0x3d49b3b4	0.049243644
117	0xbe391180	-0.18073082
118	0x3e573a90	0.21018434
119	0x3e3934c5	0.18086536
120	0x3d253f77	0.040343728
121	0xbc8e0b06	-0.01733924
122	0x3dfbe338	0.12299198
123	0x3c6c91b1	0.014439032
124	0x3d0b83b1	0.034061138
125	0x3d06f241	0.032945875
126	0x3d96aaf4	0.073568255
127	0x3e24cff1	0.16094948
128	0xbd5e0523	-0.054204118
129	0xbde7c14c	-0.11316165
130	0x3d958036	0.07299845
131	0xbcdc4ef9	-0.026893126
132	0x3d6c4e73	0.057692003
133	0x3d01e61d	0.031713594
134	0x3cd43bb0	0.025907367
135	0x3c57e06c	0.013176065
136	0xbd1aac0b	-0.03776173
137	0x3d7bd697	0.061483946
138	0x3d40a042	0.047027834
139	0x3d0b113b	0.03395198
140	0xbd0e69f4	-0.034769014
141	0xbd2cd277	-0.042192902
142	0x3d8b1bfa	0.067924455
143	0xbc3851af	-0.011249944
144	0xbdc2b28a	-0.0950671
145	0x3b3fc9b5	0.0029264514
146	0xbcad74a3	-0.02117378
147	0xbda40811	-0.08009351
148	0x3d5e75cb	0.054311555
149	0x3d69c43d	0.057071913
150	0xbd0e0ea1	-0.03468192
151	0xbe04c47f	-0.12965582
152	0x3ccf0632	0.025271509
153	0x3d6b7e5e	0.05749356
154	0xbde35c16	-0.111015484
155	0xbda0c6b7	-0.07850402
156	0xbdd07913	-0.10179343
157	0x3bd767e4	0.006573664
158	0x3db4fb61	0.08837009
159	0xbdaffbc1	-0.0859294
160	0xbd895ac9	-0.06706769
161	0xbe2cafa4	-0.16863877
162	0xbde009f6	-0.109394
163	0x3cb25695	0.021769801
164	0xbd2cb64e	-0.042166047
165	0x3c85e7a2	0.016345803
166	0x3c52f17a	0.012874955
167	0xbc1aba98	-0.0094439015
168	0x3d08aacb	0.033366006
169	0x3cd2739a	0.025689889
170	0x3c281107	0.010257966
171	0xbc58ef5d	-0.013240662
172	0x3d5c8901	0.053841595
173	0x3cdfdaac	0.02732595
174	0x3be5de5d	0.007015033
175	0x3d395121	0.045243386
176	0xbdc393b6	-0.09549658
177	0x3de72670	0.11286628
178	0x3d54367f	0.051809784
179	0x3c848b0b	0.016179582
180	0x3d725fcf	0.0591734
181	0x3c802a1d	0.015645081
182	0x3c89c9a4	0.016819783
183	0x3d877577	0.066142015
184	0x3d8c3dec	0.06847748
185	0x3e0c427b	0.13697235
186	0x3cd37656	0.025813263
187	0xbcd2a5a2	-0.025713746
188	0xbc349465	-0.011021708
189	0x3d8ff054	0.07028261
190	0xbcf8f1a8	-0.030388668
191	0xbd36fc7a	-0.044674374
192	0x3dc5254d	0.09626255
193	0x3d99c1d3	0.07507672
194	0xbcc04131	-0.023468586
195	0x3c99319c	0.018700413
196	0xbc2f273a	-0.010690505
197	0xbd8f11cc	-0.06985816
198	0x3d3333fb	0.043750744
199	0xbd5da87e	-0.054115765
200	0xbd44ce4a	-0.048048295
201	0x3d93df0d	0.07220278
202	0xbd4d53d5	-0.050128777
203	0xbe1fe646	-0.15615186
204	0xbdf65703	-0.12028315
205	0xbdbe7c27	-0.09301024
206	0xbda8338f	-0.08212959
207	0xbbec98c0	-0.0072203577
208	0x3e029d21	0.12755252
209	0xbdb34614	-0.08753601
210	0x3d8c3dc0	0.068477154
211	0x3d9c1947	0.07622009
212	0x3d773d31	0.06036109
213	0xbe2da1eb	-0.16956298
214	0xbd1c511f	-0.0381633
215	0x3d76e69d	0.060278524
216	0xbd90e2d6	-0.070745155
217	0x3cb72254	0.022355236
218	0xbc4403e0	-0.0119638145
219	0x3df155ac	0.11783919
220	0x3e147de4	0.14501148
221	0xba4bc47e	-0.0007773115
222	0xbc7d4645	-0.015458648
223	0xbd8d5da8	-0.06902629
224	0x3c1fc6af	0.00975196
225	0x3dcbc529	0.09949715
226	0xbd026a96	-0.03183993
227	0x3d560285	0.052248497
228	0x3c0ec448	0.008713789
229	0xbd877120	-0.06613374
230	0xbc68c0d8	-0.014206134
231	0xbc8b9120	-0.017036974
232	0xbda7db1b	-0.08196088
233	0x3d0bf754	0.034171417
234	0xbd990799	-0.07472152
235	0x3d0f9ccc	0.035061643
236	0xbc458167	-0.012054778
237	0x3d2a913b	0.04164241
238	0xbdc2680e	-0.09492503
239	0xbda4c3ad	-0.08045135
240	0xbb2dd7e3	-0.0026526384
241	0xba61ec65	-0.00086182944
242	0x3d826831	0.06367529
243	0xbcb9ad9b	-0.02266579
244	0x3b8fd8e2	0.004389868
245	0xbc8f9eb0	-0.017531723
246	0xbd181af5	-0.037135083
247	0x3d9c7852	0.07640137
248	0xb9ec1e28	-0.00045035896
249	0x3d8abfc9	0.06774861
250	0x3d8e7e3e	0.069576725
251	0x3c8b31eb	0.016991576
252	0x3c6ad29b	0.014332439
253	0xbd83a8f9	-0.06428713
254	0x3cfaba30	0.03060636
255	0xbd61e0da	-0.055146076

phi_z.0.bias f4 [32]
0	0xbe1d22ff	-0.15345381
1	0x3e6bd48f	0.23030303
2	0x3dc66b42	0.096884266
3	0x3d3f32a7	0.046679165
4	0xbe280eab	-0.16411845
5	0x3e2a30a4	0.16620117
6	0xbe93ee21	-0.28892615
7	0x3db939e3	0.09044244
8	0xbe564409	-0.20924391
9	0xbe538008	-0.20654309
10	0x3db897f7	0.0901336
11	0x3e6d9265	0.23200376
12	0xbeb5f102	-0.35535437
13	0xbdd321fe	-0.10309218
14	0xbeb558e1	-0.35419372
15	0xbde0820b	-0.10962304
16	0xbe557362	-0.20844796
17	0xbe3c9006	-0.18414316
18	0xbd7851d1	-0.0606249
19	0xbebf055f	-0.37308785
20	0xbe9ae833	-0.3025528
21	0xbea26ea5	-0.3172504
22	0xbddb8321	-0.1071837
23	0xbe13d648	-0.1443721
24	0xbe818676	-0.25297898
25	0xbe02c038	-0.12768638
26	0x3e6927f1	0.22769143
27	0xbde59b69	-0.11211283
28	0xbe930af0	-0.28719282
29	0xbe4e7efa	-0.20165625
30	0x3e4231e0	0.18964338
31	0x3e7bd27e	0.24592015

enc.0.weight f4 [32, 64]
0	0xbd064d82	-0.03278876
1	0xba646800	-0.0008713007
2	0xbcf6fe70	-0.030150622
3	0xbe00a828	-0.12564147
4	0x3c92ca6d	0.01791879
5	0xbdc2bdf9	-0.09508891
6	0xbc7bb0d8	-0.015361987
7	0xbd8744ba	-0.066049054
8	0x3dfb5d16	0.12273614
9	0x3bdc8a44	0.0067303497
10	0xbcb062d8	-0.021531507
11	0xbcc8a6b0	-0.024493545
12	0x3dbd0db6	0.09231131
13	0xbdc74a0a	-0.09730919
14	0xbd33fea0	-0.043944
15	0xbddddde1	-0.10833336
16	0x3d1bad04	0.038006797
17	0x3e166fbd	0.14691062
18	0xbd7093c4	-0.05873467
19	0xbd32541c	-0.043537244
20	0xbcb85a30	-0.022503942
21	0x3db0a932	0.086260214
22	0x3dafee05	0.085903205
23	0x3da03f8e	0.07824622
24	0xbd0ce6f9	-0.03439996
25	0xbc3b3955	-0.011427243
26	0x3dabdfc8	0.08392292
27	0x3d85229a	0.0650074
28	0x3ce31a15	0.027722398
29	0xbc8304c8	-0.01599349
30	0x3db03deb	0.0860556
31	0x3ccefbd8	0.025266573
32	0xbde69a33	-0.1125988
33	0xbe3bd2ce	-0.18342134
34	0xbd3b6022	-0.045745976
35	0xbdb30784	-0.08741668
36	0x3d80708a	0.06271465
37	0xbd007f82	-0.0313716
38	0x3d7bb211	0.061449114
39	0xbda869a7	-0.082232766
40	0xbe088639	-0.13332452
41	0x3e0bef5e	0.1366553
42	0xbc45007d	-0.012024042
43	0x3c9e51ef	0.019326178
44	0xbd0f68e3	-0.035012137
45	0x3d613a24	0.054987088
46	0xbd7d2b7b	-0.061809044
47	0xbd96a418	-0.07355517
48	0x3d84df43	0.06487896
49	0xbe0d1ce7	-0.13780557
50	0xbc8ffdd3	-0.017577088
51	0xbdeab095	-0.114594616
52	0x3d052f5e	0.032515876
53	0xbcb1ab89	-0.02168824
54	0x3b4c3b52	0.0031163287
55	0xbbbdd1e4	-0.005792843
56	0xbbf0b450	-0.0073457137
57	0xbc98143d	-0.018564338
58	0x3cf2f22a	0.029656488
59	0x3c648ac4	0.0139491
60	0xbd114bec	-0.035472795
61	0x3c8e7230	0.017388433
62	0xbc9d4e24	-0.0192023
63	0x3d9ed8e0	0.077562094
64	0xbd4a3951	-0.049371067
65	0xbcd103d0	-0.025514513
66	0xbde64388	-0.11243349
67	0x3d628d18	0.05531034
68	0xbda84870	-0.08216941
69	0x3d92d273	0.07169046
70	0x3dc800a5	0.09765748
71	0x3d520686	0.051275752
72	0xbd5d5eb8	-0.05404541
73	0x3d572c12	0.052532263
74	0xbc5b0610	-0.013368145
75	0x3de2d138	0.110750616
76	0x3df37d82	0.11889173
77	0x3db64cc0	0.08901358
78	0xbc7ddc6c	-0.015494447
79	0xbc85a38f	-0.016313342
80	0x3c881cb0	0.016615242
81	0x3dbc8f9c	0.09207079
82	0xbdf2b05a	-0.11850043
83	0xbd0b8daf	-0.034070667
84	0x3d9f1a9a	0.07768746
85	0x3ddcefde	0.107879385
86	0xbda73202	-0.08163835
87	0xbdd072ad	-0.10178123
88	0xbd40c0df	-0.047058936
89	0xbd4270d6	-0.04747089
90	0xbcfdcbf0	-0.030981034
91	0x3d3f4d4a	0.046704568
92	0xbe06accb	-0.13151853
93	0xbd813eb0	-0.06310785
94	0x3bd631e0	0.0065367073
95	0x3da822a4	0.08209732
96	0x3c8761b1	0.016526075
97	0xbdc041f4	-0.093875796
98	0xbdbf160a	-0.093303755
99	0xbde4b382	-0.11167051
100	0xbd6c6120	-0.057709813
101	0x3df1504d	0.11782894
102	0xbc6edd80	-0.014579177
103	0xbd7dbb10	-0.061945975
104	0xbd0eb0fc	-0.034836754
105	0xbddbdb6f	-0.10735213
106	0x3d153d83	0.036435615
107	0x3d5541df	0.052064773
108	0xbce13d81	-0.027495148
109	0xbda43137	-0.080171995
110	0xbdd3b5e0	-0.10337424
111	0xbd2a160a	-0.041524924
112	0x3dcc2d01	0.09969521
113	0x38fd926b	0.000120912526
114	0x3c5a3105	0.013317351
115	0xbddc633f	-0.10761117
116	0xbdce17b9	-0.100631185
117	0x3d8f4220	0.06995034
118	0x3d860ea3	0.065457605
119	0x3d5e88bd	0.054329623
120	0xbdb453aa	-0.0880502
121	0xbd05f126	-0.03270068
122	0x3cd51a5d	0.026013548
123	0x3cd5c623	0.026095456
124	0xbad56823	-0.0016281646
125	0x3dda4450	0.10657561
126	0xbdb01bdb	-0.08599063
127	0x3db2a3b7	0.087226324
128	0x3c536e63	0.012904736
129	0x3c11ef40	0.008907139
130	0xbd53449c	-0.051579103
131	0x3d828fde	0.06375097
132	0x3cc8cefd	0.024512762
133	0xbdbbd475	-0.09171382
134	0x3e705e98	0.23473585
135	0xbc7cd4cb	-0.015431593
136	0xbd0d1eac	-0.03445308
137	0x3e197c9b	0.1498894
138	0x3d875af2	0.06609143
139	0xbdcb62aa	-0.09930928
140	0xbdb15464	-0.08658674
141	0x3d46f2a8	0.04857126
142	0x3d1d4dff	0.03840446
143	0xbd05006f	-0.032471117
144	0xbdcc14d5	-0.09964911
145	0x3e4cad48	0.19987977
146	0x3de359e4	0.1110113
147	0x3e84b566	0.25919646
148	0x3d06debb	0.032927256
149	0x3da1b66e	0.07896124
150	0x3cb73184	0.022362478
151	0x3d70b812	0.058769293
152	0x3d872f64	0.06600836
153	0xbd213fc2	-0.039367445
154	0xbc713cb0	-0.014723942
155	0x3d0a9f03	0.03384305
156	0x3e0cbf2d	0.13744803
157	0xbd3658b0	-0.044518173
158	0x3b10d0bc	0.0022097072
159	0xbd863068	-0.065522015
160	0xbd86817c	-0.06567666
161	0xbdeb09c2	-0.114764705
162	0x3deeb118	0.11654872
163	0x3daa80f3	0.08325376
164	0xbe1c5976	-0.15268502
165	0x3d778721	0.060431603
166	0xbe2fd308	-0.17170346
167	0xbe2aa889	-0.16665854
168	0xbe156c2d	-0.14592047
169	0x3e121fae	0.14269897
170	0x3df29124	0.118440896
171	0x3bd84505	0.0066000246
172	0x3e1c6e1b	0.15276377
173	0x3da82753	0.082106255
174	0xbd684348	-0.05670479
175	0xbd1ed473	-0.038776826
176	0x3e45cc6f	0.19316266
177	0xbdad6e9f	-0.08468365
178	0xbe10f0d0	-0.14154363
179	0xbcf84471	-0.030306073
180	0xbda4c69b	-0.080456935
181	0x3dd4ef14	0.10397163
182	0xbcc7f0e5	-0.02440686
183	0xbd9e094d	-0.07716618
184	0x3dea0a1a	0.11427708
185	0x3d0415ea	0.03224746
186	0x3cecd955	0.028912226
187	0x3dac5451	0.084145196
188	0x3d335558	0.043782562
189	0xbd7ebdc6	-0.0621927
190	0x3def6e1b	0.11690923
191	0x3bfd5cb9	0.0077320007
192	0xbde9620c	-0.11395654
193	0x3c901560	0.017588317
194	0x3dc3e2a6	0.09564714
195	0xbde0c148	-0.109743655
196	0xbd8b4d22	-0.06801821
197	0xbcdd76f0	-0.027034253
198	0xbd7a57dc	-0.061118945
199	0xbd84c8dc	-0.064836234
200	0xbc4602d0	-0.0120856315
201	0xbcda9848	-0.026683941
202	0x3b740740	0.0037235767
203	0x3dfaae02	0.122402206
204	0xbdd931c8	-0.10605198
205	0x3d70c9c4	0.05878617
206	0xbd0197ac	-0.031638786
207	0x3d795a6c	0.06087725
208	0x3df4a7a0	0.119460344
209	0x3c337bb0	0.010954782
210	0x3d97dde8	0.07415372
211	0xbd257564	-0.040395156
212	0x3d525c4c	0.051357552
213	0xbc535860	-0.012899488
214	0x3cbb3ab8	0.022855148
215	0xbb1d6500	-0.00240165
216	0xbddcb176	-0.107760355
217	0xbd9aa010	-0.07550061
218	0x3d5893b8	0.05287525
219	0xbdef52ea	-0.116857365
220	0xbd8ae818	-0.067825496
221	0x3df75d88	0.120783865
222	0x3cf64290	0.030061036
223	0xbdcef728	-0.10105735
224	0xbd0be980	-0.03415823
225	0x3b01dac0	0.0019814223
226	0x3dc15318	0.09439677
227	0xbd068b80	-0.03284788
228	0x3cde7088	0.027153268
229	0xbd607db4	-0.05480738
230	0xbcffcb98	-0.03122501
231	0xbd852806	-0.065017745
232	0xbde13484	-0.10996345
233	0xbc18cda0	-0.009326369
234	0x3c5f2000	0.013618469
235	0x3d868c58	0.06569737
236	0x3c83b630	0.016078085
237	0xbb64e180	-0.0034924448
238	0xbd823d74	-0.063593775
239	0x3c4954e0	0.012288302
240	0xbd8d840c	-0.069099516
241	0x3d772bb0	0.060344398
242	0xbdf62f02	-0.12020685
243	0xbd285598	-0.041097254
244	0x3cf767d0	0.030200869
245	0x3bd26cc0	0.0064216554
246	0x3d82bad2	0.063832894
247	0xbd4e33b0	-0.05034226
248	0x3db6d14a	0.089266375
249	0xbdbbcf86	-0.09170441
250	0x3c1e0f20	0.009647161
251	0xbd386e60	-0.045027137
252	0xbd0b9eb4	-0.034086898
253	0x3dec6f32	0.11544646
254	0xbcd8cb08	-0.026464
255	0x3da39684	0.07987693

enc.0.bias f4 [32]
0	0xbd37916b	-0.044816416
1	0xbdfeead9	-0.124471374
2	0x3df32542	0.11872341
3	0xbd987f6a	-0.07446177
4	0x3de1763e	0.11008881
5	0x3dc4633b	0.09589239
6	0xbe03591b	-0.1282696
7	0x3e00d6f5	0.12582
8	0x3dfb9674	0.12284556
9	0xbc1bfe90	-0.009521142
10	0xbde0a376	-0.10968678
11	0xbdfbb964	-0.1229122
12	0x3ca95f0b	0.020675203
13	0xbd5c566e	-0.053793363
14	0x3d2d45fd	0.042303074
15	0xbd3044fe	-0.043034546
16	0xbd19ebfd	-0.03757857
17	0x3cc7df29	0.024398403
18	0x3bbac9d8	0.005700331
19	0xbcda423b	-0.02664291
20	0xbcdc37cd	-0.026882077
21	0x3d1a6cec	0.037701532
22	0x3d451364	0.048114195
23	0x3de58ac9	0.11208112
24	0xbd8be451	-0.06830657
25	0x3e179ee6	0.14806709
26	0xbbcd91d2	-0.0062734867
27	0xbd4d0d7f	-0.0500617
28	0x3d98c3bc	0.07459208
29	0x3c528cd4	0.012850959
30	0xbd598912	-0.053109236
31	0x3c82e84a	0.015979905

enc.2.weight f4 [32, 32]
0	0x3e180662	0.14846185
1	0xbdc0f190	-0.094210744
2	0x3eb0ff1c	0.34569633
3	0xbd8c703f	-0.06857347
4	0xbd81421a	-0.06311436
5	0xbc447487	-0.011990673
6	0xbce5398c	-0.027981542
7	0x3da221b3	0.07916584
8	0xbd246242	-0.04013277
9	0x3e301a40	0.17197514
10	0xbdbdef15	-0.09274117
11	0xbe070b84	-0.13187987
12	0x3e235436	0.15950093
13	0xbe0fde5a	-0.14049664
14	0xbe06ae20	-0.13152361
15	0xbda5f0bd	-0.08102558
16	0xbe33c7ad	-0.17556639
17	0x3c200837	0.009767584
18	0x3db38041	0.08764697
19	0xbc551d98	-0.013007544
20	0x3e038f55	0.12847646
21	0xbd69dfca	-0.057098188
22	0xbcc0f9e5	-0.023556659
23	0xbd6e715d	-0.05821358
24	0xbdce375d	-0.100691535
25	0x3e0127e0	0.12612867
26	0x3d07acc8	0.03312376
27	0xbda5e0c9	-0.08099515
28	0x3d902b64	0.07039526
29	0x3e144df0	0.14482856
30	0xbba14200	-0.004921198
31	0x3e0d5b54	0.1380437
32	0xbd8f6cf5	-0.07003204
33	0x3e223fa4	0.1584459
34	0x3ce9148a	0.028452177
35	0xbc15bad8	-0.009138785
36	0x3d93a896	0.072098896
37	0xbe3c1a6b	-0.18369453
38	0xbcd69f1c	-0.026198916
39	0xbd679e3b	-0.056547385
40	0xbd27f5a0	-0.04100573
41	0x3db12f22	0.08651568
42	0xbde2255a	-0.110422805
43	0x3e2d88c0	0.16946697
44	0xbddd861e	-0.108165964
45	0x3d65401b	0.05596934
46	0x3dd6e880	0.104935646
47	0x3da092d9	0.07840509
48	0x3c21e577	0.009881369
49	0x3d891975	0.06694309
50	0xbe022923	-0.12711005
51	0xbdc9de40	-0.09856844
52	0x3e1aa2f1	0.1510122
53	0xbe35cda5	-0.17754228
54	0xbcc299ca	-0.023754973
55	0xbdec79f0	-0.11546695
56	0x3d270548	0.04077652
57	0x3e0fccf9	0.14043035
58	0x3e01720d	0.12641163
59	0x3deadfdf	0.11468481
60	0x3d9e949d	0.077431895
61	0x3d7eeece	0.06223946
62	0xbc61ef91	-0.013790027
63	0x3bf29a60	0.007403657
64	0xb7a165aa	-1.9240037e-05
65	0x3e11ab41	0.14225484
66	0xbd0a2dca	-0.033735074
67	0x3d22d7d0	0.039756596
68	0x3a73d8cd	0.000930202
69	0x3d97cacc	0.07411727
70	0xbe256f6d	-0.16155787
71	0xbde3561d	-0.11100409
72	0x3e245efd	0.1605186
73	0xbdd154d4	-0.10221258
74	0xbdad0520	-0.08448243
75	0xbd09272a	-0.033484615
76	0xbe02ea1c	-0.12784618
77	0xbda69ed3	-0.08135762
78	0x3c786869	0.015161612
79	0xbe126daa	-0.14299646
80	0x3dc0cdeb	0.09414276
81	0xbccf5df4	-0.025313355
82	0x3c6da706	0.0145051535
83	0xbde575a8	-0.11204082
84	0xbda8abf3	-0.08235922
85	0x39c961be	0.0003841053
86	0x3df7d68c	0.121014684
87	0xbdb8cc87	-0.090233855
88	0x3dc2d462	0.09513165
89	0xba2a9580	-0.00065072626
90	0x3ce3a708	0.027789608
91	0x3d4931d5	0.04911979
92	0x3c490768	0.012269832
93	0xbdeedd55	-0.116633095
94	0xb99398f5	-0.00028151987
95	0x3da65ba3	0.08122947
96	0xbc85143d	-0.016245002
97	0x3df5bbf4	0.1199874
98	0x3e8ea5c7	0.27860853
99	0xbd059a5b	-0.032617908
100	0xbcb50de2	-0.022101346
101	0xbda23e72	-0.07922067
102	0x3d9c115a	0.07620497
103	0xbdb3a4a2	-0.087716356
104	0xbe3626c2	-0.17788222
105	0xbe25abbc	-0.16178793
106	0xbd891465	-0.06693343
107	0xbe0e70fa	-0.13910285
108	0xbd80055b	-0.062510215
109	0x3dd3c7ee	0.10340868
110	0x3cd5612a	0.026047308
111	0x3d96535c	0.07340118
112	0xbcc04852	-0.023471985
113	0x3e08868b	0.13332574
114	0xbd0cf763	-0.034415614
115	0x3e304567	0.17213975
116	0x3e174e41	0.14775945
117	0x3deec8dd	0.116594054
118	0xbdd92730	-0.106031775
119	0xbe1e7230	-0.15473247
120	0xbdadecd5	-0.08492438
121	0x3de3dd6b	0.111262165
122	0xbd3f4351	-0.046695057
123	0x3d23846b	0.039921205
124	0xbd4275ab	-0.0474755
125	0x3dcc3370	0.099707484
126	0x3e11e1ca	0.14246288
127	0xbd8390a0	-0.064240694
128	0x3cce1ced	0.025160277
129	0x3e0ea4d4	0.13930064
130	0x3e3459ab	0.1761233
131	0xbe151d53	-0.14561968
132	0x3e252198	0.16126096
133	0x3e184ab5	0.14872248
134	0x3e06d831	0.13168408
135	0xbdfe4993	-0.12416377
136	0xbde31718	-0.11088389
137	0x3e054615	0.13015015
138	0xbe34f5a1	-0.17671825
139	0xbd8d1175	-0.06888095
140	0xbe0521a8	-0.1300112
141	0xbd764a15	-0.060129244
142	0xbdacb6b6	-0.08433287
143	0xbe1a3ce7	-0.15062295
144	0x3d8d9374	0.0691289
145	0xbd687506	-0.056752227
146	0xbc641475	-0.013920893
147	0xbcbb874a	-0.02289166
148	0x3ccb2239	0.024796592
149	0xbdef59d1	-0.11687053
150	0x3e04cb5a	0.12968197
151	0x3da18af6	0.07887833
152	0x3dcaa8b3	0.09895458
153	0xbe32d467	-0.17463838
154	0xbd86851e	-0.06568359
155	0xbca5964d	-0.02021327
156	0xbd0e0292	-0.03467042
157	0x3de0b41e	0.109718546
158	0xbd872c0f	-0.066002004
159	0xbdadc194	-0.08484188
160	0xbd8e98f9	-0.06962771
161	0x3bf4cf3e	0.0074709943
162	0x3f0119e2	0.5043012
163	0x3e123f7f	0.14282034
164	0xbd8b7a15	-0.06810395
165	0x3cfa1afd	0.030530447
166	0xbc824daa	-0.015906174
167	0x3cb4ec62	0.022085372
168	0xbd68161a	-0.056661703
169	0x3d30baae	0.04314678
170	0xbdd32be4	-0.10311106
171	0x3d4970e5	0.04917993
172	0x3d1d5638	0.038412303
173	0xbd883f20	-0.06652665
174	0x3d66cd22	0.056347974
175	0xbd3e4135	-0.046448905
176	0xbd784062	-0.060608275
177	0x3d6b39bd	0.05742811
178	0xbd90b451	-0.070656426
179	0x3dec6063	0.11541822
180	0xbdb34ce0	-0.08754897
181	0xbdcaeb07	-0.09908109
182	0xbde99444	-0.114052325
183	0xbd478182	-0.048707493
184	0x3cad8663	0.021182245
185	0x3e06f999	0.13181151
186	0x3dbcbe4e	0.09215985
187	0xbe27632c	-0.16346425
188	0x3e15533b	0.14582531
189	0x3d1e41c0	0.038636923
190	0xbd95aea3	-0.073087
191	0xbdeca2bf	-0.11554479
192	0x3da704be	0.081552014
193	0x3de8d078	0.11367887
194	0x3d5827a1	0.052772168
195	0x3e3347c8	0.17507851
196	0x3c85a6ca	0.016314883
197	0x3d18b5a4	0.0372826
198	0xbdb94c5d	-0.09047768
199	0x3e073a9a	0.13205948
200	0x3e004bb3	0.12528877
201	0x3d514318	0.051089376
202	0xbd26312e	-0.040574245
203	0x3d3ea726	0.046546124
204	0x3db1cccd	0.08681641
205	0x3d90ed82	0.07076551
206	0xbd4020ad	-0.046906162
207	0x3d2b2e74	0.041792348
208	0x3e00739b	0.125441
209	0xbdd00a21	-0.10158182
210	0xbd9bc53f	-0.07605981
211	0xbe3c4eec	-0.18389481
212	0xbe005ced	-0.12535448
213	0x3df3df3b	0.11907812
214	0x3def8b86	0.11696534
215	0x3bb6c4b4	0.005577648
216	0x3e0442a5	0.12916048
217	0x3e459a31	0.192971
218	0xbc8b003e	-0.016967889
219	0x3e1f7c4e	0.15574762
220	0xbd832744	-0.06403974
221	0x3cc7d5af	0.024393884
222	0x3d468f59	0.04847655
223	0xbd4e4f07	-0.050368335
224	0x3cb76431	0.022386642
225	0xbe0f6598	-0.14003599
226	0x3e5e6897	0.21719585
227	0xbcdf5091	-0.027260097
228	0x3e187e2e	0.14891884
229	0xbd0accfc	-0.033886895
230	0x3d32618b	0.043550055
231	0x3d68a940	0.056802034
232	0x3d75e9c7	0.0600374
233	0x3dcea07b	0.10089203
234	0xbe1ea619	-0.15493049
235	0x3de98b75	0.114035524
236	0xbdd1c310	-0.10242283
237	0x3ae79962	0.0017669613
238	0x3d7ce770	0.061744153
239	0xbdbf200e	-0.09332286
240	0x3e17dc57	0.14830147
241	0x3e1e6a58	0.15470254
242	0xbd9e7f75	-0.07739154
243	0x3d99d618	0.07511538
244	0x3e0c8a96	0.13724741
245	0xbd4b4282	-0.049623974
246	0x3d8df643	0.06931736
247	0xbcab8550	-0.020937592
248	0xbe0c0b36	-0.13676152
249	0xbe03573f	-0.1282625
250	0x3d200ec4	0.03907658
251	0x3dd9e589	0.106394835
252	0xbbf57515	-0.007490764
253	0x3e207728	0.15670455
254	0xbdc2d124	-0.09512547
255	0xbe15b022	-0.1461797

enc.2.bias f4 [32]
0	0x3bcbf994	0.0062248204
1	0x3d88fe96	0.066891834
2	0xbda8a500	-0.08234596
3	0xbc300fe9	-0.010745981
4	0xbe241aa3	-0.16025786
5	0x3d96a045	0.07354788
6	0x3e21639f	0.15760659
7	0x3e293f4e	0.16528055
8	0xbe2422ba	-0.16028872
9	0xbde9e6c0	-0.11420965
10	0x3d87bb99	0.06627578
11	0xbdbfb163	-0.09360006
12	0xbddf2558	-0.10895795
13	0x3bf28990	0.0074016526
14	0xbdf778fc	-0.12083623
15	0xbbec137f	-0.0072044726
16	0xbd6c7ea9	-0.05773798
17	0x3e29c10a	0.16577545
18	0xbd1fe7ec	-0.039039537
19	0x3e036db9	0.12834825
20	0xbdf532cc	-0.11972579
21	0x3da79117	0.081819706
22	0xbda7c3b0	-0.08191621
23	0x3e04bf12	0.12963513
24	0x3df7b80c	0.12095651
25	0x3de3123b	0.110874616
26	0xbc80a3a4	-0.01570303
27	0xbdae9a3e	-0.08525513
28	0x3d8c8f50	0.06863272
29	0xbdad9140	-0.0847497
30	0xbdc2cec3	-0.09512093
31	0x3d7dfed3	0.062010597

enc_mean.weight f4 [12, 32]
0	0x3d8ed859	0.06974859
1	0xbe1c09ad	-0.15238066
2	0xbe1552a1	-0.14582302
3	0xbda05957	-0.0782954
4	0xbb87468e	-0.004128284
5	0x3d59851e	0.053105466
6	0x3d08768f	0.03331619
7	0x3c697550	0.014249161
8	0xbe24d633	-0.16097336
9	0x3e1e1075	0.15435965
10	0xbd93a282	-0.0720873
11	0x3cd5af04	0.02608443
12	0x3e00c14c	0.12573737
13	0xbdc2fba4	-0.09520653
14	0xbd81d144	-0.063387424
15	0xbded19bf	-0.11577176
16	0x3d055411	0.032550875
17	0xbdac8ac3	-0.08424904
18	0xbdfa1528	-0.122110665
19	0xbcc5e5f7	-0.024157507
20	0xbe2a5052	-0.16632202
21	0xbc8210f5	-0.015877226
22	0x3de68b19	0.112569995
23	0xbd964563	-0.07337453
24	0xbc459dc8	-0.012061544
25	0xbc24daee	-0.0100619625
26	0x3d0b4a86	0.034006618
27	0x3d3ae37e	0.04562711
28	0xbcf7e443	-0.03026021
29	0xbce868ce	-0.028370287
30	0xbd4a65db	-0.049413543
31	0x3c6f63e4	0.014611218
32	0x3da1b678	0.07896131
33	0x3dc6f7b7	0.097152166
34	0xbdf24d38	-0.118311346
35	0xbafc1a6d	-0.001923395
36	0xbccfc909	-0.025364416
37	0x3e0b4eef	0.1360433
38	0xbe0ec997	-0.13944088
39	0xbe3d7f7e	-0.18505666
40	0x3de7c598	0.11316985
41	0x3d39c2b8	0.045351714
42	0xbd16947b	-0.036762696
43	0xbdc0c372	-0.09412278
44	0xbce63bea	-0.028104741
45	0xbe039129	-0.12848343
46	0x3d84246c	0.064522594
47	0x3dcf105b	0.101105414
48	0x3dafaf7b	0.08578392
49	0xbdd6eb8a	-0.10494144
50	0x3ddb1fc2	0.10699417
51	0xbe00a3e4	-0.1256252
52	0xbd9df44a	-0.0771261
53	0x3dad96fb	0.08476063
54	0x3d15a1c3	0.03653122
55	0x3d922eb9	0.07137818
56	0x3d97ec4d	0.07418118
57	0x3d0afdfc	0.033933625
58	0x3c4b10ee	0.012394173
59	0x3df80736	0.121107504
60	0x3d0d7783	0.034537803
61	0x3d69bb9e	0.05706369
62	0xbc585cbc	-0.013205703
63	0xbd6e347a	-0.058155514
64	0xbe2459da	-0.160499
65	0x3d678df7	0.056531873
66	0xbdd60288	-0.104497015
67	0xbd850bb0	-0.0649637
68	0xbd274af0	-0.04084295
69	0x3e1cd60d	0.15316029
70	0x3d896173	0.0670804
71	0xba280e8a	-0.0006410858
72	0xbe1f08f1	-0.15530755
73	0xbd7e58b0	-0.062096298
74	0x3e0f33cc	0.13984603
75	0xbd8d3a3f	-0.06895875
76	0x3c14ec48	0.009089537
77	0x3da64825	0.08119229
78	0x3d28c11c	0.04119979
79	0xbe0e0b27	-0.13871442
80	0x3d63a336	0.055575572
81	0x3da5dbd4	0.080985695
82	0xbd732999	-0.059365842
83	0xbe1f84c2	-0.15577987
84	0xbdbdafc6	-0.09262042
85	0xbd6c94c1	-0.05775905
86	0xbdd0af4f	-0.101896875
87	0xbcc4ca1c	-0.024022155
88	0x398cc803	0.000268519
89	0xbd674e53	-0.05647118
90	0x3de8fb8e	0.11376105
91	0x3d865e6d	0.06560979
92	0x3df12f88	0.11776644
93	0x3d989c78	0.07451719
94	0x3da3a472	0.0799035
95	0x3d9d2234	0.07672539
96	0x3dd000b8	0.10156387
97	0x3e203c67	0.15648042
98	0x3d96a674	0.07355967
99	0x3d995474	0.07486811
100	0xbd9d4fe5	-0.07681254
101	0x3c789a64	0.015173528
102	0x3ceecb77	0.029149754
103	0xbe28d420	-0.1648717
104	0xbdfce0cc	-0.12347564
105	0x3e30e2cb	0.17274015
106	0xbddae1d9	-0.10687608
107	0xbd80d25e	-0.06290124
108	0xbe08cf5a	-0.13360348
109	0x3d755eb9	0.059904788
110	0xbd854b79	-0.06508536
111	0xbe13da8b	-0.14438836
112	0xba3d5283	-0.0007222073
113	0xbda13858	-0.07872075
114	0x3dc0b2d7	0.09409111
115	0xbe1928f0	-0.14957023
116	0x3d12bb20	0.035822988
117	0xbd779bca	-0.060451306
118	0xbd25119b	-0.040299993
119	0x3e19f682	0.15035442
120	0xbe1db31a	-0.15400353
121	0x3d292501	0.041295055
122	0x3db0cd5a	0.08632918
123	0x3d8dfe88	0.069333136
124	0x3e602a7d	0.21891208
125	0x3dfad21c	0.122471064
126	0x3dd331fe	0.1031227
127	0x3d4a5280	0.049395084
128	0x3debf341	0.115210064
129	0xbd99f903	-0.07518198
130	0xbdee64f6	-0.116403505
131	0x3d276912	0.040871687
132	0xbd25b5f7	-0.04045674
133	0xbd87dd57	-0.06634014
134	0x3d7f7412	0.062366553
135	0x3df2338b	0.11826237
136	0x3e263552	0.16231278
137	0x3e246c8b	0.16057031
138	0xb9ff9f53	-0.00048756096
139	0x3e1db6cf	0.15401767
140	0xbd4c842d	-0.04993074
141	0xbd12916e	-0.035783224
142	0x3bb5d957	0.0055495906
143	0xbdd9c21c	-0.106327266
144	0xbe2d5708	-0.16927731
145	0x3e00405e	0.12524554
146	0xbdb10b8d	-0.08644781
147	0x3dbd90fa	0.09256168
148	0x3b630082	0.0034637754
149	0xbd165130	-0.03669852
150	0xbc3a73eb	-0.011380176
151	0x3dc79bec	0.097465366
152	0xbd96b1fb	-0.07358166
153	0x3d89f062	0.067353025
154	0xbd13d20e	-0.036088996
155	0xbdffd336	-0.12491457
156	0xbe004c97	-0.12529217
157	0x3de1798d	0.11009512
158	0xba842d3a	-0.0010084279
159	0x3d4d0592	0.05005414
160	0xbe0efaa1	-0.13962795
161	0xbc4c4d62	-0.012469621
162	0x3c5f224b	0.013619016
163	0x394ea65f	0.00019707669
164	0x3dc63311	0.09677709
165	0xbd488f19	-0.048964594
166	0x3da8f615	0.082500614
167	0x3e4dd80a	0.20101944
168	0x3e1b3b77	0.15159403
169	0x3e02da9d	0.12778707
170	0xbd664dca	-0.05622653
171	0x3e27a23e	0.16370484
172	0xbe31176a	-0.17294088
173	0xbd8d3965	-0.06895713
174	0xbdc721d2	-0.097232476
175	0x3e27213e	0.16321275
176	0x3dbcb767	0.09214669
177	0x3e49ede9	0.19719662
178	0xba9fe6ef	-0.0012199561
179	0x3db22d7f	0.08700084
180	0x3e2c21f9	0.16809835
181	0xbc93fd1e	-0.018065032
182	0x3e1d8482	0.15382579
183	0x3d79b6bb	0.06096528
184	0xbd4d0174	-0.050050214
185	0xbe11e196	-0.1424621
186	0x3e56c54b	0.20973699
187	0xbdb869fe	-0.090045914
188	0x3e348371	0.17628266
189	0xbd05735a	-0.03258071
190	0xbe3cf0e4	-0.18451267
191	0x3cbd62d7	0.02311842
192	0xbdc782fb	-0.097417794
193	0xbcc1855c	-0.023623161
194	0x3d3134b9	0.04326317
195	0x3b9794c8	0.0046258904
196	0x3e32536f	0.1741464
197	0x3d6383fa	0.055545785
198	0x3cf8eacf	0.030385403
199	0x3e1d8921	0.15384342
200	0xbdab860a	-0.08375175
201	0x3e0fc963	0.14041667
202	0xbc98f379	-0.018670784
203	0xbcc329b0	-0.02382359
204	0xbdd9c2a4	-0.10632828
205	0x3e144bbf	0.1448202
206	0x3cdf8fa8	0.02729018
207	0x3d0a461a	0.03375826
208	0xbd6ce136	-0.057831965
209	0x3e3aa62b	0.1822745
210	0x3d95537e	0.072913155
211	0x3da48d73	0.08034792
212	0xbe063516	-0.13106188
213	0x3c5bb899	0.013410711
214	0x3e1892af	0.14899705
215	0xbbcdcfce	-0.0062808758
216	0xbd78766f	-0.060659822
217	0x3e1cf951	0.15329482
218	0xbded7979	-0.11595435
219	0xbe077287	-0.13227282
220	0xbc777481	-0.01510346
221	0x3e2689a4	0.16263443
222	0x3cd8698d	0.026417518
223	0xbde9cdfe	-0.11416243
224	0xbda72678	-0.08161634
225	0x3e0f12bc	0.1397199
226	0x3e1d7c44	0.15379435
227	0xbd23d933	-0.04000206
228	0x3e0c5658	0.13704813
229	0x3d24f47c	0.04027222
230	0x3cf155c5	0.029459843
231	0x3d94412c	0.07238993
232	0xbe248292	-0.16065434
233	0xbe1161b5	-0.14197429
234	0xbce7f783	-0.028316265
235	0x3dfe7d86	0.124262854
236	0x3df6699d	0.12031863
237	0x3dd58154	0.10425058
238	0xbd8998b9	-0.06718583
239	0x3df1f280	0.11813831
240	0x3d49955c	0.049214706
241	0x3d944aa5	0.072408
242	0xbdd63312	-0.1045896
243	0xbd357792	-0.044303484
244	0xbdbd3d60	-0.09240222
245	0xbd9d8e21	-0.076931246
246	0xbd9ce218	-0.076603115
247	0xbb5a1f44	-0.0033282796
248	0xbd8fb1bd	-0.07016323
249	0x3d4d1591	0.050069395
250	0xbd8d4ba5	-0.06899194
251	0xbd4a3b4f	-0.049372967
252	0xbad9c0dd	-0.0016613264
253	0xbc2703fc	-0.010193821
254	0x3de1dd85	0.110285796
255	0xbe39d3fd	-0.18147273

enc_mean.bias f4 [12]
0	0xbd585cb7	-0.052822795
1	0x3d15b121	0.036545876
2	0xbc93d8e4	-0.018047757
3	0x3e1fae82	0.15593913
4	0x3d8cf72f	0.06883084
5	0xbe0c7fe1	-0.13720657
6	0xbe29133f	-0.16511248
7	0x3e15c86f	0.1462724
8	0x3ac13c14	0.0014742636
9	0xbe00d4fd	-0.12581249
10	0x3d71808f	0.058960494
11	0x3d2aab76	0.041667424
