varRNN/VariationalRNN/VariationalRecurrentNeuralNetwork-master/saves/vrnn_state_dict_51.pth (torch, 92942 bytes, 30 tensors)

phi_x.0.weight f4 [32, 12]
0.23053548 -0.057623576 -0.059969388 -0.26842365 0.071351506 -0.09938601 0.060430754 0.24153963
-0.21995215 0.1884557 -0.15517524 -0.17606325 -0.07108832 -0.08188644 0.29940644 0.03473271
-0.023106262 0.24835937 -0.026657421 0.13510329 -0.21382007 -0.2653043 -0.28259856 0.28907296
-0.20726424 0.14180654 -0.09875632 0.08052024 0.1260986 -0.18357241 -0.06830333 -0.26977345
-0.23564872 -0.00959789 -0.028263094 0.13272034 -0.210982 0.15310022 0.213682 -0.2238214
-0.0717963 0.010259612 -0.21694438 -0.22097291 0.032866523 -0.22831185 0.25071552 -0.13823622
-0.002305642 0.20690031 -0.09119576 0.21418136 0.029002452 0.29761538 0.2892368 -0.0094411485
-0.058588408 0.16881582 -0.13013774 0.13315907 0.0022343975 -0.04422749 0.11240956 0.27242428
-0.20101732 0.16794147 0.47499377 -0.22730833 -0.049064487 0.24754475 -0.21164037 0.18096429
-0.05654971 0.07154027 -0.11681386 -0.26997206 0.03266154 0.12990196 -0.2952117 0.322209
0.21812108 0.04755795 0.27223146 0.075841025 -0.25159392 -0.12452797 0.002846889 0.07075908
0.11565111 -0.06507223 0.24310906 0.013249918 0.03244064 0.11613712 0.122994676 -0.029980674
0.05814464 -0.12040486 0.11302841 0.26889807 -0.12751406 0.23204452 0.22233894 -0.041050397
-0.13431734 -0.13711125 0.06283318 -0.12995957 -0.12735538 0.21388456 -0.17699268 0.13098782
0.028239919 0.17507145 0.1745821 0.038190857 -0.18889557 0.16117921 0.25680628 -0.22763798
-0.04142987 0.17359439 0.17087528 0.23656233 0.09054223 0.27992457 0.24843505 0.11603734
-0.1275128 0.15676723 -0.0356273 -0.055667393 0.33681223 0.23295265 -0.08609102 0.22050466
-0.09402298 0.007976994 -0.056532208 -0.15129912 0.2393958 -0.09029708 -0.10459049 0.27009627
-0.21955784 -0.27330226 -0.12118721 -0.04915814 0.2308541 -0.22136863 -0.24218301 0.25991875
-0.17629969 0.06307937 -0.20663838 0.21407536 -0.1730113 0.27404478 0.073996484 -0.11474758
-0.2693297 0.11029824 -0.15544747 -0.20342852 0.31086963 -0.17556615 0.27439618 -0.097326964
-0.016123857 -0.22407538 0.28564444 0.22225286 0.23341633 -0.10713767 0.1657478 0.33674386
-0.0014327961 -0.25734618 -0.11744697 0.35041392 -0.08997365 0.09534121 0.06323324 0.18408829
0.2690771 0.04890806 0.40342686 0.29527733 0.02928042 0.12336292 -0.17446722 -0.010017444
-0.113271765 0.11969736 0.07144639 0.042134292 0.13253981 0.07747513 -0.28094587 0.039259918
0.16189018 0.13358398 -0.19113655 -0.15120417 0.08938865 0.17653665 0.08937336 0.07733907
0.20984532 -0.30382368 0.033742055 0.15509586 -0.19029763 -0.21424754 -0.1109934 -0.25009853
-0.017357102 -0.25473413 -0.03344868 0.114337504 0.21110623 -0.028190415 -0.083286904 -0.22985274
0.21198197 -0.17876512 0.20941757 -0.2743128 -0.07026521 -0.08210327 -0.25582734 -0.15414321
0.16478087 0.10365637 0.103747755 0.23678379 -0.269273 0.08900966 -0.2557742 0.038422775
-0.0339917 0.015848186 -0.030922333 0.2882925 0.017092232 0.066348195 0.32130608 0.019398574
0.10625407 0.14039434 0.17084658 0.10942972 0.29837027 0.1305396 -0.07252754 0.25369957
00000000: 7e11 6c3e b306 6cbd 76a2 75bd d36e 89be
00000010: bd20 923d e48a cbbd 3d86 773d 2a56 773e
00000020: 233b 61be 88fa 403e 42e6 1ebe ed49 34be
00000030: c196 91bd 14b4 a7bd cd4b 993e e343 0e3d
00000040: 5849 bdbc eb51 7e3e aa60 dabc 8458 0a3e
00000050: a6f3 5abe f7d5 87be c2b0 90be 5f01 943e
00000060: 143d 54be bc35 113e c140 cabd cce7 a43d
00000070: fe1f 013e 68fa 3bbe 9ee2 8bbd bf1f 8abe
00000080: e64d 71be 7840 1dbc 0188 e7bc d7e7 073e
00000090: aa0b 58be 4ec6 1c3e 74cf 5a3e 7031 65be
000000a0: f009 93bd ef17 283c ab26 5ebe b946 62be
000000b0: 0c9f 063d 95ca 69be c95d 803e cc8d 0dbe
000000c0: 411a 17bb addd 533e d8c4 babd 5c52 5b3e
000000d0: 8d96 ed3c 0b61 983e d916 943e 0caf 1abc
000000e0: 66fa 6fbd 0ede 2c3e d442 05be da5a 083e
000000f0: f86e 123b e227 35bd fc36 e63d 327b 8b3e
00000100: 7cd7 4dbe d9f8 2b3e 6232 f33e 84c3 68be
00000110: d8f7 48bd 5f7c 7d3e 41b8 58be b44e 393e
00000120: aba0 67bd b483 923d 1b3c efbd c739 8abe
00000130: 1bc8 053d 0505 053e fd25 97be 94f8 a43e
00000140: 225b 5f3e 20cc 423d ec61 8b3e 8a52 9b3d
00000150: ebd0 80be 8508 ffbd df92 3a3b 23ea 903d
00000160: 7dda ec3d 9744 85bd 95f1 783e 2f16 593c
00000170: 7ae0 043d 4cd9 ed3d a2e4 fb3d 089a f5bc
00000180: 1329 6e3d d396 f6bd 707b e73d 02ad 893e
00000190: 0c93 02be 149d 6d3e d2ac 633e 7624 28bd
000001a0: 7c8a 09be e466 0cbe afae 803d 1f14 05be
000001b0: 7369 02be 8e04 5b3e 923d 35be ac21 063e
000001c0: 6757 e73c ee45 333e a6c5 323e 046e 1c3d
000001d0: d76d 41be 2a0c 253e 1d7c 833e ee19 69be
000001e0: 5eb2 29bd bac2 313e eef9 2e3e 653d 723e
000001f0: 346e b93d 4652 8f3e c265 7e3e fca4 ed3d
00000200: b792 02be 9787 203e efed 11bd 7e03 64bd
00000210: a772 ac3e 248b 6e3e 7d50 b0bd f9cb 613e
00000220: 1f8f c0bd f0b1 023c 518e 67bd 28ee 1abe
00000230: 2c24 753e aded b8bd 8a33 d6bd 0f4a 8a3e
00000240: c5d3 60be 46ee 8bbe 0031 f8bd 0c5a 49bd
00000250: 0465 6c3e 75ae 62be d3fe 77be 1214 853e
00000260: e887 34be c22f 813d 0399 53be 9236 5b3e
00000270: e029 31be 994f 8c3e 788b 973d c700 ebbd
00000280: 95e5 89be 0be4 e13d 9f2d 1fbe 914f 50be
00000290: 4e2a 9f3e 9dc7 33be a87d 8c3e 5c53 c7bd
000002a0: 2e16 84bc 0474 65be fd3f 923e 4196 633e
000002b0: b104 6f3e ff6a dbbd cbb9 293e b169 ac3e
000002c0: a9cc bbba e1c2 83be 0988 f0bd 7469 b33e
000002d0: 1b44 b8bd 4142 c33d 6e80 813d a481 3c3e
000002e0: 79c4 893e d153 483d f78d ce3e 972e 973e
000002f0: 7edd ef3c b3a5 fc3d 89a7 32be 3520 24bc
00000300: 07fb e7bd e423 f53d 7c52 923d 0295 2c3d
00000310: 84b8 073e 48ab 9e3d 23d8 8fbe 02cf 203d
00000320: 8ac6 253e 3dca 083e 4db9 43be 44d5 1abe
00000330: 6611 b73d 06c6 343e 6109 b73d f263 9e3d
00000340: b1e1 563e c78e 9bbe 1c35 0a3d 73d1 1e3e
00000350: 62dd 42be b563 5bbe 8250 e3bd ea0c 80be
00000360: 7b30 8ebc 836c 82be 7c01 09bd c829 ea3d
00000370: 3b2c 583e 96ef e6bc 5392 aabd 845e 6bbe
00000380: cd11 593e 340e 37be 8f71 563e ba72 8cbe
00000390: 35e7 8fbd c225 a8bd cdfb 82be b8d7 1dbe
000003a0: 51bc 283e ca49 d43d b479 d43d 7377 723e
000003b0: 27de 89be b24a b63d d6f4 82be 3361 1d3d
000003c0: e13a 0bbd 0ed4 813c d550 fdbc 139b 933e
000003d0: 0205 8c3c 90e1 873d 3b82 a43e c2e9 9e3c
000003e0: bc9b d93d 89c3 0f3e 68f2 2e3e b01c e03d
000003f0: fdc3 983e 2cac 053e 5289 94bd e9e4 813e

phi_x.0.bias f4 [32]
0.22818099 0.16563785 -0.18658993 -0.2207545 0.026027713 -0.13029432 -0.09890259 0.11689315
0.09174645 -0.06538067 -0.19100244 -0.16456366 -0.043900836 0.29142386 -0.18093398 -0.13590789
0.292733 0.35143128 -0.14806117 0.08269734 -0.23260164 0.057009365 0.1621702 0.026293987
0.060816552 0.053015664 0.19026667 -0.02999679 -0.102881 0.17509621 0.10900466 0.10930897
00000000: 47a8 693e f89c 293e 6e11 3fbe 780d 62be
00000010: 1238 d53c e06b 05be 718d cabd ad65 ef3d
00000020: 90e5 bb3d 4de6 85bd 2596 43be 6083 28be
00000030: 5dd1 33bd 8235 953e c246 39be 702b 0bbe
00000040: 1ae1 953e cdee b33e 599d 17be 395d a93d
00000050: 202f 6ebe a782 693d f20f 263e 7d66 d73c
00000060: c71a 793d f426 593d 44d5 423e d4bb f5bc
00000070: 46b3 d2bd 6c4c 333e d63d df3d 62dd df3d

phi_x.2.weight f4 [32, 32]
0.12493315 0.16268332 0.024283476 0.17292595 -0.10782785 -0.028603934 0.0065240776 0.11986182
-0.09300837 0.1538507 -0.21622801 -0.1349304 0.14057529 0.088429675 -0.07017025 -0.13655463
0.10491108 -0.0961281 -0.14461713 -0.07266237 -0.06422286 0.13388042 0.13493359 0.004402708
0.07951021 0.009268856 0.07952347 -0.023358958 0.21296659 0.015312035 -0.038713384 -0.13593148
-0.09715971 -0.03922407 -0.17100875 -0.060197163 -0.078778505 -0.06398918 -0.13506937 0.02645271
-0.17117757 0.019230468 0.061264426 -0.08858439 -0.10369248 0.045140095 0.12466911 -0.03879219
0.13552237 -0.08551035 -0.04536792 0.17133176 0.049364876 -0.007258678 -0.14299063 0.14881204
-0.0024923328 0.119309634 -0.043437257 0.052345015 0.17594242 -0.071296535 -0.09927551 -0.061271697
-0.074003324 -0.017910741 -0.060094956 0.13839267 -0.04138297 0.07951317 -0.0769133 -0.15034632
-0.1903904 -0.1143335 -0.06388522 0.07822313 0.09069546 0.07782546 -0.050240498 0.1597022
-0.131478 -0.06579586 -0.14605168 0.0801707 -0.155598 0.006508283 -0.09372854 0.101103455
0.09949184 -0.120366216 0.1692327 -0.1624449 -0.01879939 -0.08955443 0.0018955966 -0.09590739
0.033805117 0.018749818 -0.09007968 -0.17145513 -0.19636428 0.08933744 -0.05308602 -0.097951286
-0.0037548966 0.1031358 -0.031183645 -0.18576995 0.100379586 0.00025246842 0.024598293 0.073838316
-0.08485539 0.05969872 -0.13545357 0.027332366 0.09437934 0.02002985 -0.04691624 -0.03222011
0.11218428 -0.12599368 0.10349971 -0.06608129 0.16542074 -0.047913015 -0.13594607 0.05474887
0.1131478 -0.1626884 0.045309126 -0.067478135 0.108258694 -0.02807512 -0.13039821 -0.040675685
0.04258041 0.1524252 -0.14125213 -0.16158716 0.0131939445 -0.07881213 -0.044199184 0.09976064
0.0123193655 0.17924201 -0.08486488 -0.10642198 0.17201313 0.21792248 0.09219289 0.14436355
-0.105572395 -0.0868254 -0.051975187 0.073617525 -0.016067928 0.01862372 -0.0052958475 0.16879648
-0.19255364 0.16144446 0.028297309 0.051959623 0.1316932 0.38309786 0.11122821 0.043058082
0.11552171 -0.1376957 0.024024328 0.15361392 0.06320872 0.19194935 -0.16800965 -0.13832119
-0.15744139 -0.20411935 0.02870919 -0.16653152 0.069196 0.09618751 0.15758009 0.11792285
-0.030617733 0.14328356 -0.0033682166 0.20594674 0.04921021 -0.14642543 -0.20633759 0.08036239
-0.25490832 -0.03953877 0.1077661 0.0019372166 0.17264938 0.011625504 0.12312824 0.1409526
-0.1227493 -0.15763769 -0.06477204 0.12865399 0.0030014035 0.06953818 0.039259497 0.06515245
-0.08326136 -0.13970026 0.027784223 -0.06767732 0.0699629 0.12375809 -0.1288441 -0.060019273
-0.003971942 -0.11509099 -0.16246529 0.08503819 -0.17116594 0.016543774 0.06011276 -0.20080853
-0.09821651 0.1581232 0.14553344 -0.1253663 0.15809336 -0.0009240887 -0.058958877 0.057737246
-0.17354089 0.12532902 -0.013565832 0.074693404 0.1065859 -0.1994994 0.114321195 -0.078876644
0.016457824 -0.21773426 0.13407373 0.0033049479 0.0004002442 -0.09009283 0.05241294 0.020235969
-0.060057245 0.11964375 -0.0036222886 -0.104879975 -0.025716946 0.00854753 0.06604998 -0.09614159
00000000: f4dc ff3d 7596 263e 24ee c63c 8013 313e
00000010: d9d4 dcbd cc52 eabc eec7 d53b 1d7a f53d
00000020: 2c7b bebd 0a8b 1d3e e06a 5dbe 322b 0abe
00000030: f8f2 0f3e 9e1a b53d 6cb5 8fbd fad4 0bbe
00000040: 9fdb d63d cfde c4bd 8316 14be 02d0 94bd
00000050: 4687 83bd f317 093e 082c 0a3e 9744 903b
00000060: 40d6 a23d 66dc 173c 33dd a23d 495b bfbc
00000070: ea13 5a3e 54df 7a3c ed91 1ebd 9f31 0bbe
00000080: acfb c6bd 6ba9 20bd eb1c 2fbe 4d91 76bd
00000090: a056 a1bd c20c 83bd a04f 0abe 5bb3 d83c
000000a0: 2c49 2fbe 3789 9d3c 68f0 7a3d bc6b b5bd
000000b0: b95c d4bd d2e4 383d 8552 ff3d 8fe4 1ebd
000000c0: 60c6 0a3e 0d20 afbd b6d3 39bd 9871 2f3e
000000d0: d332 4a3d 34da edbb 236c 12be 2f62 183e
000000e0: 6856 23bb 9c58 f43d 44eb 31bd ba67 563d
000000f0: 402a 343e eb03 92bd f550 cbbd 08f8 7abd
00000100: 0e8f 97bd 8cb9 92bc 2126 76bd cfb6 0d3e
00000110: 3081 29bd cdd7 a23d b884 9dbd 63f4 19be
00000120: b3f5 42be af27 eabd 41d6 82bd 7333 a03d
00000130: 8bbe b93d f462 9f3d fbc8 4dbd f988 233e
00000140: 2ba2 06be fbbf 86bd 928e 15be 8930 a43d
00000150: 1555 1fbe 6f43 d53b c0f4 bfbd 540f cf3d
00000160: 61c2 cb3d 9082 f6bd 564b 2d3e f557 26be
00000170: 2e01 9abc 5068 b7bd ab75 f83a 186b c4bd
00000180: 3c77 0a3d 3899 993c b27b b8bd ef91 2fbe
00000190: b813 49be 8cf6 b63d ba70 59bd af9a c8bd
000001a0: b614 76bb dd38 d33d d874 ffbc 7a3a 3ebe
000001b0: d093 cd3d bd5d 8439 5c82 c93c 8b38 973d
000001c0: aac8 adbd a586 743d 57b4 0abe 20e8 df3c
000001d0: f549 c13d a415 a43c 3e2b 40bd 3cf9 03bd
000001e0: dfc0 e53d 7d04 01be a8f7 d33d a155 87bd
000001f0: 0e64 293e 7040 44bd 7235 0bbe 5a40 603d
00000200: 09ba e73d ca97 26be 1096 393d fa31 8abd
00000210: bcb6 dd3d cbfd e5bc 1c87 05be 8c9b 26bd
00000220: cc68 2e3d 5a15 1c3e 66a4 10be 1b77 25be
00000230: 6a2b 583c 4168 a1bd 340a 35bd 4e4f cc3d
00000240: 2ad7 493c 388b 373e a3cd adbd c4f3 d9bd
00000250: 3624 303e 1227 5f3e a0cf bc3d 0ad4 133e
00000260: 5736 d8bd 84d1 b1bd efe3 54bd c9c4 963d
00000270: e3a0 83bc c690 983c ca88 adbb fcd8 2c3e
00000280: c82c 45be b251 253e c2cf e73c 9dd3 543d
00000290: 95da 063e 6725 c43e 9ecb e33d ac5d 303d
000002a0: a596 ec3d 1a00 0dbe abce c43c f84c 1d3e
000002b0: 9373 813d 5f8e 443e b90a 2cbe 12a4 0dbe
000002c0: 5138 21be aa04 51be 892f eb3c 3d87 2abe
000002d0: a2b6 8d3d f5fd c43d ad5c 213e 8981 f13d
000002e0: 0ad2 fabc edb8 123e 4cbd 5cbb b4e3 523e
000002f0: a590 493d 8cf0 15be 294a 53be 0995 a43d
00000300: 5883 82be 68f3 21bd 79b4 dc3d 34ea fd3a
00000310: 00cb 303e e678 3e3c a92a fc3d e155 103e
00000320: fc63 fbbd c66b 21be 34a7 84bd dfbd 033e
00000330: 32b3 443b 096a 8e3d 91ce 203d a66e 853d
00000340: ef84 aabd 960d 0fbe bd9b e33c 689a 8abd
00000350: b548 8f3d e274 fd3d b5ef 03be c5d6 75bd
00000360: 1027 82bb d3b4 ebbd 4d5d 26be 8128 ae3d
00000370: 2046 2fbe cf86 873c cc38 763d c0a0 4dbe
00000380: bd25 c9bd 0ceb 213e b806 153e 0660 00be
00000390: 3ae3 213e 8b3e 72ba dd7e 71bd e47d 6c3d
000003a0: b4b4 31be 4056 003e 3943 5ebc dbf8 983d
000003b0: b549 da3d 9249 4cbe 3b21 ea3d 148a a1bd
000003c0: 8fd2 863c bbf5 5ebe a04a 093e d397 583b
000003d0: ded7 d139 9782 b8bd f3ae 563d e7c5 a53c
000003e0: 96fe 75bd c807 f53d eb63 6dbb 50cb d6bd
000003f0: 58ac d2bc f00a 0c3c 3645 873d e2e5 c4bd

phi_x.2.bias f4 [32]
0.20963529 -0.15444444 -0.011968149 -0.006888205 0.06620965 0.048788924 0.11589835 0.065921284
-0.102405086 -0.096364975 0.050292138 -0.017184008 -0.12513064 -0.14409743 -0.07934646 0.062260367
0.113573454 0.28433794 0.078060634 0.10747264 0.08618777 -0.06366547 -0.011607112 0.05687543
0.15378338 -0.12465656 -0.14940804 0.0273168 0.13515173 -0.034790684 -0.20703854 -0.021733643
00000000: a2aa 563e af26 1ebe 0e16 44bc 74b6 e1bb
00000010: ed98 873d e5d6 473d 1d5c ed3d bd01 873d
00000020: c2b9 d1bd 005b c5bd 21ff 4d3d 7ac5 8cbc
00000030: 3f22 00be 478e 13be 6680 a2bd ba04 7f3d
00000040: 3399 e83d be94 913e 41de 9f3d 9e1a dc3d
00000050: 3783 b03d 0b63 82bd c22b 3ebc 36f6 683d
00000060: 6479 1d3e f04b ffbd 6cfe 18be 7bc7 df3c
00000070: 3765 0a3e ad80 0ebd e901 54be c10a b2bc

phi_z.0.weight f4 [32, 12]
0.034252487 -0.041273847 0.013108948 -0.02175061 -0.0041575804 -0.007239285 -0.054399397 0.0025119886
-0.012639432 -0.008142395 -0.009033111 0.004519317 0.011489993 -0.04626212 -0.0010451467 0.021835707
0.023872104 0.005602602 -0.01704794 -0.026342792 -0.0057749883 0.013027803 -0.020087643 0.02312683
-0.011925836 -0.0014506618 -0.026586343 -0.021655094 0.012502714 -0.023519157 0.027056253 0.0012907594
0.02611985 -0.03194545 -0.022793168 -0.009166879 0.0010986911 0.00058928225 -0.036240682 -0.026106881
0.02700872 0.0028272718 -0.010338595 0.001777965 0.0071063456 -0.002520807 -0.014964178 0.010824663
-0.08710658 0.041579936 0.06402886 -0.017552163 -0.01127235 -0.0032583089 0.007400256 0.0061170943
-0.0048917574 -0.0083281845 0.047879543 0.0052117067 0.008100892 0.03828834 0.021745559 -0.025369167
-0.019842632 -0.021495499 -0.034644473 -0.03851656 -0.014034719 0.04969486 -0.011534546 -0.035893045
0.06660759 -0.06109556 -0.008950211 -0.02410133 -0.020542206 0.026703041 -0.0020836887 0.071892135
0.02115707 -0.07748461 0.019984473 -0.09306746 0.014243604 0.055920627 0.01728796 -0.035400484
-0.019121537 0.0036904705 -0.023677193 -0.017071871 0.0074530253 0.02866407 0.010841922 -0.045249686
0.05139319 0.001011489 0.07864096 -0.024408998 -0.04830124 -0.03824833 -0.0163974 -0.033902753
-0.052335463 0.0029940035 0.111354 -0.031498194 0.08295539 0.12950641 -0.097608455 -0.04153859
-0.03299469 0.01573013 0.022616724 -0.033552323 -0.013102716 -0.110035986 0.13778318 0.1059096
0.015236282 0.009539983 0.034264404 -0.0060899486 -0.008803926 -0.008596316 0.03967287 0.08059724
-0.03210675 -0.048941303 0.02346499 0.0021781034 0.021616234 0.027018955 0.023055794 0.013902665
-0.028612524 0.017450342 0.02732693 0.037821416 -0.017948749 -0.038550343 0.05673415 -0.0142867
-0.059967432 0.015814554 -0.034678183 -0.05054197 0.03011956 0.011455536 0.00068108377 -0.092614524
0.004762622 0.030868996 -0.06489475 -0.049626477 -0.050504994 -0.0050623678 0.047835287 -0.03637823
-0.03714834 -0.10416884 -0.06244087 0.020566361 -0.008151804 0.00804351 0.02584203 -0.022514652
0.017403448 -0.0071513066 0.013283415 -0.00419148 0.05814523 -0.015175938 -0.0023398576 0.041715313
-0.096580416 0.10140589 0.046939664 0.016874984 0.02327827 0.021702839 0.00420321 0.067108855
0.0507127 0.10269055 0.028045002 0.008110675 0.0030848694 0.03858767 -0.0052311732 -0.028970912
0.052394096 0.036343742 -0.010631246 -0.017021902 -0.025869304 -0.012183531 0.029561045 -0.023415813
-0.027644021 0.032521047 -0.011189573 -0.11401829 -0.070945755 -0.08725984 -0.04163674 -0.030225115
0.074953 -0.037623417 0.06134346 0.048311878 0.036956508 -0.120594285 -0.053866725 0.032582134
-0.008586235 -0.035753977 -0.02932209 0.04649142 0.09673866 -0.00015927284 -0.03668988 -0.044903364
0.00033654037 0.049994003 -0.03439231 0.015256476 0.013663988 -0.05164422 0.0005922274 -0.024897803
-0.06901808 0.035206508 -0.06441402 0.027338328 -0.008051857 0.032712214 -0.06959328 -0.060880296
0.026227232 0.00575353 0.054956898 -0.03319063 -0.0022297665 -0.018414523 -0.034881946 0.06546741
-0.003513915 0.05121664 0.060848046 0.017407162 -0.03425198 -0.029794995 -8.82658e-06 -0.023616059
00000000: 564c 0c3d c40e 29bd eac6 563c 562e b2bc
00000010: 503c 88bb 8637 edbb e7d1 5ebd 2da0 243b
00000020: 9f15 4fbc ae67 05bc 9dff 13bc c716 943b
00000030: 8640 3c3c 597d 3dbd 4efd 88ba cce0 b23c
00000040: 6e8f c33c 0896 b73b 1fa8 8bbc d7cc d7bc
00000050: 1d3c bdbb 9172 553c d78e a4bc 7a74 bd3c
00000060: 9564 43bc 2224 beba 9acb d9bc 0666 b1bc
00000070: 2fd8 4c3c 3fab c0bc 13a5 dd3c b32e a93a
00000080: 4cf9 d53c 3bd9 02bd bdb8 babc ad30 16bc
00000090: f501 903a 107a 1a3a 1c71 14bd 19de d5bc
000000a0: 6441 dd3c c049 393b 3663 29bc 9b0a e93a
000000b0: 59dc e83b 2034 25bb 502c 75bc ed59 313c
000000c0: ef64 b2bd b94f 2a3d 9021 833d 8ec9 8fbc
000000d0: aaaf 38bc 5a89 55bb d97d f23b e871 c83b
000000e0: 094b a0bb f072 08bc 571d 443d f7c6 aa3b
000000f0: 9bb9 043c 3cd4 1c3d be23 b23c 00d3 cfbc
00000100: 048d a2bc 5417 b0bc 5de7 0dbd 8ac3 1dbd
00000110: e1f1 65bc d68c 4b3d 64fb 3cbc 9604 13bd
00000120: 8f69 883d 573f 7abd e8a3 12bc 2770 c5bc
00000130: 2148 a8bc 56c0 da3c 7f8e 08bb 2f3c 933d
00000140: 9751 ad3c 40b0 9ebd 7ab6 a33c 279a bebd
00000150: 015e 693c 070d 653d 7b9f 8d3c 1900 11bd
00000160: c5a4 9cbc d2db 713b acf6 c1bc 4fda 8bbc
00000170: 8238 f43b e9d0 ea3c 51a2 313c bc57 39bd
00000180: aa81 523d f093 843a 830e a13d 61f5 c7bc
00000190: 85d7 45bd 48aa 1cbd d753 86bc 9ddd 0abd
000001a0: b65d 56bd 0b37 443b 910d e43d 4004 01bd
000001b0: 84e4 a93d 549d 043e f1e6 c7bd 5e24 2abd
000001c0: 7125 07bd 79dc 803c b546 b93c 296e 09bd
000001d0: c6ac 56bc 8c5a e1bd 0917 0d3e 22e7 d83d
000001e0: 99a1 793c 974d 1c3c d558 0c3d 318e c7bb
000001f0: 583e 10bc 90d7 0cbc 0580 223d 2a10 a53d
00000200: 5e82 03bd ad76 48bd a739 c03c 83be 0e3b
00000210: 8714 b13c db56 dd3c 81df bc3c 01c8 633c
00000220: d064 eabc 05f4 8e3c badc df3c a1ea 1a3d
00000230: 4109 93bc f7e6 1dbd 1162 683d c312 6abc
00000240: 69a0 75bd 868d 813c b60a 0ebd 1905 4fbd
00000250: 4cbd f63c 00b0 3b3c c28a 323a afac bdbd
00000260: c50f 9c3b fae0 fc3c 8ae7 84bd 2245 4bbd
00000270: 53de 4ebd 38e2 a5bb efee 433d 5701 15bd
00000280: dc28 18bd 7956 d5bd ffc1 7fbd c97a a83c
00000290: 258f 05bc edc8 033c aab2 d33c a670 b8bc
000002a0: ad91 8e3c 8255 eabb aea2 593c af58 89bb
000002b0: b129 6e3d 7fa4 78bc 4c58 19bb addd 2a3d
000002c0: f4cb c5bd e4ad cf3d ce43 403d 683d 8a3c
000002d0: 12b2 be3c 27ca b13c 15bb 893b 5e70 893d
000002e0: 1fb8 4f3d 6c4f d23d a2be e53c a3e2 043c
000002f0: 852b 4a3b 1b0e 1e3d 436a abbb 6854 edbc
00000300: 319b 563d 2ddd 143d ad2e 2ebc 8471 8bbc
00000310: ddeb d3bc 6f9d 47bc 012a f23c 85d2 bfbc
00000320: b775 e2bc ca34 053d 7954 37bc 6c82 e9bd
00000330: 024c 91bd 49b5 b2bd 498b 2abd a99a f7bc
00000340: f580 993d 031b 1abd 4843 7b3d ade2 453d
00000350: b55f 173d 23fa f6bd 5ba3 5cbd d874 053d
00000360: 48ad 0cbc c372 12bd e134 f0bc ca6d 3e3d
00000370: eb1e c63d 7a02 27b9 2148 16bd 97ec 37bd
00000380: af71 b039 83c6 4c3d f3de 0cbd 4cf6 793c
00000390: ebde 5f3c e488 53bd b53f 1b3a 7af6 cbbc
000003a0: 5a59 8dbd b334 103d 7feb 83bd a1f4 df3c
000003b0: f0eb 03bc 3efd 053d ec86 8ebd 9e5d 79bd
000003c0: 7eda d63c 1c88 bc3b 7c1a 613d e6f2 07bd
000003d0: 4621 12bb 0eda 96bc 5fe0 0ebd c713 863d
000003e0: b649 66bb 8ac8 513d cd3b 793d 7799 8e3c
000003f0: ce4b 0cbd a214 f4bc df15 14b7 7776 c1bc

phi_z.0.bias f4 [32]
-0.1831216 0.21266009 0.09221424 0.0046791905 -0.19583146 0.15383846 -0.31460673 0.042052016
-0.23452492 -0.25138897 0.055642806 0.21451856 -0.38653103 -0.12718001 -0.35839394 -0.12243012
-0.23779559 -0.20994838 -0.084450826 -0.38335484 -0.30699095 -0.32824996 -0.12504485 -0.16511685
-0.2780508 -0.14964762 0.20546532 -0.1420613 -0.3141459 -0.23897566 0.1779754 0.21184704
00000000: 3b84 3bbe 91c3 593e d2da bc3d e553 993b
00000010: 0b88 48be d487 1d3e 2214 a1be bc3e 2c3d
00000020: 4d27 70be 0eb6 80be b6e9 633d c1aa 5b3e
00000030: 65e7 c5be 7a3b 02be 697f b7be a5bc fabd
00000040: b080 73be b5fc 56be 8ef4 acbd 1647 c4be
00000050: eb2d 9dbe 6110 a8be c20b 00be 6414 29be
00000060: ad5c 8ebe 3a3d 19be 8065 523e 8478 11be
00000070: bbd7 a0be 09b6 74be 2f3f 363e 6eee 583e

enc.0.weight f4 [32, 64]
-0.014162662 -0.0008713007 -0.030150622 -0.12564147 0.017061511 -0.09957086 0.013884085 -0.06471964
0.12273614 0.0022962822 -0.021531507 -0.024493545 0.09231131 -0.09730919 -0.034263376 -0.09608672
0.038006797 0.16944923 -0.05873467 -0.04690885 -0.022503942 0.086260214 0.07794337 0.077141926
-0.04716048 -0.011427243 0.08392292 0.05443984 0.027716467 -0.01599349 0.08355675 0.023495434
-0.14043732 -0.23855297 -0.024726719 -0.06923109 0.035113696 -0.007482832 0.04169271 -0.10887256
-0.16214089 0.16047134 0.014911643 0.043173805 -0.004834259 0.07633185 -0.036852855 -0.049629085
0.09349578 -0.16641928 -0.044593778 -0.13392617 0.00513013 -0.046015855 -0.02344495 -0.022793496
0.00013302804 -0.040030446 0.05737724 0.038055174 -0.05855846 0.040154282 0.008237669 0.08655303
-0.049371067 -0.025514513 -0.11243349 0.05531034 -0.08216941 0.07169046 0.09765748 0.051275752
-0.05404541 0.052532263 -0.013368145 0.110750616 0.11889173 0.08901358 -0.015494447 -0.016313342
0.016615242 0.09207079 -0.11850043 -0.034070667 0.07768746 0.107879385 -0.08163835 -0.10178123
-0.047058936 -0.04747089 -0.030981034 0.046704568 -0.13151853 -0.06310785 0.0065367073 0.08209732
0.016526075 -0.093875796 -0.093303755 -0.11167051 -0.057709813 0.11782894 -0.014579177 -0.061945975
-0.034836754 -0.10735213 0.036435615 0.052064773 -0.027495148 -0.080171995 -0.10337424 -0.041524924
0.09969521 0.000120912526 0.013317351 -0.10761117 -0.100631185 0.06995034 0.065457605 0.054329623
-0.0880502 -0.03270068 0.026013548 0.026095456 -0.0016281646 0.10657561 -0.08599063 0.087226324
0.015345415 0.008907139 -0.051579103 0.06375097 0.04778902 -0.05740089 0.25147787 -0.045771044
-0.03445308 0.15505555 0.06609143 -0.09930928 -0.08658674 0.04857126 -0.0058470466 -0.034530863
-0.09964911 0.19054018 0.1110113 0.26872328 0.032927256 0.07896124 0.006788244 0.092508174
0.045084547 -0.039367445 -0.014723942 0.04861549 0.11586706 -0.044518173 0.0144001655 -0.05751487
-0.06171962 -0.12808602 0.11516865 0.07236598 -0.1447443 0.05273717 -0.16110143 -0.17548773
-0.16281682 0.1562651 0.11333391 0.02434172 0.1679848 0.05889853 -0.07533466 -0.0070335176
0.19620308 -0.08736722 -0.12730981 -0.053127326 -0.09194912 0.099574834 0.020748008 -0.025116986
0.10362551 0.050818134 -0.033636954 0.086481825 0.06920408 -0.038183656 0.119468786 0.034779526
-0.11395654 0.017588317 0.09564714 -0.109743655 -0.06801821 -0.027034253 -0.061118945 -0.064836234
-0.0120856315 -0.026683941 0.0037235767 0.122402206 -0.10605198 0.05878617 -0.031638786 0.06087725
0.119460344 0.010954782 0.07415372 -0.040395156 0.051357552 -0.012899488 0.022855148 -0.00240165
-0.107760355 -0.07550061 0.05287525 -0.116857365 -0.067825496 0.120783865 0.030061036 -0.10105735
-0.03415823 0.0019814223 0.09439677 -0.03284788 0.027153268 -0.05480738 -0.03122501 -0.065017745
-0.10996345 -0.009326369 0.013618469 0.06569737 0.016078085 -0.0034924448 -0.063593775 0.012288302
-0.069099516 0.060344398 -0.12020685 -0.041097254 0.030200869 0.0064216554 0.063832894 -0.05034226
0.089266375 -0.09170441 0.009647161 -0.045027137 -0.034086898 0.11544646 -0.026464 0.07987693
00000000: 830a 68bc 0068 64ba 70fe f6bc 28a8 00be
00000010: 95c4 8b3c cfeb cbbd 137a 633c bb8b 84bd
00000020: 165d fb3d 397d 163b d862 b0bc b0a6 c8bc
00000030: b60d bd3d 0a4a c7bd c157 0cbd 1dc9 c4bd
00000040: 04ad 1b3d 1984 2d3e c493 70bd 7f23 40bd
00000050: 305a b8bc 32a9 b03d c6a0 9f3d 96fc 9d3d
00000060: 592b 41bd 5539 3bbc c8df ab3d 4ffc 5e3d
00000070: a50d e33c c804 83bc cd1f ab3d 7f79 c03c
00000080: cdce 0fbe 3b47 74be b08f cabc 08c9 8dbd
00000090: 61d3 0f3d 8b32 f5bb fac5 2a3d 94f8 debd
000000a0: 4308 26be 9952 243e f74f 743c 04d7 303d
000000b0: b468 9ebb df53 9c3d 05f3 16bd de47 4bbd
000000c0: b77a bf3d d169 2abe f7a7 36bd f123 09be
000000d0: a61a a83b 1f7b 3cbd a00f c0bc 6db9 babc
000000e0: 717d 0b39 f7f6 23bd 6604 6b3d bedf 1b3d
000000f0: ffda 6fbd d178 243d 4af7 063c b742 b13d
00000100: 5139 4abd d003 d1bc 8843 e6bd 188d 623d
00000110: 7048 a8bd 73d2 923d a500 c83d 8606 523d
00000120: b85e 5dbd 122c 573d 1006 5bbc 38d1 e23d
00000130: 827d f33d c04c b63d 6cdc 7dbc 8fa3 85bc
00000140: b01c 883c 9c8f bc3d 5ab0 f2bd af8d 0bbd
00000150: 9a1a 9f3d deef dc3d 0232 a7bd ad72 d0bd
00000160: dfc0 40bd d670 42bd f0cb fdbc 4a4d 3f3d
00000170: cbac 06be b03e 81bd e031 d63b a422 a83d
00000180: b161 873c f441 c0bd 0a16 bfbd 82b3 e4bd
00000190: 2061 6cbd 4d50 f13d 80dd 6ebc 10bb 7dbd
000001a0: fcb0 0ebd 6fdb dbbd 833d 153d df41 553d
000001b0: 813d e1bc 3731 a4bd e0b5 d3bd 0a16 2abd
000001c0: 012d cc3d 6b92 fd38 0531 5a3c 3f63 dcbd
000001d0: b917 cebd 2042 8f3d a30e 863d bd88 5e3d
000001e0: aa53 b4bd 26f1 05bd 5d1a d53c 23c6 d53c
000001f0: 2368 d5ba 5044 da3d db1b b0bd b7a3 b23d
00000200: 566b 7b3c 40ef 113c 9c44 53bd de8f 823d
00000210: 6bbe 433d 321d 6bbd b5c1 803e 6b7a 3bbd
00000220: ac1e 0dbd e2c6 1e3e f25a 873d aa62 cbbd
00000230: 6454 b1bd a8f2 463d 9598 bfbb 3c70 0dbd
00000240: d514 ccbd f71c 433e e459 e33d 1996 893e
00000250: bbde 063d 6eb6 a13d eb6f de3b ed74 bd3d
00000260: 93aa 383d c23f 21bd b03c 71bc 0921 473d
00000270: b64b ed3d b058 36bd acee 6b3c b694 6bbd
00000280: b6cd 7cbd fb28 03be 8bdd eb3d 9d34 943d
00000290: da37 14be ee02 583d c6f7 24be 0eb3 33be
000002a0: 74b9 26be f503 203e 9c1b e83d 4968 c73c
000002b0: 3504 2c3e 963f 713d 0f49 9abd 6c79 e6bb
000002c0: 76e9 483e 96ed b2bd 815d 02be 0a9c 59bd
000002d0: d24f bcbd e4ed cb3d baf7 a93c 23c2 cdbc
000002e0: 9d39 d43d ad26 503d e7c6 09bd 621d b13d
000002f0: deba 8d3d 7766 1cbd 0dac f43d fa74 0e3d
00000300: 0c62 e9bd 6015 903c a6e2 c33d 48c1 e0bd
00000310: 224d 8bbd f076 ddbc dc57 7abd dcc8 84bd
00000320: d002 46bc 4898 dabc 4007 743b 02ae fa3d
00000330: c831 d9bd c4c9 703d ac97 01bd 6c5a 793d
00000340: a0a7 f43d b07b 333c e8dd 973d 6475 25bd
00000350: 4c5c 523d 6058 53bc b83a bb3c 0065 1dbb
00000360: 76b1 dcbd 10a0 9abd b893 583d ea52 efbd
00000370: 18e8 8abd 885d f73d 9042 f63c 28f7 cebd
00000380: 80e9 0bbd c0da 013b 1853 c13d 808b 06bd
00000390: 8870 de3c b47d 60bd 98cb ffbc 0628 85bd
000003a0: 8434 e1bd a0cd 18bc 0020 5f3c 588c 863d
000003b0: 30b6 833c 80e1 64bb 743d 82bd e054 493c
000003c0: 0c84 8dbd b02b 773d 022f f6bd 9855 28bd
000003d0: d067 f73c c06c d23b d2ba 823d b033 4ebd
000003e0: 4ad1 b63d 86cf bbbd 200f 1e3c 606e 38bd
000003f0: b49e 0bbd 326f ec3d 08cb d8bc 8496 a33d

enc.0.bias f4 [32]
-0.04816206 -0.124471374 0.12784149 -0.07446177 0.110107146 0.09291651 -0.13018008 0.124588765
0.1228188 -0.009521142 -0.10968678 -0.1229122 0.017604178 -0.057146892 0.042303074 -0.043034546
-0.037819687 0.024197495 0.0055728457 -0.028544275 -0.026882077 0.035594862 0.048114195 0.11168434
-0.06830657 0.14802492 -0.009354487 -0.0500617 0.061634164 0.012100941 -0.053109236 0.015979905
00000000: 9545 45bd d9ea febd e1e8 023e 6a7f 98bd
00000010: db7f e13d 034b be3d ed4d 05be 6528 ff3d
00000020: 6c88 fb3d 90fe 1bbc 76a3 e0bd 64b9 fbbd
00000030: a336 903c dc12 6abd fd45 2d3d fe44 30bd
00000040: d1e8 1abd d339 c63c 6b9c b63b afd5 e9bc
00000050: cd37 dcbc ebcb 113d 6413 453d c2ba e43d
00000060: 51e4 8bbd d893 173e 9043 19bc 7f0d 4dbd
00000070: 1b74 7c3d 0643 463c 1289 59bd 4ae8 823c

enc.2.weight f4 [32, 32]
0.09386246 -0.094210744 0.3751784 -0.06857347 -0.057863824 -0.013079564 -0.02711815 0.07526662
-0.042557064 0.17197514 -0.09274117 -0.13187987 0.15545835 -0.13266656 -0.13152361 -0.08102558
-0.17649733 0.0041392 0.08845105 -0.0127415685 0.12847646 -0.06051028 -0.023556659 -0.068464674
-0.100691535 0.119612224 0.030128058 -0.08099515 0.009919398 0.13960156 -0.004921198 0.1380437
-0.051275495 0.1584459 0.036070257 -0.009138785 0.0758999 -0.18092641 -0.03403163 -0.061230604
-0.04042492 0.08651568 -0.110422805 0.16946697 -0.10811228 0.05475939 0.104935646 0.07840509
0.009772237 0.0629741 -0.12713353 -0.09622528 0.1510122 -0.17970048 -0.023754973 -0.11686025
0.04077652 0.1386279 0.12485443 0.11468481 0.024192907 0.06672419 -0.013790027 0.007403657
-1.9240037e-05 0.14225484 -0.033735074 0.039756596 0.000930202 0.07411727 -0.16155787 -0.11100409
0.1605186 -0.10221258 -0.08448243 -0.033484615 -0.12784618 -0.08135762 0.015161612 -0.14299646
0.09414276 -0.025313355 0.0145051535 -0.11204082 -0.08235922 0.0003841053 0.121014684 -0.090233855
0.09513165 -0.00065072626 0.027789608 0.04911979 0.012269832 -0.116633095 -0.00028151987 0.08122947
0.029340623 0.1199874 0.15087931 -0.032617908 -0.02760729 -0.080143034 0.075211234 -0.07784603
-0.17917933 -0.16178793 -0.06693343 -0.13910285 -0.062551096 0.10953571 0.026047308 0.07340118
-0.01856914 0.14014374 -0.03459745 0.1770614 0.14775945 0.11762259 -0.106031775 -0.14419411
-0.08492438 0.12056087 -0.042360295 0.039921205 0.04782728 0.10108265 0.14246288 -0.064240694
0.025160277 0.13930064 0.1761233 -0.14561968 0.16126096 0.14872248 0.13168408 -0.12416377
-0.11088389 0.13015015 -0.17671825 -0.06888095 -0.1300112 -0.060129244 -0.08433287 -0.15062295
0.0691289 -0.056752227 -0.013920893 -0.02289166 0.024796592 -0.11687053 0.12968197 0.07887833
0.09895458 -0.17463838 -0.06568359 -0.02021327 -0.03467042 0.109718546 -0.066002004 -0.08484188
0.035841595 0.0074709943 0.48939463 0.14282034 -0.06342186 0.03130996 -0.012052649 0.01767609
-0.05503397 0.04314678 -0.10311106 0.04917993 0.0380715 -0.057101823 0.056347974 -0.046448905
-0.060976334 0.054450035 -0.070338964 0.10752007 -0.08754897 -0.09955929 -0.114052325 -0.04862769
0.021182245 0.12366675 0.08786604 -0.16346425 0.104162484 0.035072606 -0.073087 -0.11554479
0.13131982 0.11367887 0.019498289 0.17507851 0.0044051744 0.036182918 -0.08858625 0.12583464
0.11847395 0.051089376 -0.040574245 0.046546124 0.08756466 0.058701217 -0.046906162 0.041792348
0.1230863 -0.10476761 -0.07642001 -0.188556 -0.12535448 0.110625654 0.11696534 0.005943628
0.12916048 0.18947372 -0.023690952 0.15574762 -0.1139316 0.018920513 0.04847655 -0.050368335
0.04155351 -0.14003599 0.17443718 -0.027260097 0.13056083 -0.037471704 0.04375533 0.05608236
0.05862316 0.10089203 -0.15493049 0.114035524 -0.10123212 -0.005633487 0.061744153 -0.09332286
0.14813168 0.15330368 -0.077674285 0.072970614 0.13724741 -0.049110897 0.06931736 -0.01573618
-0.13676152 -0.12746845 0.03666379 0.106394835 0.008258231 0.14843594 -0.09512547 -0.1461797
00000000: f63a c03d 90f1 c0bd 6217 c03e 3f70 8cbd
00000010: 9e02 6dbd ab4b 56bc e226 debc 6325 9a3d
00000020: 5150 2ebd 401a 303e 15ef bdbd 840b 07be
00000030: 7930 1f3e bed9 07be 20ae 06be bdf0 a5bd
00000040: b7bb 34be 20a2 873b d325 b53d 03c2 50bc
00000050: 558f 033e a1d9 77bd e5f9 c0bc 3537 8cbd
00000060: 5d37 cebd 41f7 f43d 1ecf f63c c9e0 a5bd
00000070: f984 223c b6f3 0e3e 0042 a1bb 545b 0d3e
00000080: 4106 52bd a43f 223e 68be 133d d8ba 15bc
00000090: 6871 9b3d c644 39be c064 0bbd f1cc 7abd
000000a0: 9a94 25bd 222f b13d 5a25 e2bd c088 2d3e
000000b0: f969 ddbd 624b 603d 80e8 d63d d992 a03d
000000c0: bc1b 203c 91f8 803d 4b2f 02be c211 c5bd
000000d0: f1a2 1a3e 6703 38be ca99 c2bc 6d54 efbd
000000e0: 4805 273d 79f4 0d3e aeb3 ff3d dfdf ea3d
000000f0: 3430 c63c b1a6 883d 91ef 61bc 609a f23b
00000100: aa65 a1b7 41ab 113e ca2d 0abd d0d7 223d
00000110: cdd8 733a ccca 973d 6d6f 25be 1d56 e3bd
00000120: fd5e 243e d454 d1bd 2005 adbd 2a27 09bd
00000130: 1cea 02be d39e a6bd 6968 783c aa6d 12be
00000140: ebcd c03d f45d cfbc 06a7 6d3c a875 e5bd
00000150: f3ab a8bd be61 c939 8cd6 f73d 87cc b8bd
00000160: 62d4 c23d 8095 2aba 08a7 e33c d531 493d
00000170: 6807 493c 55dd eebd f598 93b9 a35b a63d
00000180: bf5b f03c f4bb f53d 1b80 1a3e 5b9a 05bd
00000190: af28 e2bc 0822 a4bd 5908 9a3d bd6d 9fbd
000001a0: c97a 37be bcab 25be 6514 89bd fa70 0ebe
000001b0: ca1a 80bd 4254 e03d 2a61 d53c 5c53 963d
000001c0: 4f1e 98bc d781 0f3e 0eb6 0dbd 954f 353e
000001d0: 414e 173e 1de4 f03d 3027 d9bd 9fa7 13be
000001e0: d5ec adbd 9ee8 f63d fd81 2dbd 6b84 233d
000001f0: 8ae6 433d 6c04 cf3d cae1 113e a090 83bd
00000200: ed1c ce3c d4a4 0e3e ab59 343e 531d 15be
00000210: 9821 253e b54a 183e 31d8 063e 9349 febd
00000220: 1817 e3bd 1546 053e a1f5 34be 7511 8dbd
00000230: a821 05be 154a 76bd b6b6 acbd e73c 1abe
00000240: 7493 8d3d 0675 68bd 7514 64bc 4a87 bbbc
00000250: 3922 cb3c d159 efbd 5acb 043e f68a a13d
00000260: b3a8 ca3d 67d4 32be 1e85 86bd 4d96 a5bc
00000270: 9202 0ebd 1eb4 e03d 0f2c 87bd 94c1 adbd
00000280: a3ce 123d 3ecf f43b ef91 fa3e 7f3f 123e
00000290: 52e3 81bd df3e 003d 7978 45bc 73cd 903c
000002a0: 4d6b 61bd aeba 303d e42b d3bd e570 493d
000002b0: dcf0 1b3d 9ae3 69bd 22cd 663d 3541 3ebd
000002c0: 52c2 79bd 0007 5f3d e00d 90bd 7c33 dc3d
000002d0: e04c b3bd bee5 cbbd 4494 e9bd d42d 47bd
000002e0: 6386 ad3c fe44 fd3d 1cf3 b33d 2c63 27be
000002f0: 2453 d53d 4ba8 0f3d a3ae 95bd bfa2 ecbd
00000300: b478 063e 78d0 e83d e0ba 9f3c c847 333e
00000310: 4859 903b 8a34 143d b56c b5bd ccda 003e
00000320: 78a2 f23d 1843 513d 2e31 26bd 26a7 3e3d
00000330: 1a55 b33d b070 703d ad20 40bd 742e 2b3d
00000340: ac14 fc3d 6790 d6bd 1882 9cbd d314 41be
00000350: ed5c 00be b48f e23d 868b ef3d c4c2 c23b
00000360: a542 043e 6605 423e 8713 c2bc 4e7c 1f3e
00000370: f854 e9bd 31ff 9a3c 598f 463d 074f 4ebd
00000380: 0334 2a3d 9865 0fbe a99f 323e 9150 dfbc
00000390: bdb1 053e ee7b 19bd ca38 333d 9eb6 653d
000003a0: d71e 703d 7ba0 ce3d 19a6 1ebe 758b e93d
000003b0: c952 cfbd 1d99 b8bb 70e7 7c3d 0e20 bfbd
000003c0: d5af 173e a4fb 1c3e b213 9fbd 9e71 953d
000003d0: 968a 0c3e 8228 49bd 43f6 8d3d 29e9 80bc
000003e0: 360b 0cbe 1787 02be c52c 163d 89e5 d93d
000003f0: 884d 073c 97ff 173e 24d1 c2bd 22b0 15be

enc.2.bias f4 [32]
0.0053284857 0.06322907 -0.08234596 -0.010135489 -0.16025786 0.07581552 0.15836349 0.16693464
-0.16028872 -0.11420965 0.06383815 -0.09360006 -0.10895795 0.0057081836 -0.12083623 -0.0094710365
-0.05773798 0.16486408 -0.03904859 0.12957586 -0.11972579 0.07755673 -0.08191621 0.12746473
0.1204165 0.1090304 -0.013416995 -0.08525513 0.068430446 -0.0847497 -0.09512093 0.06041983
00000000: 949a ae3b 3e7e 813d 00a5 a8bd 520f 26bc
00000010: a31a 24be 2b45 9b3d 0a2a 223e eaf0 2a3e
00000020: ba22 24be c0e6 e9bd 93bd 823d 63b1 bfbd
00000030: 5825 dfbd b70b bb3b fc78 f7bd 682c 1bbc
00000040: a97e 6cbd 21d2 283e 6af1 1fbd 89af 043e
00000050: cc32 f5bd 10d6 9e3d b0c3 a7bd 1d86 023e
00000060: ed9c f63d 554b df3d f5d2 5bbc 3e9a aebd
00000070: 4325 8c3d 4091 adbd c3ce c2bd c97a 773d

enc_mean.weight f4 [12, 32]
0.059379444 -0.14639583 -0.14582302 -0.056114722 -0.004128284 0.049555466 0.033419874 0.014330895
-0.16097336 0.15435965 -0.07204879 0.02608443 0.12573737 -0.102378055 -0.063387424 -0.11737524
0.032550875 -0.08350193 -0.12212033 -0.02352125 -0.16632202 -0.0128475195 0.112569995 -0.07185137
0.00890633 -0.00854651 0.028190697 0.04562711 -0.030962534 -0.028370287 -0.049413543 0.016827237
0.069659874 0.09756305 -0.118311346 -0.021559736 -0.025364416 0.13195533 -0.13900714 -0.1840149
0.11316985 0.045351714 -0.036749702 -0.09412278 -0.028104741 -0.13105527 0.064522594 0.098176345
0.08578392 -0.106399626 0.10700219 -0.122525305 -0.0771261 0.07979461 0.03653122 0.06794475
0.07084224 0.034557126 0.012253234 0.121107504 0.028323948 0.05706369 -0.013205703 -0.052497152
-0.16993219 0.05308827 -0.104497015 -0.104837924 -0.04084295 0.14999765 0.06855029 0.0006380899
-0.15530755 -0.062096298 0.1398745 -0.06895875 0.009089537 0.07542393 0.04119979 -0.13554446
0.055575572 0.08154854 -0.05936986 -0.15352547 -0.09262042 -0.054252308 -0.101896875 -0.020818425
0.005056797 -0.055325065 0.10517148 0.06560979 0.1165364 0.07451719 0.0799035 0.07832936
0.09596642 0.1501612 0.07355967 0.07061671 -0.07681254 0.013399859 0.029892785 -0.16454174
-0.12347564 0.17274015 -0.106213465 -0.06290124 -0.13360348 0.04338753 -0.06508536 -0.14149679
-0.0007222073 -0.0790486 0.09416793 -0.1486362 0.035822988 -0.060425393 -0.040299993 0.14968292
-0.12076669 0.039780978 0.08633006 0.069333136 0.21472383 0.122471064 0.1031227 0.051508777
0.10980002 -0.07622051 -0.116403505 0.0289433 -0.04045674 -0.06761427 0.06214113 0.117340095
0.16231278 0.16057031 -0.00038705417 0.15401767 -0.04993074 0.007046775 0.0055495906 -0.10483597
-0.16927731 0.12407392 -0.086466156 0.090931065 0.0034637754 -0.035270523 -0.011380176 0.096016325
-0.03575929 0.068937086 -0.03667545 -0.12491457 -0.122027196 0.11009512 -0.0010084279 0.04726324
-0.14090398 -0.0055259024 0.013619016 -0.0095456885 0.09677709 -0.045701545 0.08660491 0.20506844
0.15159403 0.12778707 -0.056197364 0.16370484 -0.17294088 -0.069343284 -0.097232476 0.16280927
0.09214669 0.20182614 -0.0012151691 0.09150281 0.16809835 -0.01203006 0.15382579 0.06660268
-0.044025727 -0.13581768 0.20507883 -0.090045914 0.181942 -0.03258071 -0.18451267 0.029420972
-0.09929042 -0.020622248 0.04326317 0.003294416 0.1741464 0.05456082 0.032293107 0.15375753
-0.08375175 0.14041667 -0.018640224 -0.02382359 -0.10632828 0.14747934 0.02729018 0.037829995
-0.057831965 0.18176915 0.072887026 0.07979135 -0.13106188 0.013282431 0.14899705 -0.004220482
-0.057289902 0.15141082 -0.115609534 -0.13227282 -0.015612236 0.16263443 0.026417518 -0.1120988
-0.07374283 0.13672905 0.15379435 -0.0171811 0.13704813 0.039916717 0.028342795 0.07150232
-0.16065434 -0.14197429 -0.028315047 0.124262854 0.12031863 0.10788078 -0.06718583 0.11409613
0.049214706 0.07160817 -0.10459876 -0.044952333 -0.09240222 -0.07450115 -0.076603115 -0.0058195614
-0.06610953 0.048716895 -0.06364135 -0.049372967 -0.0045203976 -0.010193821 0.110285796 -0.18199643
00000000: dc37 733d cae8 15be a152 15be 8dd8 65bd
00000010: 8e46 87bb acfa 4a3d 47e3 083d 21cc 6a3c
00000020: 33d6 24be 7510 1e3e 518e 93bd 04af d53c
00000030: 4cc1 003e 96ab d1bd 44d1 81bd 6e62 f0bd
00000040: 1154 053d 0f03 abbd 391a fabd a3af c0bc
00000050: 5250 2abe 677e 52bc 198b e63d d026 93bd
00000060: dbeb 113c a906 0cbc 2df0 e63c 7ee3 3a3d
00000070: 24a5 fdbc ce68 e8bc db65 4abd 46d9 893c
00000080: d6a9 8e3d 23cf c73d 384d f2bd 0b9e b0bc
00000090: 09c9 cfbc 4c1f 073e e357 0ebe 676e 3cbe
000000a0: 98c5 e73d b8c2 393d db86 16bd 72c3 c0bd
000000b0: ea3b e6bc 5a33 06be 6c24 843d ae10 c93d
000000c0: 7baf af3d 0ce8 d9bd f723 db3d 8cee fabd
000000d0: 4af4 9dbd 5b6b a33d c3a1 153d 9e26 8b3d
000000e0: bc15 913d c68b 0d3d cac1 483c 3607 f83d
000000f0: a007 e83c 9ebb 693d bc5c 58bc 4107 57bd
00000100: b402 2ebe 1673 593d 8802 d6bd 44b5 d6bd
00000110: f04a 27bd fc98 193e 1864 8c3d 7d45 273a
00000120: f108 1fbe b058 7ebd 433b 0f3e 3f3a 8dbd
00000130: 48ec 143c dd77 9a3d 1cc1 283d 2bcc 0abe
00000140: 36a3 633d ec02 a73d cf2d 73bd c835 1dbe
00000150: c6af bdbd ab37 5ebd 4faf d0bd 678b aabc
00000160: 7db3 a53b 899c 62bd 2564 d73d 6d5e 863d
00000170: a3aa ee3d 789c 983d 72a4 a33d 256b a03d
00000180: 0b8a c43d dcc3 193e 74a6 963d 7e9f 903d
00000190: e54f 9dbd 158b 5b3c b7e1 f43c a17d 28be
000001a0: cce0 fcbd cbe2 303e 7286 d9bd 5ed2 80bd
000001b0: 5acf 08be 1fb7 313d 794b 85bd 89e4 10be
000001c0: 8352 3dba 3be4 a1bd 1edb c03d 1734 18be
000001d0: 20bb 123d 9e80 77bd 9b11 25bd 7b46 193e
000001e0: 8754 f7bd 61f1 223d d1cd b03d 88fe 8d3d
000001f0: 90e0 5b3e 1cd2 fa3d fe31 d33d defa 523d
00000200: d5de e03d 8019 9cbd f664 eebd 801a ed3c
00000210: f7b5 25bd 5a79 8abd b387 7e3d 0150 f03d
00000220: 5235 263e 8b6c 243e 88ed cab9 cfb6 1d3e
00000230: 2d84 4cbd a2e8 e63b 57d9 b53b 3eb4 d6bd
00000240: 0857 2dbe 781a fe3d 2b15 b1bd 113a ba3d
00000250: 8200 633b d377 10bd eb73 3abc 35a4 c43d
00000260: 5578 12bd e32e 8d3d ff38 16bd 36d3 ffbd
00000270: 65e9 f9bd 8d79 e13d 3a2d 84ba 1997 413d
00000280: 2249 10be a112 b5bb 4b22 5f3c 8565 1cbc
00000290: 1133 c63d 8b31 3bbd ea5d b13d 76fd 513e
000002a0: 773b 1b3e 9dda 023e 352f 66bd 3ea2 273e
000002b0: 6a17 31be da03 8ebd d221 c7bd 79b7 263e
000002c0: 67b7 bc3d 83ab 4e3e 4f46 9fba d365 bb3d
000002d0: f921 2c3e bb19 45bc 8284 1d3e fc66 883d
000002e0: 5254 34bd ca13 0bbe 2f00 523e fe69 b8bd
000002f0: 014f 3a3e 5a73 05bd e4f0 3cbe 4004 f13c
00000300: c758 cbbd fdef a8bc b934 313d 21e7 573b
00000310: 6f53 323e 2b7b 5f3d c745 043d 9d72 1d3e
00000320: 0a86 abbd 63c9 0f3e 62b3 98bc b029 c3bc
00000330: a4c2 d9bd d304 173e a88f df3c a0f3 1a3d
00000340: 36e1 6cbd b121 3a3e cb45 953d a669 a33d
00000350: 1635 06be 8e9e 593c af92 183e f84b 8abb
00000360: d1a8 6abd 700b 1b3e b1c4 ecbd 8772 07be
00000370: 77ca 7fbc a489 263e 8d69 d83c 0e94 e5bd
00000380: 7b06 97bd b302 0c3e 447c 1d3e 61bf 8cbc
00000390: 5856 0c3e b67f 233d 262f e83c cf6f 923d
000003a0: 9282 24be b561 11be f5f4 e7bc 867d fe3d
000003b0: 9d69 f63d 99f0 dc3d b998 89bd 3bab e93d
000003c0: 5c95 493d 4ea7 923d e037 d6bd f01f 38bd
000003d0: 603d bdbd 0f94 98bd 18e2 9cbd 05b2 bebb
000003e0: 6f64 87bd 5e8b 473d 6556 82bd 4f3b 4abd
000003f0: d81f 94bb fc03 27bc 85dd e13d 465d 3abe

enc_mean.bias f4 [12]
-0.05150465 0.03578062 -0.015699303 0.15551278 0.06905374 -0.13142696 -0.16449484 0.1447837
0.00434226 -0.12601547 0.054655563 0.041189075
00000000: 8af6 52bd b38e 123d d39b 80bc be3e 1f3e
00000010: 0c6c 8d3d ca94 06be 5671 28be 2e42 143e
00000020: 8449 8e3b 330a 01be 83de 5f3d e0b5 283d

enc_std.0.weight f4 [12, 32]
-0.040443033 0.07767344 0.12306757 0.08926181 0.08657342 -0.09273397 -0.093046986 -0.15593177
0.14740196 -0.047131155 -0.018208802 -0.13460553 -0.05484763 -0.065344885 -0.11812751 0.13915747
0.0055204993 0.19075768 -0.10539564 0.089760415 -0.16057034 -0.07864429 0.070191085 -0.13293052
-0.07981375 -0.072786845 0.0075110686 -0.072068945 -0.043918647 0.13022198 0.18293186 0.13728023
0.16023709 -0.010423952 -0.10669934 -0.07532901 0.16903944 -0.023152761 -0.059333753 0.07038106
0.04132214 -0.069822975 -0.110048786 0.022592228 0.0716574 -0.06552008 -0.10971682 0.08180864
0.14253756 0.14424652 0.090615734 0.13193147 0.15435976 -0.04528958 -0.15702912 0.05383651
0.13821967 0.15333539 -0.029703572 0.020591673 0.03159216 -0.1413245 -0.08360799 0.011903369
0.08268057 -0.09378544 -0.105831385 -0.06932946 0.0015937198 -0.19050208 -0.15755592 0.04951952
-0.0019043632 -0.12351151 0.03992368 0.170355 0.02902588 0.045496635 -0.088397466 0.1380694
0.16585489 0.07347343 0.080781356 -0.06436484 -0.09384767 -0.11019976 -0.013202269 0.035484754
-0.059060022 0.055134144 0.02105138 0.063562825 0.021997608 0.07991658 -0.07074002 0.059684914
0.002909989 -0.0071966257 -0.14940645 -0.11615091 0.042766534 0.09949742 -0.061694387 0.14162499
-0.04920086 0.059509367 -0.13606195 0.062721506 -0.1527721 0.12922575 -0.08066944 0.044149913
-0.1756099 -0.15178788 -0.036938325 -0.06706663 -0.034687363 -0.0062532416 0.15195547 0.10607427
0.059336036 0.19222708 -0.01913658 0.14323823 0.05525249 -0.13748771 -0.18326986 0.1301494
0.17002325 -0.038572434 0.08514361 0.11228222 0.10134167 0.10096123 0.09969895 0.05830633
0.015285081 0.12382447 -0.0820333 -0.013541761 0.009524281 0.09834761 -0.008360124 0.14594121
0.11755188 -0.10771244 -0.120142296 0.08803645 0.097085856 -0.012532062 0.14554036 0.06133752
0.08016534 0.17161277 -0.070869766 0.031285517 0.124415696 -0.054270517 -0.14680105 0.1974328
-0.12039656 -0.0625651 -0.06748777 0.0022881678 0.1206628 0.047987115 -0.13356365 -0.057104323
-0.1587507 -0.054900568 -0.01735331 -0.1756668 -0.10968871 -0.11313866 -0.11928834 -0.007818936
-0.011267264 0.031658966 -0.15939523 0.040177647 0.031493433 0.11012335 -0.023438305 0.17573254
-0.11595998 -0.1263356 -0.03467097 0.112861425 0.08435072 -0.04568171 -0.16046979 0.0077097462
0.054520138 0.10211578 0.16836503 0.017017143 0.010230136 0.20346008 0.103029534 -0.1161012
0.17457499 0.11867941 0.06534716 0.029761069 0.09584821 0.023849763 -0.21700616 -0.055962324
0.047167633 -0.06282478 -0.043123856 0.070827655 0.02578443 0.2134839 -0.07602172 -0.102911845
-0.022538455 0.1095681 0.049964327 0.12336279 -0.10255673 -0.032253664 0.1231398 -0.09485223
-0.10615646 0.036468554 0.11298118 -0.027077895 -0.12187979 0.089317985 -0.010146218 -0.0037042059
0.043760523 -0.061443992 -0.05917762 -0.058653135 0.11056739 -0.062221494 0.029062219 0.07619859
-0.041083947 -0.03957842 0.031203117 -0.060904093 -0.12289751 0.12841563 0.103390224 -0.026649004
0.10516916 -0.05998504 0.08904203 -0.09564615 -0.09114539 -0.1327482 0.07526331 0.032583136
00000000: 98a7 25bd 4113 9f3d da0a fc3d e5ce b63d
00000010: 684d b13d 4feb bdbd 6b8f bebd 94ac 1fbe
00000020: 8af0 163e 990c 41bd a02a 95bc 08d6 09be
00000030: e9a7 60bd 8ad3 85bd d6ec f1bd 4c7f 0e3e
00000040: 4ee5 b43b fb55 433e abd9 d7bd 4fd4 b73d
00000050: 8d6c 24be 4210 a1bd 58c0 8f3d f01e 08be
00000060: 6475 a3bd 4511 95bd 691f f63b e298 93bd
00000070: 0ae4 33bd e958 053e 7d52 3b3e 3093 0c3e
00000080: 3115 243e 39c9 2abc 2f85 dabd 1946 9abd
00000090: ad18 2d3e dcaa bdbc f307 73bd f223 903d
000000a0: 6741 293d 59ff 8ebd 4261 e1bd 5613 b93c
000000b0: 1dc1 923d 642f 86bd 36b3 e0bd 4a8b a73d
000000c0: 5ef5 113e 5cb5 133e be94 b93d 0b19 073e
000000d0: 7c10 1e3e 9181 39bd 3ecc 20be ac83 5c3d
000000e0: 7589 0d3e f403 1d3e e854 f3bc deaf a83c
000000f0: c866 013d 5fb7 10be aa3a abbd 5906 433c
00000100: 6e54 a93d 9512 c0bd 20be d8bd 9bfc 8dbd
00000110: 5de4 d03a fa12 43be 5756 21be fbd4 4a3d
00000120: d39b f9ba 9af3 fcbd 0387 233d 8b71 2e3e
00000130: afc7 ed3c ae5a 3a3d bb09 b5bd 1162 0d3e
00000140: ddd5 293e 3d79 963d b270 a53d b7d1 83bd
00000150: 3533 c0bd 69b0 e1bd 544e 58bc 7658 113d
00000160: ece8 71bd 57d4 613d f273 ac3c 3a2d 823d
00000170: 5434 b43c 4eab a33d 25e0 90bd 2b78 743d
00000180: 84b5 3e3b acd1 ebbb 01fe 18be 87e0 edbd
00000190: f62b 2f3d 4ec5 cb3d 41b3 7cbd 2406 113e
000001a0: d786 49bd 18c0 733d d353 0bbe 2274 803d
000001b0: 4a70 1cbe c153 043e 0536 a5bd 8ad6 343d
000001c0: 15d3 33be 486e 1bbe a44c 17bd 3b5a 89bd
000001d0: 5614 0ebd fee7 ccbb 379a 1b3e 783d d93d
000001e0: 580a 733d 2dd7 443e 51c4 9cbc 0bad 123e
000001f0: 6f50 623d 94c9 0cbe 18ab 3bbe e245 053e
00000200: 931a 2e3e 21fe 1dbd c65f ae3d 38f4 e53d
00000210: 398c cf3d c3c4 ce3d f72e cc3d 9ed2 6e3d
00000220: 476e 7a3c af97 fd3d 1301 a8bd 43de 5dbc
00000230: bb0b 1c3c 796a c93d e7f8 08bc 9d71 153e
00000240: 0abf f03d 5798 dcbd 2a0d f6bd 744c b43d
00000250: f3d4 c63d 4753 4dbc 8808 153e 0d3d 7b3d
00000260: ba2d a43d 42bb 2f3e 2b24 91bd 3e25 003d
00000270: a8cd fe3d c34a 5ebd 0453 16be d32b 4a3e
00000280: 7992 f6bd 2222 80bd 0737 8abd 16f5 153b
00000290: 0f1e f73d 238e 443d e9c4 08be 39e6 69bd
000002a0: 8b8f 22be 6bdf 60bd 8728 8ebc ffe1 33be
000002b0: 79a4 e0bd 3eb5 e7bd 724d f4bd ff1a 00bc
000002c0: 559a 38bc d5ac 013d 8138 23be 5191 243d
000002d0: 42ff 003d 5a88 e13d b001 c0bc 3bf3 333e
000002e0: 6d7c edbd 1f5e 01be 2603 0ebd e423 e73d
000002f0: 12c0 ac3d bf1c 3bbd 3152 24be 0aa2 fc3b
00000300: 8250 5f3d 1422 d13d e267 2c3e 8967 8b3c
00000310: 4d9c 273c d757 503e 2601 d33d 77c6 edbd
00000320: c9c3 323e 310e f33d bbd4 853d 7ccd f33c
00000330: 114c c43d 9460 c33c dd36 5ebe c038 65bd
00000340: d932 413d 47aa 80bd a4a2 30bd 170e 913d
00000350: de39 d33c 869b 5a3e 47b1 9bbd 72c3 d2bd
00000360: 91a2 b8bc 3d65 e03d 65a7 4c3d a1a5 fc3d
00000370: 4309 d2bd 6b1c 04bd b830 fc3d e341 c2bd
00000380: 8f68 d9bd 0d60 153d ad62 e73d 76d2 ddbc
00000390: 1d9c f9bd 59ec b63d 533c 26bc 43c2 72bb
000003a0: 3c3e 333d b2ac 7bbd 3b64 72bd 453e 70bd
000003b0: 2871 e23d f7db 7ebd e413 ee3c 020e 9c3d
000003c0: a447 28bd fb1c 22bd ae9d ff3c 9276 79bd
000003d0: b1b1 fbbd 637f 033e 41be d33d 034f dabc
000003e0: ee62 d73d e0b2 75bd ab5b b63d 21e2 c3bd
000003f0: 6faa babd 25ef 07be a623 9a3d e575 053d

enc_std.0.bias f4 [12]
0.07516334 -0.11796315 0.062882125 -0.07091888 -0.084255196 0.11588701 -0.10581544 0.061939914
0.06276912 0.041207466 -0.11469583 0.0045164046
00000000: 3def 993d aa96 f1bd 58c8 803d eb3d 91bd
00000010: fd8d acbd 2b56 ed3d c4b5 d8bd b5b4 7d3d
00000020: 198d 803d 29c9 283d a6e5 eabd 59fe 933b
