varRNN/VariationalRNN/VariationalRecurrentNeuralNetwork-master/saves/vrnn_state_dict_81.pth (torch, 92942 bytes, 30 tensors)

phi_x.0.weight f4 [32, 12]
000000 43 bc 62 3e da 79 41 bd 89 ae 1e bd 25 29 85 be
       0.22142129 -0.047235347 -0.03874067 -0.26007953
000010 d7 11 a1 3d 56 df db bd 37 5e 64 3d 16 cb 70 3e
       0.07864731 -0.10735957 0.055753913 0.23514971
000020 de db 6d be 2c 30 51 3e 0f a6 23 be a8 f2 2c be
       -0.23228404 0.20428532 -0.15981315 -0.16889441
000030 4f 4a 63 bd 57 19 ba bd 97 20 9c 3e 8c 1c a1 3b
       -0.055490788 -0.090868644 0.30493614 0.004916733
000040 ab 28 57 bc 73 35 87 3e b6 e9 28 bd d5 b7 01 3e
       -0.013132255 0.26407966 -0.04123851 0.12667783
000050 7f 38 54 be 51 c2 76 be 6d 71 8f be 3a b1 9b 3e
       -0.20724677 -0.24097563 -0.28016225 0.3040865
000060 14 3d 54 be bc 35 11 3e c1 40 ca bd cc e7 a4 3d
       -0.20726424 0.14180654 -0.09875632 0.08052024
000070 fe 1f 01 3e 68 fa 3b be 9e e2 8b bd bf 1f 8a be
       0.1260986 -0.18357241 -0.06830333 -0.26977345
000080 e6 4d 71 be 78 40 1d bc 01 88 e7 bc d7 e7 07 3e
       -0.23564872 -0.00959789 -0.028263094 0.13272034
000090 aa 0b 58 be 4e c6 1c 3e 74 cf 5a 3e 70 31 65 be
       -0.210982 0.15310022 0.213682 -0.2238214
0000a0 f0 09 93 bd ef 17 28 3c ab 26 5e be b9 46 62 be
       -0.0717963 0.010259612 -0.21694438 -0.22097291
0000b0 0c 9f 06 3d 95 ca 69 be c9 5d 80 3e cc 8d 0d be
       0.032866523 -0.22831185 0.25071552 -0.13823622
0000c0 6b 55 01 bc 56 2b 3a 3e 75 77 d4 bd 9f e8 4f 3e
       -0.0078939 0.18180594 -0.10374347 0.20303582
0000d0 64 d1 9e 3c 16 47 a0 3e ae cf 91 3e f8 0a ae bb
       0.019386955 0.31304234 0.2847876 -0.005311366
0000e0 f7 87 24 bd a4 5a 17 3e 83 1f fc bd 1d 07 06 3e
       -0.04016873 0.1478067 -0.12310698 0.13088651
0000f0 0f 16 e8 3b e5 4c 51 bd 12 31 df 3d e1 a1 8f 3e
       0.0070827077 -0.051098723 0.10898031 0.2805319
000100 12 b8 5a be 03 4c 3c 3e c7 cc f6 3e f3 a2 6d be
       -0.2135928 0.18388371 0.48203108 -0.23206691
000110 05 c6 06 bd 0b 8b 6b 3e 13 43 4a be 8a c1 40 3e
       -0.03290369 0.2300226 -0.1975215 0.1882383
000120 4b 16 fe bc d3 f2 ef 3c 4e f7 f3 bd bf f9 90 be
       -0.03101649 0.029290592 -0.11912404 -0.2831554
000130 46 80 b4 3c e5 d9 24 3e 9b 1b 9a be e9 e4 9c 3e
       0.022033822 0.16098745 -0.30099186 0.30643395
000140 9e 96 7c 3e 42 6d 59 3d ab e4 7f 3e 94 a2 ac 3d
       0.24666831 0.053082712 0.24989574 0.08429447
000150 3c 84 7c be 02 a0 21 be 03 1b 48 bc 46 2c 90 3d
       -0.24659818 -0.15783694 -0.012213471 0.070396945
000160 7d 3b a6 3d f0 a3 cf bd 6d b9 5b 3e ac b2 86 bc
       0.08116815 -0.101386905 0.21457453 -0.01644262
000170 da 0a 30 3a 81 ee 8d 3d db 53 d8 3d e9 81 7e bd
       0.0006715484 0.06930257 0.10562869 -0.06213561
000180 9a 7c 2b 3d 6e 29 0f be bf 9c b8 3d 19 73 8d 3e
       0.041866876 -0.13980648 0.09014272 0.27626875
000190 97 6d 27 be 80 18 54 3e f5 c7 5a 3e 8a df 87 bd
       -0.16350399 0.20712471 0.2136534 -0.066344336
0001a0 d0 c3 1b be b1 4e 34 be a4 37 67 3d c9 db 1b be
       -0.15211415 -0.17608143 0.056449547 -0.1522056
0001b0 83 6e 24 be 43 9b 35 3e 10 62 40 be ef b4 12 3e
       -0.16057782 0.17735009 -0.18787408 0.14326833
0001c0 01 ff b6 3c 4a 4a df 3d f9 29 1f 3e ec 9d 4f 3d
       0.022338392 0.109028414 0.15543355 0.050687715
0001d0 d2 05 82 be eb db ec 3d 37 c6 8a 3e 98 b6 92 be
       -0.25395066 0.115653835 0.2710435 -0.28654933
0001e0 17 12 15 bd b1 7f 28 3e f8 40 27 3e 75 16 6b 3e
       -0.036394205 0.1645496 0.16333377 0.22957785
0001f0 90 c9 a9 3d 53 96 97 3e bd 1e 82 3e 4d 23 f8 3d
       0.08290398 0.29606876 0.25414076 0.12116108
000200 c0 34 d7 bd 2f 7b 12 3e 7f 74 0c bd fe 6c 4d bd
       -0.10508108 0.14304803 -0.034290787 -0.05015277
000210 ca ed bd 3e 3a b2 45 3e df c3 b8 bd 32 90 42 3e
       0.3709548 0.1930627 -0.090217344 0.19000319
000220 b8 26 b3 bd 44 60 61 3d 3f 37 73 bd 6e a1 18 be
       -0.087476194 0.055023447 -0.05937886 -0.1490533
000230 0e c6 92 3e ab 02 b1 bd 6d cd c8 bd 4c fd 95 3e
       0.2866673 -0.08643087 -0.09804807 0.29294813
000240 c5 d3 60 be 46 ee 8b be 00 31 f8 bd 0c 5a 49 bd
       -0.21955784 -0.27330226 -0.12118721 -0.04915814
000250 04 65 6c 3e 75 ae 62 be d3 fe 77 be 12 14 85 3e
       0.2308541 -0.22136863 -0.24218301 0.25991875
000260 e8 87 34 be c2 2f 81 3d 03 99 53 be 92 36 5b 3e
       -0.17629969 0.06307937 -0.20663838 0.21407536
000270 12 69 24 be 86 e2 85 3e 08 e3 9f 3d 50 ab 0b be
       -0.16055706 0.26149386 0.07806975 -0.1363957
000280 8c 7d 86 be d5 f4 f4 3d 30 13 2f be d7 fa 5b be
       -0.2626766 0.119607605 -0.17097163 -0.21482407
000290 48 e2 9f 3e 8b d4 21 be e3 e9 88 3e fc eb b7 bd
       0.31227326 -0.15803735 0.2674094 -0.08980557
0002a0 fb 02 e4 bb 87 5a 6f be 83 2d 8e 3e 36 1e 4e 3e
       -0.006958363 -0.23374377 0.27769098 0.20128712
0002b0 bb e0 69 3e 20 8f ac bd 99 e8 29 3e 25 72 b2 3e
       0.22839634 -0.084257364 0.16592635 0.3485271
0002c0 6f c1 c5 3c af c1 89 be dc 27 f9 bd 2e 92 b6 3e
       0.024140088 -0.2690558 -0.12165806 0.356584
0002d0 21 f8 b3 bd 1d c9 b6 3d ba ca 7d 3d 42 12 3e 3e
       -0.08787561 0.08925078 0.061960913 0.18561652
0002e0 40 49 87 3e 3f 47 85 3d e3 38 d2 3e 91 64 9c 3e
       0.26423073 0.0650773 0.41059026 0.30545476
0002f0 9f 77 56 3d 9d 7a e3 3d 93 18 2a be 35 ac 9a bb
       0.052360173 0.11107371 -0.16610937 -0.0047202357
000300 a0 c0 0d be 70 26 bd 3d 3c 06 79 3d 2c ab f0 3c
       -0.13843012 0.09235847 0.06079696 0.029378496
000310 2a b0 f1 3d 27 25 d9 3c 83 80 a7 be 96 a3 84 3b
       0.11801179 0.026506973 -0.32715234 0.0040478213
000320 34 a6 e4 3d df 41 e7 3d d9 dd 61 be 17 d7 3d be
       0.11164513 0.11291861 -0.22057284 -0.18539082
000330 4a c4 c8 3c 72 76 46 3e d7 24 f4 3d d3 c3 01 3e
       0.02450766 0.19381121 0.11921089 0.12672357
000340 68 95 3f 3e ee cb ac be 82 d2 01 3d 4c cc 07 3e
       0.18709338 -0.33749336 0.031694897 0.13261527
000350 be 24 5e be 40 65 62 be e3 4c da bd 8d bf 83 be
       -0.21693704 -0.22108936 -0.10659196 -0.2573208
000360 b5 da 37 bd 13 04 90 be ca ae 83 bd fc 29 ac 3d
       -0.04488631 -0.28128108 -0.06429823 0.084064454
000370 c3 68 39 3e d0 56 70 bd c5 44 e9 bd 9b 59 85 be
       0.1810637 -0.05867654 -0.1139007 -0.26044926
000380 59 b7 39 3e 1e cf 55 be 22 47 38 3e 5d 05 9c be
       0.18136348 -0.2087979 0.17995885 -0.30472842
000390 f9 91 85 bd 5b 0a da bd ac c5 7e be 0c 00 37 be
       -0.06521983 -0.106465064 -0.24880093 -0.17871112
0003a0 c4 05 2f 3e d1 a6 fb 3d 87 77 e1 3d 79 69 58 3e
       0.17092043 0.12287677 0.11009126 0.21133985
0003b0 db 3f 84 be 27 cd fa 3d 78 3d 9a be 36 3e 3a 3c
       -0.25829968 0.12246161 -0.30125022 0.011367371
0003c0 df cb ff bc d4 83 36 3c 89 18 e3 bc 56 d3 94 3e
       -0.031225143 0.011139829 -0.02772166 0.29067487
0003d0 08 42 1a 3c be 4e b3 3d 7b 7a a8 3e 70 3a e8 3c
       0.009415157 0.08755253 0.32905945 0.028348178
0003e0 7d 27 09 3e 64 30 00 3e 82 0d 37 3e 12 76 f3 3d
       0.1339397 0.1251846 0.17876247 0.118877545
0003f0 d5 45 95 3e 80 cc f5 3d cd fc 95 bd f7 b1 82 3e
       0.2915484 0.12001896 -0.073236085 0.255264

phi_x.0.bias f4 [32]
000000 a5 01 7c 3e 2b 2c 25 3e 6e 11 3f be 78 0d 62 be
       0.24610002 0.1613013 -0.18658993 -0.2207545
000010 73 80 e2 3b a1 20 04 be 13 c1 ed bd 11 07 cd 3d
       0.006912285 -0.12903072 -0.116090916 0.100111134
000020 27 1f ac 3d 47 24 b3 bd b7 33 4d be 3d 9b 3b be
       0.08404379 -0.08747154 -0.20039259 -0.18320937
000030 5d d1 33 bd 37 38 95 3e ed 74 4c be b4 4f 0f be
       -0.043900836 0.2914445 -0.19966479 -0.13995248
000040 f1 73 94 3e 32 58 cb 3e c9 95 36 be 2f d8 14 3e
       0.28994706 0.39715725 -0.17830576 0.14535592
000050 cb e4 6f be 0a 48 56 3d cf 37 1e 3e e1 3b 4d 3d
       -0.23427121 0.052314796 0.15450977 0.050105933
000060 1a 9d 58 3d 88 cf 2b 3d 34 fd 4f 3e c6 d1 53 bd
       0.0528842 0.041945964 0.20311433 -0.051713727
000070 64 34 45 ba f0 4c 2c 3e 61 da cb 3d ae d7 28 3e
       -0.00075227604 0.16826224 0.09953762 0.16488525

phi_x.2.weight f4 [32, 32]
000000 d4 2c 13 3e d8 12 20 3e 24 ee c6 3c 80 13 31 3e
       0.1437257 0.15632188 0.024283476 0.17292595
000010 3f 01 c8 bd 7a 04 a6 bc e5 20 11 bc c4 51 0d 3e
       -0.09765863 -0.020265806 -0.00885794 0.13800722
000020 ae ff a1 bd 17 42 25 3e 27 c3 4e be 22 aa 00 be
       -0.07910095 0.16138493 -0.20191632 -0.125649
000030 f8 f2 0f 3e 17 44 8f 3d fc f2 81 bd d2 36 00 be
       0.14057529 0.06995409 -0.06345174 -0.12520912
000040 4b ed e3 3d 22 3d 8e bd f8 61 0a be 3b 92 bf bd
       0.111292444 -0.06945254 -0.13513935 -0.09354063
000050 2e ca 77 bd 08 c2 17 3e 71 ab 08 3e 9c 2f ac bc
       -0.060495548 0.14820111 0.1334665 -0.021018796
000060 26 07 98 3d 48 fe 6a 3d 51 8d cf 3d 87 26 16 bc
       0.074232385 0.057371408 0.10134376 -0.009164459
000070 3d 66 44 3f 05 14 bd 3c fc 6a 06 bd 2b 8a f2 bd
       0.76718503 0.023080835 -0.032816872 -0.1184276
000080 ac fb c6 bd 6b a9 20 bd eb 1c 2f be 4d 91 76 bd
       -0.09715971 -0.03922407 -0.17100875 -0.060197163
000090 a0 56 a1 bd c2 0c 83 bd a0 4f 0a be 5b b3 d8 3c
       -0.078778505 -0.06398918 -0.13506937 0.02645271
0000a0 2c 49 2f be 37 89 9d 3c 68 f0 7a 3d bc 6b b5 bd
       -0.17117757 0.019230468 0.061264426 -0.08858439
0000b0 b9 5c d4 bd d2 e4 38 3d 85 52 ff 3d 8f e4 1e bd
       -0.10369248 0.045140095 0.12466911 -0.03879219
0000c0 60 c6 0a 3e 0d 20 af bd b6 d3 39 bd 98 71 2f 3e
       0.13552237 -0.08551035 -0.04536792 0.17133176
0000d0 d3 32 4a 3d 34 da ed bb 23 6c 12 be 2f 62 18 3e
       0.049364876 -0.007258678 -0.14299063 0.14881204
0000e0 68 56 23 bb 9c 58 f4 3d 44 eb 31 bd ba 67 56 3d
       -0.0024923328 0.119309634 -0.043437257 0.052345015
0000f0 40 2a 34 3e eb 03 92 bd f5 50 cb bd 08 f8 7a bd
       0.17594242 -0.071296535 -0.09927551 -0.061271697
000100 0e 8f 97 bd 8c b9 92 bc 21 26 76 bd cf b6 0d 3e
       -0.074003324 -0.017910741 -0.060094956 0.13839267
000110 30 81 29 bd cd d7 a2 3d b8 84 9d bd 63 f4 19 be
       -0.04138297 0.07951317 -0.0769133 -0.15034632
000120 b3 f5 42 be af 27 ea bd 41 d6 82 bd 73 33 a0 3d
       -0.1903904 -0.1143335 -0.06388522 0.07822313
000130 8b be b9 3d f4 62 9f 3d fb c8 4d bd f9 88 23 3e
       0.09069546 0.07782546 -0.050240498 0.1597022
000140 2b a2 06 be fb bf 86 bd 92 8e 15 be 89 30 a4 3d
       -0.131478 -0.06579586 -0.14605168 0.0801707
000150 15 55 1f be 6f 43 d5 3b c0 f4 bf bd 54 0f cf 3d
       -0.155598 0.006508283 -0.09372854 0.101103455
000160 61 c2 cb 3d 90 82 f6 bd 56 4b 2d 3e f5 57 26 be
       0.09949184 -0.120366216 0.1692327 -0.1624449
000170 2e 01 9a bc 50 68 b7 bd ab 75 f8 3a 18 6b c4 bd
       -0.01879939 -0.08955443 0.0018955966 -0.09590739
000180 ff f7 78 39 06 5d 43 bc b2 7b b8 bd ef 91 2f be
       0.00023743509 -0.011924034 -0.09007968 -0.17145513
000190 05 05 78 be 36 e9 d4 3c db d1 ac bd 4f 31 01 be
       -0.24220665 0.02599011 -0.08438464 -0.12616466
0001a0 44 fb f4 bc 82 eb b8 3d 51 89 97 bd a5 4c 44 be
       -0.029904969 0.090292946 -0.07399238 -0.19169863
0001b0 d0 93 cd 3d b7 eb 22 bd 3b e8 3e bc b1 87 19 3d
       0.100379586 -0.039775576 -0.011652048 0.03748292
0001c0 58 95 e3 bd 10 d0 d5 3c 57 b4 0a be 59 be 91 bb
       -0.111124694 0.026100188 -0.13545357 -0.00444774
0001d0 04 1c 80 3d 37 0d 48 bc d4 55 8f bd 45 0c 78 bd
       0.062553436 -0.012210182 -0.06998792 -0.060558576
0001e0 ee ca 9a 3d 7d 04 01 be 6f 3d 94 3d ac af af bd
       0.07558237 -0.12599368 0.0723828 -0.085784286
0001f0 91 bc 06 3e fc 16 9c bd ae 9d 2b be 25 49 c0 3c
       0.1315787 -0.076215714 -0.16759369 0.023472378
000200 14 3f a5 3d 76 6f 15 be 10 96 39 3d fa 31 8a bd
       0.08068672 -0.145933 0.045309126 -0.067478135
000210 6a ac bc 3d d6 cb 67 bd 14 bb c0 bd 0b a3 4c bd
       0.09212573 -0.056590877 -0.09410682 -0.049960177
000220 7a 7e 60 3d bd 92 f4 3d 2f 8c 21 be d8 78 54 be
       0.054808117 0.119420506 -0.15776132 -0.20749223
000230 6a 2b 58 3c 11 f2 4b bd 5d ed 55 bd 26 1f b2 3d
       0.0131939445 -0.0497914 -0.05222832 0.08697347
000240 22 72 94 3c be b0 5d 3e 90 66 9d bd cf 0f fd bd
       0.018120829 0.21649453 -0.07685578 -0.12356531
000250 fa 3d 1a 3e fa 42 59 3e 5f 42 da 3d 94 d2 22 3e
       0.15062705 0.21216956 0.106571905 0.15900642
000260 e6 ca e6 bd 80 2d dc ba 2b dc 73 bb 53 a9 51 3d
       -0.112691686 -0.0016798228 -0.0037210088 0.05118687
000270 5f c4 9e be 35 81 6c ba fa 8d e0 bb 94 2c 29 3e
       -0.31009194 -0.0009021939 -0.0068528624 0.16520911
000280 9d 1b 46 be 4e 95 27 3e c2 cf e7 3c 9d d3 54 3d
       -0.19346471 0.16365549 0.028297309 0.051959623
000290 b9 28 0b 3e 3c 78 cb 3e 22 7a 20 3e 32 c3 88 3c
       0.13589753 0.3974017 0.1567159 0.016694639
0002a0 ea ef be 3d ea 06 ae bd 9d 38 c0 3c 81 d8 50 3e
       0.09323104 -0.084974125 0.023464495 0.2039509
0002b0 93 73 81 3d 19 cb 3f 3e 20 64 1c be 63 b3 11 be
       0.06320872 0.1872982 -0.1527257 -0.14228587
0002c0 f7 67 25 be 9e 61 95 be 29 d6 b1 3c 76 d3 a0 bc
       -0.1615294 -0.29176039 0.021708565 -0.019632082
0002d0 c4 2b a9 3d ff ad aa 3d b6 4b 17 3e 5c ee ca 3d
       0.08260301 0.08333968 0.14774975 0.09908745
0002e0 54 61 52 bc 80 36 0c be e7 b5 4c bd a9 e1 64 3e
       -0.012840588 -0.13692665 -0.049978163 0.22351708
0002f0 5b aa da 3d 41 b6 14 be a5 e4 4d be 81 27 8b 3d
       0.10677024 -0.1452265 -0.20106752 0.06794644
000300 cb 39 78 be 96 36 7d bd 79 b4 dc 3d 34 ea fd 3a
       -0.24240796 -0.061819635 0.1077661 0.0019372166
000310 47 3b 24 3e 97 a4 49 3c 6e 30 12 3e 8e 04 b0 3d
       0.16038238 0.012307308 0.14276287 0.08594619
000320 b7 f1 0c be 09 37 2d be 48 91 98 bd 46 de 28 3e
       -0.13764082 -0.16915525 -0.07449585 0.1649104
000330 32 b3 44 3b 8c e9 4b 3d cf e4 de 3c 31 20 42 3d
       0.0030014035 0.049783275 0.027208714 0.04739398
000340 fa 3e c5 bd ce f1 62 be c1 0d eb 3c dc 3f e4 bd
       -0.096311525 -0.22162554 0.028693082 -0.11144993
000350 89 dc 8f 3d b8 b3 df 3d 03 7c 1d be b2 53 d0 bd
       0.070244856 0.109229505 -0.15379338 -0.101722136
000360 99 f3 90 bc f2 d7 8a be 53 26 83 be 5c 1f c0 3d
       -0.017694281 -0.27117878 -0.25615177 0.09380981
000370 f4 f3 0a bf 96 65 98 3a 0e 43 49 3d 35 58 6e be
       -0.5427849 0.0011626955 0.049136214 -0.23275836
000380 98 c8 4b bd 6d 33 35 3e b8 06 15 3e 06 60 00 be
       -0.049751848 0.17695399 0.14553344 -0.1253663
000390 c5 5b 2f 3e db 5f 8e 3b 31 85 2b bc 77 18 78 3d
       0.17124851 0.004344923 -0.010468767 0.060570206
0003a0 a6 8a 55 be 66 6c 31 3e 37 67 8b ba c5 96 fb 3d
       -0.20853671 0.17326507 -0.0010635619 0.122846164
0003b0 b5 49 da 3d be 2b 57 be 4f c0 1a 3e 90 07 90 bd
       0.1065859 -0.2101278 0.15112422 -0.070326924
0003c0 78 46 21 3d a0 58 a5 be ba e5 04 3e 0b 31 8e bd
       0.039373845 -0.32294178 0.12978259 -0.06942948
0003d0 eb 72 82 3c 2f a7 c5 bd 11 47 2e 3d c0 bc 0a bd
       0.015923938 -0.09651028 0.042548243 -0.033871412
0003e0 8c 75 10 3c e9 8c 3f 3e 72 ed 54 bd ea f8 ab bd
       0.008817088 0.18706097 -0.051984258 -0.08397086
0003f0 d2 d9 98 3c b3 8e f2 3c e0 24 0c 3e 3d 88 f7 bd
       0.018658552 0.02960906 0.13685942 -0.12086532

phi_x.2.bias f4 [32]
000000 c9 fe 61 3e af 26 1e be 0e 16 44 bc 23 fc 20 bd
       0.22069849 -0.15444444 -0.011968149 -0.039302956
000010 ed 06 94 3d 93 fb 0a 3d c5 12 bd 3d 29 3d 89 3d
       0.072278835 0.033931326 0.09232096 0.067011185
000020 c2 b9 d1 bd 42 1e bf bd 21 ff 4d 3d 7a c5 8c bc
       -0.102405086 -0.09331943 0.050292138 -0.017184008
000030 3f 22 00 be 47 8e 13 be 9b 33 ba bd ea ea ac 3d
       -0.12513064 -0.14409743 -0.09091874 0.08443244
000040 33 99 e8 3d ca 88 97 3e 41 de 9f 3d 6e a0 fa 3d
       0.113573454 0.2959655 0.078060634 0.12237631
000050 37 83 b0 3d 0b 63 82 bd 50 09 a0 bc 6e ed 9d 3d
       0.08618777 -0.06366547 -0.01953569 0.07711302
000060 cd ac 0c 3e 49 90 ff bd 6c fe 18 be 7f 6d 92 3c
       0.13737793 -0.12478692 -0.14940804 0.017874477
000070 d3 3f 0d 3e ad 80 0e bd 10 7b 58 be 70 04 a4 bc
       0.13793878 -0.034790684 -0.21140695 -0.020021647

phi_z.0.weight f4 [32, 12]
000000 c3 49 d5 3c 87 84 2a bb 64 e7 1c 3c 18 27 1a bc
       0.026036149 -0.0026018934 0.009576652 -0.009408735
000010 3d ad c7 bc 92 27 44 bc d7 80 3f bd b0 ee 3c bb
       -0.024374599 -0.011972325 -0.04675373 -0.0028828792
000020 24 9f 71 bc 32 52 01 3c 6b 73 52 bc ce 79 aa 3c
       -0.014747415 0.007893132 -0.012844901 0.020810034
000030 e9 2d 50 3b 41 26 d3 3b 37 0b ef 3b 76 52 97 bb
       0.0031765646 0.006443769 0.007295038 -0.0046179844
000040 55 42 91 bb 7d d4 de b8 92 97 a8 3b 25 f9 35 bc
       -0.004432956 -0.00010625364 0.0051450217 -0.011106764
000050 b4 4b d6 ba b3 04 cb 3a a8 cc bb 3b 49 45 0d 3b
       -0.0016349466 0.0015489071 0.005731184 0.002155619
000060 23 10 38 bc ae c5 6d ba 8d f2 e5 ba 2f ee 50 3c
       -0.011234316 -0.0009070289 -0.0017543599 0.0127521
000070 9e 3f 04 bc 83 e4 7f bc 43 14 67 bb fe 1b 2f 3b
       -0.008071808 -0.015618446 -0.003525988 0.0026719566
000080 81 1f bf bb b1 38 a6 ba 2c 52 cb ba 44 da 5f bb
       -0.005832613 -0.001268169 -0.001551216 -0.0034157196
000090 7e 62 83 bb f6 05 8a 3c 0d d9 db 3b 2e a5 dc bb
       -0.004009544 0.016848546 0.006709224 -0.006733558
0000a0 4d a9 5e bb 5d dc b5 3b a2 bc 99 3b 10 59 e7 bb
       -0.0033975423 0.005549951 0.0046916762 -0.0070601776
0000b0 69 d9 d6 bb 7b 12 84 3b a3 74 6f 3b e6 13 9a bb
       -0.006556679 0.0040305234 0.0036538027 -0.004702079
0000c0 69 1d 4d bd 60 54 75 3c 9e d8 17 3d dc 8f 41 bc
       -0.050076876 0.01497373 0.037071817 -0.011814084
0000d0 22 88 ab bb d9 45 06 ba 8f d4 99 3c b0 53 39 bc
       -0.005234734 -0.00051221024 0.018778114 -0.011311457
0000e0 d5 c3 2d bb 5c fe 57 3c c0 2f e0 3c a4 a6 12 3b
       -0.002651443 0.013183203 0.027366519 0.0022377158
0000f0 45 ac 14 3c e6 db ea 3b fd f5 2a 3c b7 40 16 bc
       0.009074275 0.007167327 0.010434625 -0.009170703
000100 a2 c1 09 3a 0e 02 9c 3b e9 f0 ca bb fb 87 a7 bc
       0.0005254989 0.004760987 -0.0061932695 -0.020450583
000110 2f 16 20 3a 70 77 5f 3c fb 93 0d bc 06 16 aa bb
       0.0006106821 0.013639316 -0.008641238 -0.0051906137
000120 86 28 1f 3d ba 9b 8b bd dc 67 5d bb b7 29 15 bc
       0.038857006 -0.06816812 -0.003378383 -0.009104184
000130 56 19 2f 3c 94 41 2a 3a ba a0 ae 3c d6 4b 12 3c
       0.010687193 0.0006494757 0.021316875 0.0089292135
000140 1c 74 e2 bb c4 92 95 bd 20 c8 56 3c 32 30 84 bd
       -0.006910814 -0.07303384 0.013109237 -0.06454505
000150 3e 81 00 3b a5 47 20 ba 68 10 3f 3b 29 7b e5 ba
       0.0019608284 -0.00061141915 0.0029154066 -0.0017508018
000160 2e 17 b3 bb 24 1c e2 3a 33 13 b3 bb 8e 52 03 bc
       -0.0054654097 0.0017250818 -0.005464935 -0.008015288
000170 6e f8 07 bc 3f de 3b b9 83 b3 ec 3a 2d 70 f5 ba
       -0.008298976 -0.00017916503 0.001805887 -0.0018725448
000180 ab e7 ac 3c e1 0f 98 3c b6 69 8c 3c 74 50 2d 3c
       0.021106562 0.01856226 0.01714025 0.010578264
000190 66 8a b0 bc c0 c0 b0 3c c5 9b 6b 3c 6c 94 2e bd
       -0.021550369 0.021576285 0.0143804 -0.042622015
0001a0 64 5c 46 bc 77 9a 18 bd bc 62 9d 3d 72 94 15 3a
       -0.012106989 -0.037256684 0.07684848 0.0005706019
0001b0 cc 44 34 3c f3 39 e0 3c 48 40 21 bd ac 55 f8 bc
       0.011002731 0.027371382 -0.039367944 -0.030314289
0001c0 af c2 86 bc dd 50 cd 3c a5 47 1b 3d f9 49 da bc
       -0.016450254 0.025062973 0.037910122 -0.026646601
0001d0 a3 6a 53 bc fa fd 01 bd 1b 63 90 3d d4 f7 46 3d
       -0.012903842 -0.03173635 0.07050153 0.04857619
0001e0 2c 01 2c bc 42 06 f8 bb 0e 15 88 3c 84 3c 17 bc
       -0.010498326 -0.0075691054 0.016611602 -0.009230737
0001f0 cc 51 a5 3b cb 12 bd bb d1 55 81 bb 40 85 6f bb
       0.0050451513 -0.0057700626 -0.0039469977 -0.003654793
000200 d5 9d bf bb b3 50 e9 bb 9c 5f f8 bb 79 d7 6b bc
       -0.0058476725 -0.007120216 -0.007579757 -0.014394634
000210 50 44 5f ba 84 bf 11 3c bf 38 99 bb 1d e6 d7 3b
       -0.0008516954 0.008895759 -0.004675954 0.006588711
000220 86 8f a3 bb 77 4a 14 3b 91 5a a4 3b 5a 74 51 3c
       -0.0049914746 0.0022627392 0.005015679 0.012784088
000230 43 24 f7 ba 40 4c 88 bb b4 1c 91 ba 0a f7 0b 3b
       -0.0018855411 -0.0041594803 -0.0011071176 0.0021356964
000240 df 6e 24 bd 10 e8 b6 ba 61 d3 83 bc 1c b1 db bc
       -0.040144797 -0.0013954658 -0.016092004 -0.02681785
000250 04 ab 28 3d 3f 46 d2 3c ef 65 47 3c 65 e5 9e bd
       0.04117872 0.025668262 0.012170299 -0.07758597
000260 76 e7 20 bc 88 bd 9c 3c b2 ca 63 bd 6e b4 63 bd
       -0.00982081 0.019133344 -0.055613227 -0.055591993
000270 f5 9b cd bb 29 e7 28 3b 93 6c e2 3b 91 81 f5 bb
       -0.006274695 0.0025772548 0.0069099157 -0.007492252
000280 3f d2 d4 39 bf 24 31 bd 2c df 30 bc dc 5c 13 3c
       0.00040592437 -0.043247934 -0.010795396 0.008994307
000290 d1 b4 8e bc 06 37 bd 3b 94 16 80 bc 6c e3 cb bc
       -0.017420204 0.0057743816 -0.015635766 -0.024888717
0002a0 63 76 66 3c fe 71 d2 3c 59 de a3 3c 8a 9f 2c bd
       0.0140663115 0.025689121 0.020003485 -0.042144336
0002b0 ee 24 ea 3c 94 78 9d bc 7e c6 70 bc a5 c9 26 3d
       0.028582063 -0.019222535 -0.014695762 0.040719647
0002c0 22 a0 76 bd 64 f1 bd 3d 67 37 19 3d db 62 24 3c
       -0.06021131 0.09274557 0.03740635 0.010033335
0002d0 0b 93 ac 3c 22 66 75 3c a2 7d 1d bc 38 fa 00 3c
       0.02106621 0.014977964 -0.009612473 0.007872157
0002e0 d4 ff 7d 3c b9 65 0a 3d 52 a9 aa bb 40 f8 a8 3a
       0.015502889 0.033788417 -0.005208173 0.0012891367
0002f0 e9 1f 44 3b eb 75 2e 3c d1 93 e7 3c 97 6c a1 bc
       0.0029926246 0.010648231 0.028268727 -0.0197051
000300 e4 7d 02 3d 11 26 b8 3c 90 3e 10 bc f7 0d 33 bc
       0.03185834 0.022479089 -0.008803979 -0.010928622
000310 0f 61 8b bc b3 ed 30 bc 4a 76 b5 3c 66 b1 07 bc
       -0.017014055 -0.010798859 0.022151131 -0.008282041
000320 89 54 dc bb 39 fe 86 3c 74 ef 10 bc 24 43 95 bd
       -0.0067239446 0.016478645 -0.008846153 -0.07288197
000330 56 ae c6 bc 47 c2 06 bd 78 9a 17 bd 61 51 4f bc
       -0.024253052 -0.03290012 -0.037012547 -0.01265368
000340 20 b6 dd 3c f3 0e d4 bb da 91 d9 3c 21 08 77 b8
       0.027064383 -0.0064715086 0.026558805 -5.889696e-05
000350 2a 5f 96 ba df a7 1f bd 5a 68 53 bc ae 60 bb 3c
       -0.0011472453 -0.038978454 -0.012903297 0.022873249
000360 9e 42 84 bc f8 af 12 bc bf 47 5d bc 61 28 11 3c
       -0.016145047 -0.008953087 -0.013505875 0.008859725
000370 21 ad 9d 3c e0 60 35 bc 06 27 e0 bb a5 b9 14 bc
       0.019247593 -0.01107046 -0.0068405895 -0.009077464
000380 da 24 09 3c 88 5b 8d 3c 39 b0 07 3c a7 0d 17 bc
       0.0083706025 0.01725556 0.008281761 -0.009219564
000390 b0 43 a8 bb 20 eb 11 bd b4 20 89 bc ad dc 9c bc
       -0.005135022 -0.035624623 -0.016739227 -0.019148195
0003a0 ad 9f 6d bd f7 56 58 3c fe 27 69 bd d1 f0 40 3c
       -0.058013607 0.013204328 -0.056922905 0.011776165
0003b0 a6 8c f7 3b 79 2d 2c 3d bd 7b 82 bd 36 30 3c bd
       0.0075546084 0.042035554 -0.063712575 -0.045944415
0003c0 98 b0 af 3c b8 95 e8 bb ca 4c 04 3d 0f 20 37 bb
       0.021446511 -0.007097926 0.032299794 -0.0027942692
0003d0 a6 1f 46 bd 27 06 13 bd 7d 89 bc bc 81 85 f9 3c
       -0.048370026 -0.03589454 -0.023014778 0.030459167
0003e0 2c 82 9e 3c c8 ed d8 3c c4 b8 e1 3c 48 bd d3 bc
       0.01934918 0.02648057 0.027553923 -0.025847092
0003f0 cb ba 84 bc 0d ba fd bc 13 ed ce 3b e0 11 e6 bb
       -0.016202351 -0.030972505 0.0063148825 -0.007021174

phi_z.0.bias f4 [32]
000000 10 3b 56 be a1 05 21 3e f6 26 4a 3d b8 cd 75 bd
       -0.20920968 0.15724804 0.049353562 -0.06001064
000010 57 31 5d be 91 6a f0 3d 92 32 b3 be de 41 4a bd
       -0.21600853 0.11739076 -0.3499952 -0.049379222
000020 6e 2c 93 be 02 cd 95 be af 9a 1b bd 71 ec 25 3e
       -0.28744835 -0.2925797 -0.037989315 0.16203476
000030 82 e9 ca be cc ff 2e be e1 97 ca be e2 d4 2b be
       -0.39631277 -0.17089766 -0.39569 -0.16780427
000040 57 c1 80 be 37 6b 7e be 7a a2 07 be d2 40 c8 be
       -0.25147507 -0.24845587 -0.13245574 -0.39111954
000050 ae a5 a8 be b4 8b c5 be c4 32 32 be 68 36 62 be
       -0.32938904 -0.38583148 -0.17402178 -0.22091067
000060 2e 73 9e be 21 04 42 be 57 56 1e 3e d1 11 4c be
       -0.3094725 -0.18946888 0.15462624 -0.19928671
000070 ac 1c b4 be 41 11 94 be 2a 38 0f 3e 9c 63 e8 3d
       -0.35178125 -0.28919414 0.13986269 0.11347124

enc.0.weight f4 [32, 64]
000000 d5 56 60 3b 00 68 64 ba 70 fe f6 bc 28 a8 00 be
       0.0034231443 -0.0008713007 -0.030150622 -0.12564147
000010 15 d8 08 3d 94 a7 b6 bd a0 98 2c 3d 97 a4 e4 bc
       0.033409197 -0.08918682 0.042137742 -0.027910514
000020 16 5d fb 3d 53 df 5c bc d8 62 b0 bc b0 a6 c8 bc
       0.12273614 -0.013480979 -0.021531507 -0.024493545
000030 b6 0d bd 3d 0a 4a c7 bd 37 b8 46 3d de 7e ea bd
       0.09231131 -0.09730919 0.048515525 -0.11449979
000040 04 ad 1b 3d ea 47 14 3e c4 93 70 bd d7 b4 81 bc
       0.038006797 0.14480558 -0.05873467 -0.015833301
000050 30 5a b8 bc 32 a9 b0 3d b8 d8 98 3d b7 e4 62 3d
       -0.022503942 0.086260214 0.07463211 0.0553939
000060 5c 3f 11 bc 55 39 3b bc c8 df ab 3d 05 58 56 3d
       -0.008865204 -0.011427243 0.08392292 0.052330036
000070 68 38 82 bc c8 04 83 bc f3 6e cb 3d c1 b1 67 bb
       -0.015896037 -0.01599349 0.09933271 -0.0035353752
000080 b6 1f 28 be 16 cc 8b be 88 b7 83 3c 28 a7 91 bd
       -0.16418347 -0.27304143 0.016078725 -0.07111961
000090 ad 3f 83 3c 52 87 73 bb 4d 00 bb 3c 48 66 0e be
       0.016021574 -0.0037159515 0.022827292 -0.13906205
0000a0 1e 9d 58 be 59 3f 2d 3e 55 2b 28 3d 4e 79 50 3d
       -0.21153685 0.16918696 0.04105695 0.050896935
0000b0 05 a0 27 3d 32 09 3e 3d e0 01 9a bd 16 b3 b2 bc
       0.04092409 0.046395488 -0.07519889 -0.02181391
0000c0 28 c7 ba 3d 07 c9 3a be 2a 5c ac bd 28 e7 fe bd
       0.09120017 -0.18240748 -0.084160164 -0.12446433
0000d0 7d 7c 24 bd 19 73 77 bc 75 78 a1 bc 13 76 c2 bc
       -0.040157784 -0.015103125 -0.019710759 -0.023737943
0000e0 89 a8 50 3d f3 15 1a 3c 03 12 ba bc 25 05 0f bc
       0.050941978 0.009404647 -0.022713667 -0.008729254
0000f0 9b 0a b2 bd 8f 52 89 3d 20 30 24 3d 25 d5 f0 3d
       -0.08693429 0.067052 0.040084958 0.11759404
000100 51 39 4a bd d0 03 d1 bc 88 43 e6 bd 18 8d 62 3d
       -0.049371067 -0.025514513 -0.11243349 0.05531034
000110 70 48 a8 bd 73 d2 92 3d a5 00 c8 3d 86 06 52 3d
       -0.08216941 0.07169046 0.09765748 0.051275752
000120 b8 5e 5d bd 12 2c 57 3d 10 06 5b bc 38 d1 e2 3d
       -0.05404541 0.052532263 -0.013368145 0.110750616
000130 82 7d f3 3d c0 4c b6 3d 6c dc 7d bc 8f a3 85 bc
       0.11889173 0.08901358 -0.015494447 -0.016313342
000140 b0 1c 88 3c 9c 8f bc 3d 5a b0 f2 bd af 8d 0b bd
       0.016615242 0.09207079 -0.11850043 -0.034070667
000150 9a 1a 9f 3d de ef dc 3d 02 32 a7 bd ad 72 d0 bd
       0.07768746 0.107879385 -0.08163835 -0.10178123
000160 df c0 40 bd d6 70 42 bd f0 cb fd bc 4a 4d 3f 3d
       -0.047058936 -0.04747089 -0.030981034 0.046704568
000170 cb ac 06 be b0 3e 81 bd e0 31 d6 3b a4 22 a8 3d
       -0.13151853 -0.06310785 0.0065367073 0.08209732
000180 b1 61 87 3c f4 41 c0 bd 0a 16 bf bd 82 b3 e4 bd
       0.016526075 -0.093875796 -0.093303755 -0.11167051
000190 20 61 6c bd 4d 50 f1 3d 80 dd 6e bc 10 bb 7d bd
       -0.057709813 0.11782894 -0.014579177 -0.061945975
0001a0 fc b0 0e bd 6f db db bd 83 3d 15 3d df 41 55 3d
       -0.034836754 -0.10735213 0.036435615 0.052064773
0001b0 81 3d e1 bc 37 31 a4 bd e0 b5 d3 bd 0a 16 2a bd
       -0.027495148 -0.080171995 -0.10337424 -0.041524924
0001c0 01 2d cc 3d 6b 92 fd 38 05 31 5a 3c 3f 63 dc bd
       0.09969521 0.000120912526 0.013317351 -0.10761117
0001d0 b9 17 ce bd 20 42 8f 3d a3 0e 86 3d bd 88 5e 3d
       -0.100631185 0.06995034 0.065457605 0.054329623
0001e0 aa 53 b4 bd 26 f1 05 bd 5d 1a d5 3c 23 c6 d5 3c
       -0.0880502 -0.03270068 0.026013548 0.026095456
0001f0 23 68 d5 ba 50 44 da 3d db 1b b0 bd b7 a3 b2 3d
       -0.0016281646 0.10657561 -0.08599063 0.087226324
000200 f6 e6 b4 bb 40 ef 11 3c 9c 44 53 bd 5a a3 03 3d
       -0.0055206968 0.008907139 -0.051579103 0.032138206
000210 70 59 4e 3d 61 9e 04 bd bb 8a 81 3e 50 d2 8d bd
       0.050378263 -0.032377604 0.25301155 -0.069248796
000220 ac 1e 0d bd 7a b5 dd 3d f2 5a 87 3d aa 62 cb bd
       -0.03445308 0.108256295 0.06609143 -0.09930928
000230 64 54 b1 bd a8 f2 46 3d 8f b9 ac bc 9b 20 65 bd
       -0.08658674 0.04857126 -0.021084575 -0.055939298
000240 d5 14 cc bd 94 e1 22 3e e4 59 e3 3d 43 2a 7d 3e
       -0.09964911 0.15906364 0.1110113 0.24723153
000250 bb de 06 3d 6e b6 a1 3d 9e c5 ec bc 28 3b 69 3d
       0.032927256 0.07896124 -0.028902825 0.05694118
000260 2d 29 66 3c c2 3f 21 bd b0 3c 71 bc 53 e9 37 3d
       0.014047903 -0.039367445 -0.014723942 0.04490025
000270 71 e9 aa 3d b0 58 36 bd 79 54 df 3b 6e 8f b2 bd
       0.08345307 -0.044518173 0.00681549 -0.08718763
000280 6b 5c b9 bd e4 94 27 be 08 39 0e 3e e4 34 8a 3d
       -0.090508305 -0.16365391 0.13888943 0.06748369
000290 32 34 2b be b2 2d 70 3d 37 6d 03 be c9 9e 52 be
       -0.1671913 0.05863733 -0.12834631 -0.20568384
0002a0 f3 00 53 be 66 00 32 3e f6 23 01 3e 15 90 3b 3d
       -0.20605831 0.17382964 0.12611374 0.045791704
0002b0 58 d3 4b 3e e1 ec f2 3c 88 eb bb bd 33 0c 4b 3d
       0.1990484 0.029653968 -0.091757834 0.04957218
0002c0 46 30 57 3e 5f 40 ea bd 84 66 46 be 7a 80 8e bd
       0.21014509 -0.11438059 -0.19375044 -0.06958099
0002d0 9a 79 02 be 9d 09 d1 3d f4 3a 4d bc 6e 09 5e bc
       -0.127417 0.10206912 -0.012526263 -0.013552053
0002e0 58 4a f3 3d 40 31 0f 3e be 2b bf bd f9 9c c6 3d
       0.11879414 0.13983631 -0.09334515 0.09697909
0002f0 7b 7f b3 3d 18 63 7c 3c b7 22 11 3e 6e bf 9e 3d
       0.08764549 0.015404485 0.14173399 0.07751356
000300 0c 62 e9 bd 60 15 90 3c a6 e2 c3 3d 48 c1 e0 bd
       -0.11395654 0.017588317 0.09564714 -0.109743655
000310 22 4d 8b bd f0 76 dd bc dc 57 7a bd dc c8 84 bd
       -0.06801821 -0.027034253 -0.061118945 -0.064836234
000320 d0 02 46 bc 48 98 da bc 40 07 74 3b 02 ae fa 3d
       -0.0120856315 -0.026683941 0.0037235767 0.122402206
000330 c8 31 d9 bd c4 c9 70 3d ac 97 01 bd 6c 5a 79 3d
       -0.10605198 0.05878617 -0.031638786 0.06087725
000340 a0 a7 f4 3d b0 7b 33 3c e8 dd 97 3d 64 75 25 bd
       0.119460344 0.010954782 0.07415372 -0.040395156
000350 4c 5c 52 3d 60 58 53 bc b8 3a bb 3c 00 65 1d bb
       0.051357552 -0.012899488 0.022855148 -0.00240165
000360 76 b1 dc bd 10 a0 9a bd b8 93 58 3d ea 52 ef bd
       -0.107760355 -0.07550061 0.05287525 -0.116857365
000370 18 e8 8a bd 88 5d f7 3d 90 42 f6 3c 28 f7 ce bd
       -0.067825496 0.120783865 0.030061036 -0.10105735
000380 80 e9 0b bd c0 da 01 3b 18 53 c1 3d 80 8b 06 bd
       -0.03415823 0.0019814223 0.09439677 -0.03284788
000390 88 70 de 3c b4 7d 60 bd 98 cb ff bc 06 28 85 bd
       0.027153268 -0.05480738 -0.03122501 -0.065017745
0003a0 84 34 e1 bd a0 cd 18 bc 00 20 5f 3c 58 8c 86 3d
       -0.10996345 -0.009326369 0.013618469 0.06569737
0003b0 30 b6 83 3c 80 e1 64 bb 74 3d 82 bd e0 54 49 3c
       0.016078085 -0.0034924448 -0.063593775 0.012288302
0003c0 0c 84 8d bd b0 2b 77 3d 02 2f f6 bd 98 55 28 bd
       -0.069099516 0.060344398 -0.12020685 -0.041097254
0003d0 d0 67 f7 3c c0 6c d2 3b d2 ba 82 3d b0 33 4e bd
       0.030200869 0.0064216554 0.063832894 -0.05034226
0003e0 4a d1 b6 3d 86 cf bb bd 20 0f 1e 3c 60 6e 38 bd
       0.089266375 -0.09170441 0.009647161 -0.045027137
0003f0 b4 9e 0b bd 32 6f ec 3d 08 cb d8 bc 84 96 a3 3d
       -0.034086898 0.11544646 -0.026464 0.07987693

enc.0.bias f4 [32]
000000 ad c1 0c bd d9 ea fe bd 26 c8 f0 3d 6a 7f 98 bd
       -0.03436439 -0.124471374 0.11756925 -0.07446177
000010 5d d8 d5 3d 7c 96 b0 3d 2d d7 03 be 87 c3 f1 3d
       0.10441659 0.086224526 -0.12875052 0.11804872
000020 e8 84 f3 3d 90 fe 1b bc 76 a3 e0 bd 64 b9 fb bd
       0.11890584 -0.009521142 -0.10968678 -0.1229122
000030 5f cf 5a 3c 43 5f 70 bd fd 45 2d 3d fe 44 30 bd
       0.013355105 -0.0586846 0.042303074 -0.043034546
000040 27 df 22 bd 4c c1 ba 3c 6b 9c b6 3b 1b 2c ec bc
       -0.039763596 0.02279725 0.0055728457 -0.028829625
000050 12 ea e5 bc bf 0d e0 3c 64 13 45 3d 93 a4 e9 3d
       -0.028065715 0.027350305 0.048114195 0.11408343
000060 51 e4 8b bd b2 99 11 3e 76 4d 8f bc 7f 0d 4d bd
       -0.06830657 0.14218786 -0.017492991 -0.0500617
000070 4b 12 5c 3d 03 71 08 3c 12 89 59 bd bc e4 82 3c
       0.053728383 0.008327725 -0.053109236 0.01597821

enc.2.weight f4 [32, 32]
000000 d3 9a 08 3e 90 f1 c0 bd de d4 b0 3e 3f 70 8c bd
       0.13340311 -0.094210744 0.34537405 -0.06857347
000010 fd 2d c3 bc c2 52 78 bc c2 fb c4 bc 54 28 9e 3d
       -0.02382564 -0.01515645 -0.024045829 0.07722536
000020 05 c5 32 bd 40 1a 30 3e 15 ef bd bd 84 0b 07 be
       -0.043644924 0.17197514 -0.09274117 -0.13187987
000030 9a 41 1e 3e 18 10 da bd 20 ae 06 be bd f0 a5 bd
       0.15454713 -0.10647601 -0.13152361 -0.08102558
000040 a5 35 34 be 70 19 46 3a d3 25 b5 3d a6 f0 48 bb
       -0.17598589 0.0007556891 0.08845105 -0.0030661016
000050 ef fe 02 3e 04 e0 85 bd e5 f9 c0 bc 94 2f b8 bc
       0.12792562 -0.06536868 -0.023556659 -0.022483625
000060 5d 37 ce bd d9 25 d8 3d dd ef c4 3c c9 e0 a5 bd
       -0.100691535 0.10554094 0.024040157 -0.08099515
000070 6b a4 7f 3d 24 39 02 3e 00 42 a1 bb 54 5b 0d 3e
       0.06241266 0.1271711 -0.004921198 0.1380437
000080 8d a8 d1 3c a4 3f 22 3e 73 c6 9f 3d d8 ba 15 bc
       0.025593067 0.1584459 0.07801523 -0.009138785
000090 53 2e 8b 3d b6 ae 34 be 1c 47 40 bd 0d e2 8b bd
       0.06795945 -0.17644772 -0.046942815 -0.06830225
0000a0 16 23 31 bd 22 2f b1 3d 5a 25 e2 bd c0 88 2d 3e
       -0.04324635 0.08651568 -0.110422805 0.16946697
0000b0 06 1e db bd ec 3b 7d 3d 80 e8 d6 3d d9 92 a0 3d
       -0.10699086 0.061824724 0.104935646 0.07840509
0000c0 47 c2 1f 3c c8 e8 35 3d 4b 2f 02 be d6 3b b3 bd
       0.009750909 0.04441145 -0.12713353 -0.08751647
0000d0 9e 9b 1a 3e 2a 99 3f be ca 99 c2 bc 20 42 01 be
       0.15098426 -0.18710771 -0.023754973 -0.12622881
0000e0 48 05 27 3d ae 55 04 3e a8 27 fb 3d df df ea 3d
       0.04077652 0.12923309 0.12263423 0.11468481
0000f0 ca 11 6a 3d 92 e7 ae 3d 91 ef 61 bc 5c 9a f2 3b
       0.05714587 0.08540262 -0.013790027 0.007403655
000100 aa 65 a1 b7 41 ab 11 3e ca 2d 0a bd d0 d7 22 3d
       -1.9240037e-05 0.14225484 -0.033735074 0.039756596
000110 cd d8 73 3a cc ca 97 3d 6d 6f 25 be 1d 56 e3 bd
       0.000930202 0.07411727 -0.16155787 -0.11100409
000120 fd 5e 24 3e d4 54 d1 bd 20 05 ad bd 2a 27 09 bd
       0.1605186 -0.10221258 -0.08448243 -0.033484615
000130 1c ea 02 be d3 9e a6 bd 69 68 78 3c aa 6d 12 be
       -0.12784618 -0.08135762 0.015161612 -0.14299646
000140 eb cd c0 3d f4 5d cf bc 06 a7 6d 3c a8 75 e5 bd
       0.09414276 -0.025313355 0.0145051535 -0.11204082
000150 f3 ab a8 bd be 61 c9 39 8c d6 f7 3d 87 cc b8 bd
       -0.08235922 0.0003841053 0.121014684 -0.090233855
000160 62 d4 c2 3d 80 95 2a ba 08 a7 e3 3c d5 31 49 3d
       0.09513165 -0.00065072626 0.027789608 0.04911979
000170 68 07 49 3c 55 dd ee bd f5 98 93 b9 a3 5b a6 3d
       0.012269832 -0.116633095 -0.00028151987 0.08122947
000180 56 1c af bd f4 bb f5 3d d0 0c 71 3e 5b 9a 05 bd
       -0.085503265 0.1199874 0.23540044 -0.032617908
000190 f8 2a 2a bd 6c b1 ab bd d4 49 fc 3d ec f0 7e bd
       -0.041544884 -0.0838345 0.12318769 -0.06224148
0001a0 04 6e 32 be bc ab 25 be 65 14 89 bd fa 70 0e be
       -0.1742478 -0.16178793 -0.06693343 -0.13910285
0001b0 d6 41 8a bd 5f 22 b8 3d 2a 61 d5 3c 5c 53 96 3d
       -0.067508385 0.08990931 0.026047308 0.07340118
0001c0 a3 6c 91 bc 34 2e 1e 3e 0e b6 0d bd 1b 1e 45 3e
       -0.017751997 0.15447313 -0.03459745 0.19249766
0001d0 41 28 17 3e 71 aa f0 3d 30 27 d9 bd 3d 69 bd bd
       0.1476145 0.11751259 -0.106031775 -0.09248588
0001e0 d5 ec ad bd fa 61 02 3e 24 5a 0d bd 6b 84 23 3d
       -0.08492438 0.12732688 -0.034509793 0.039921205
0001f0 4b c2 b2 3d 14 4d e1 3d ca e1 11 3e a0 90 83 bd
       0.08728465 0.110010296 0.14246288 -0.064240694
000200 ed 1c ce 3c d4 a4 0e 3e ab 59 34 3e 53 1d 15 be
       0.025160277 0.13930064 0.1761233 -0.14561968
000210 98 21 25 3e b5 4a 18 3e 31 d8 06 3e 93 49 fe bd
       0.16126096 0.14872248 0.13168408 -0.12416377
000220 18 17 e3 bd 15 46 05 3e a1 f5 34 be 75 11 8d bd
       -0.11088389 0.13015015 -0.17671825 -0.06888095
000230 a8 21 05 be 15 4a 76 bd b6 b6 ac bd e7 3c 1a be
       -0.1300112 -0.060129244 -0.08433287 -0.15062295
000240 74 93 8d 3d 06 75 68 bd 75 14 64 bc 4a 87 bb bc
       0.0691289 -0.056752227 -0.013920893 -0.02289166
000250 39 22 cb 3c d1 59 ef bd 5a cb 04 3e f6 8a a1 3d
       0.024796592 -0.11687053 0.12968197 0.07887833
000260 b3 a8 ca 3d 67 d4 32 be 1e 85 86 bd 4d 96 a5 bc
       0.09895458 -0.17463838 -0.06568359 -0.02021327
000270 92 02 0e bd 1e b4 e0 3d 0f 2c 87 bd 94 c1 ad bd
       -0.03467042 0.109718546 -0.066002004 -0.08484188
000280 de ec 38 3e 3e cf f4 3b 5d 66 c2 3e 7f 3f 12 3e
       0.18059108 0.0074709943 0.37968722 0.14282034
000290 90 96 03 bd 7a 79 17 3d 71 31 e3 bc 51 60 8c 3c
       -0.03212601 0.036981083 -0.027733536 0.017135771
0002a0 81 3b 51 bd ae ba 30 3d e4 2b d3 bd e5 70 49 3d
       -0.051082138 0.04314678 -0.10311106 0.04917993
0002b0 99 55 13 3d ad 2b 08 bd 22 cd 66 3d 35 41 3e bd
       0.035970304 -0.033244777 0.056347974 -0.046448905
0002c0 7b 38 78 bd ae 39 68 3d e0 0d 90 bd 3f 71 c6 3d
       -0.06060074 0.056695633 -0.070338964 0.09689569
0002d0 d6 07 b3 bd 20 b9 c7 bd 44 94 e9 bd 49 19 64 bd
       -0.08741729 -0.09752107 -0.114052325 -0.055688176
0002e0 63 86 ad 3c c3 46 ec 3d b6 43 9b 3d 2c 63 27 be
       0.021182245 0.11536934 0.07581274 -0.16346425
0002f0 ae e9 1c 3e df 15 91 3c a3 ae 95 bd bf a2 ec bd
       0.15323517 0.017710624 -0.073087 -0.11554479
000300 c5 eb 92 3d 78 d0 e8 3d c4 ca c1 bd c8 47 33 3e
       0.07173876 0.11367887 -0.094625026 0.17507851
000310 7a 6a 44 bc 8c 29 06 3d e7 18 8c bd 5c eb ed 3d
       -0.011988277 0.032754466 -0.06840687 0.11617157
000320 d2 6d d8 3d 18 43 51 3d 2e 31 26 bd 26 a7 3e 3d
       0.105678216 0.051089376 -0.040574245 0.046546124
000330 4e e7 c1 3d c2 15 a6 3c ad 20 40 bd 74 2e 2b 3d
       0.09467946 0.020274047 -0.046906162 0.041792348
000340 65 79 fb 3d 90 55 e3 bd 18 82 9c bd a4 14 40 be
       0.122790135 -0.11100304 -0.07642001 -0.18757874
000350 6d e7 ff bd 6d bf b7 3d 86 8b ef 3d e9 ee 62 bc
       -0.12495313 0.089720584 0.11696534 -0.013850906
000360 a5 42 04 3e 43 64 39 3e 62 07 0d bd 4e 7c 1f 3e
       0.12916048 0.18104653 -0.03443087 0.15574762
000370 b4 7d 23 be 5c 8d d2 bb 59 8f 46 3d f4 4e 4e bd
       -0.1596592 -0.0064255428 0.04847655 -0.050368264
000380 1e 13 90 bc 98 65 0f be fc 42 2e 3e 91 50 df bc
       -0.01758724 -0.14003599 0.1701774 -0.027260097
000390 ab 46 d5 3d 66 4f 40 bd e5 02 cc 3c d9 6d 55 3d
       0.104138695 -0.04695072 0.024903724 0.052106712
0003a0 ae 8b 5a 3d 7b a0 ce 3d 19 a6 1e be 75 8b e9 3d
       0.053355865 0.10089203 -0.15493049 0.114035524
0003b0 64 99 cd bd 5f 92 0f bd 70 e7 7c 3d 0e 20 bf bd
       -0.100390226 -0.0350517 0.061744153 -0.09332286
0003c0 27 99 17 3e 79 13 17 3e b2 13 9f bd 24 45 88 3d
       0.14804517 0.14753522 -0.077674285 0.066538125
0003d0 6c 68 0c 3e b7 ff 41 bd 43 f6 8d 3d 36 4e 55 bb
       0.13711709 -0.04736301 0.06931736 -0.0032547838
0003e0 36 0b 0c be 83 9f ed bd dc 97 fd 3c 89 e5 d9 3d
       -0.13676152 -0.1160269 0.030956201 0.106394835
0003f0 04 4a cd bc d2 b0 f2 3d 24 d1 c2 bd 22 b0 15 be
       -0.025059707 0.11850132 -0.09512547 -0.1461797

enc.2.bias f4 [32]
000000 51 08 33 3b 55 ed 62 3d 00 a5 a8 bd 03 f2 af bb
       0.002731819 0.05540212 -0.08234596 -0.005369426
000010 a3 1a 24 be 7f 20 a4 3d d3 2e 21 3e 72 2c 2c 3e
       -0.16025786 0.08014011 0.15740518 0.1681383
000020 ba 22 24 be c0 e6 e9 bd d8 57 55 3d 63 b1 bf bd
       -0.16028872 -0.11420965 0.052085727 -0.09360006
000030 58 25 df bd 97 b7 bf bb fc 78 f7 bd b3 b8 60 bc
       -0.10895795 -0.005850743 -0.12083623 -0.013715911
000040 a9 7e 6c bd 59 df 25 3e 6a f1 1f bd 68 49 06 3e
       -0.05773798 0.16198482 -0.03904859 0.1311394
000050 cc 32 f5 bd f3 e8 8c 3d b0 c3 a7 bd 20 a4 fc 3d
       -0.11972579 0.06880369 -0.08191621 0.12335992
000060 28 80 e5 3d 70 97 d3 3d 92 a7 29 bc 3e 9a ae bd
       0.112060845 0.10331619 -0.010354893 -0.08525513
000070 26 91 8b 3d 40 91 ad bd c3 ce c2 bd bf 51 64 3d
       0.06814794 -0.0847497 -0.09512093 0.05574202

enc_mean.weight f4 [12, 32]
000000 d3 f4 7d 3d 26 4a 00 be a1 52 15 be c0 22 c1 bc
       0.06200106 -0.12528285 -0.14582302 -0.02357614
000010 8e 46 87 bb 15 f2 47 3d db dd 0c 3d 0d b2 4d 3c
       -0.004128284 0.04881485 0.034391265 0.012554658
000020 33 d6 24 be 75 10 1e 3e 59 97 92 bd 04 af d5 3c
       -0.16097336 0.15435965 -0.071577735 0.02608443
000030 4c c1 00 3e 43 48 80 bd 44 d1 81 bd 1e cc ee bd
       0.12573737 -0.06263783 -0.063387424 -0.11660026
000040 11 54 05 3d 1e db a8 bd 39 1a fa bd 5b 65 bc bc
       0.032550875 -0.08244918 -0.12212033 -0.022997549
000050 52 50 2a be 1e 37 7a bc 19 8b e6 3d 9b f2 89 bd
       -0.16632202 -0.01527193 0.112569995 -0.067357264
000060 b4 b8 0c 3d 72 48 aa bb c9 21 bb 3c 7e e3 3a 3d
       0.034355834 -0.0051966244 0.022843258 0.04562711
000070 55 4f 06 bd ce 68 e8 bc db 65 4a bd d9 3d cc 3c
       -0.0327905 -0.028370287 -0.049413543 0.024931835
000080 3d 85 0b 3d e9 f1 c0 3d 38 4d f2 bd ab 22 4b bd
       0.034062613 0.09421141 -0.118311346 -0.04959361
000090 09 c9 cf bc 1c 43 02 3e 6c fd 0a be 2e 74 38 be
       -0.025364416 0.12720913 -0.13573235 -0.18013069
0000a0 98 c5 e7 3d b8 c2 39 3d 04 e8 16 bd 72 c3 c0 bd
       0.11316985 0.045351714 -0.03684236 -0.09412278
0000b0 ea 3b e6 bc a3 91 ba bd 6c 24 84 3d 50 85 ca 3d
       -0.028104741 -0.09109809 0.064522594 0.098887086
0000c0 7b af af 3d 64 59 dc bd f7 23 db 3d 53 02 ef bd
       0.08578392 -0.107592374 0.10700219 -0.11670365
0000d0 4a f4 9d bd ad b8 8d 3d c3 a1 15 3d b8 46 83 3d
       -0.0771261 0.0691999 0.03653122 0.06409973
0000e0 68 b2 0b 3d 66 b7 0f 3d 7a 88 8e 3c 36 07 f8 3d
       0.03410569 0.03508701 0.017399061 0.121107504
0000f0 c9 65 b2 3c 9e bb 69 3d bc 5c 58 bc 17 d0 3a bd
       0.02177705 0.05706369 -0.013205703 -0.045608606
000100 b9 b0 37 be 2e 44 44 3d 88 02 d6 bd ed b2 da bd
       -0.17938508 0.047916584 -0.104497015 -0.10678659
000110 f0 4a 27 bd b0 42 18 3e 0c 29 95 3d da 34 5d 3b
       -0.04084295 0.1486919 0.0728322 0.0033753426
000120 f1 08 1f be b0 58 7e bd 98 2e 0f 3e 3f 3a 8d bd
       -0.15530755 -0.062096298 0.13982618 -0.06895875
000130 48 ec 14 3c 22 69 5d 3d 1c c1 28 3d 7c 22 fd bd
       0.009089537 0.05405534 0.04119979 -0.12360093
000140 36 a3 63 3d 4c c9 aa 3d cf 2d 73 bd aa c0 17 be
       0.055575572 0.083391756 -0.05936986 -0.1481959
000150 c6 af bd bd 83 9e 4f bd 4f af d0 bd 1c 50 6c bc
       -0.09262042 -0.050688278 -0.101896875 -0.014423396
000160 6a da 3d 3c 28 84 4a bd 2f e7 c7 3d 6d 5e 86 3d
       0.0115877185 -0.04944244 0.09760892 0.06560979
000170 40 bc f7 3d 78 9c 98 3d 72 a4 a3 3d 3d d0 a2 3d
       0.12096453 0.07451719 0.0799035 0.079498746
000180 60 aa aa 3d b6 17 07 3e 74 a6 96 3d db 36 2b 3d
       0.08333278 0.13192639 0.07355967 0.04180036
000190 e5 4f 9d bd 0b f0 41 3c a5 00 f2 3c 95 f6 27 be
       -0.07681254 0.011837016 0.029541323 -0.16402657
0001a0 cc e0 fc bd cb e2 30 3e c9 71 d3 bd 5e d2 80 bd
       -0.12347564 0.17274015 -0.10324437 -0.06290124
0001b0 5a cf 08 be f9 5b 33 bd 79 4b 85 bd 3a d8 0b be
       -0.13360348 -0.043788884 -0.06508536 -0.13656703
0001c0 83 52 3d ba d8 48 a0 bd 1e db c0 3d 19 8d 17 be
       -0.0007222073 -0.07826394 0.09416793 -0.14799918
0001d0 20 bb 12 3d b0 5e 5e bd 9b 11 25 bd 30 ad 17 3e
       0.035822988 -0.05428952 -0.040299993 0.1481216
0001e0 1b 73 ec bd be 0d 0d 3d d3 f2 af 3d 88 fe 8d 3d
       -0.11545392 0.034436934 0.08591237 0.069333136
0001f0 55 f6 54 3e 1c d2 fa 3d fe 31 d3 3d a3 6d 4b 3d
       0.20797093 0.122471064 0.1031227 0.049665105
000200 62 d4 c0 3d fe f8 95 bd f6 64 ee bd ef ba 18 3d
       0.09415509 -0.07322882 -0.116403505 0.03728765
000210 f7 b5 25 bd 93 5c 8b bd 4e 17 80 3d bd fd ed 3d
       -0.04045674 -0.068047665 0.06254445 0.11620662
000220 52 35 26 3e 8b 6c 24 3e 31 ba 04 3b cf b6 1d 3e
       0.16231278 0.16057031 0.002025258 0.15401767
000230 2d 84 4c bd 33 43 86 bc 57 d9 b5 3b f7 a7 c3 bd
       -0.04993074 -0.016389465 0.0055495906 -0.09553521
000240 08 57 2d be 41 63 f9 3d 2b 15 b1 bd d0 b5 b5 3d
       -0.16927731 0.12177134 -0.086466156 0.088725686
000250 82 00 63 3b d6 b5 1f bd eb 73 3a bc c4 c7 b9 3d
       0.0034637754 -0.03899177 -0.011380176 0.090713054
000260 ed e0 82 bc 61 4a 96 3d 78 a5 f2 bc 36 d3 ff bd
       -0.015976394 0.073384054 -0.029619917 -0.12491457
000270 82 63 e5 bd 8d 79 e1 3d 3a 2d 84 ba 73 96 23 3d
       -0.1120062 0.11009512 -0.0010084279 0.0399384
000280 07 01 1b be 67 7f 7f 3c 4b 22 5f 3c 46 de 0a bd
       -0.1513711 0.01559434 0.013619016 -0.033903383
000290 11 33 c6 3d 8f 60 15 bd d7 ca c8 3d a1 2e 5d 3e
       0.09677709 -0.03646904 0.09804314 0.21599819
0002a0 77 3b 1b 3e 9d da 02 3e da 46 65 bd 3e a2 27 3e
       0.15159403 0.12778707 -0.055975772 0.16370484
0002b0 6a 17 31 be 25 15 af bd d2 21 c7 bd 32 36 25 3e
       -0.17294088 -0.08548955 -0.097232476 0.16133955
0002c0 67 b7 bc 3d 53 bd 5b 3e 4f 46 9f ba 54 02 d3 3d
       0.09214669 0.2145894 -0.0012151691 0.103031784
0002d0 f9 21 2c 3e 4a 27 cd ba 82 84 1d 3e 4b 3a a6 3d
       0.16809835 -0.0015651968 0.15382579 0.08116587
0002e0 69 51 87 bb ff 5f e8 bd d1 c1 47 3e fe 69 b8 bd
       -0.004129578 -0.11346435 0.19507529 -0.090045914
0002f0 10 17 4c 3e 5a 73 05 bd e4 f0 3c be c6 be 2c 3d
       0.19930673 -0.03258071 -0.18451267 0.042174123
000300 87 c8 b8 bd 9c 0d 11 bc b9 34 31 3d e3 b4 98 3c
       -0.090226226 -0.008853342 0.04326317 0.018640941
000310 6f 53 32 3e 17 f0 5e 3d 19 35 10 3d ba c9 1a 3e
       0.1741464 0.054428186 0.035206888 0.15116015
000320 0a 86 ab bd 63 c9 0f 3e 76 54 98 bc b0 29 c3 bc
       -0.08375175 0.14041667 -0.018594962 -0.02382359
000330 a4 c2 d9 bd 53 9b f1 3d a8 8f df 3c 6d a0 3e 3d
       -0.10632828 0.11797204 0.02729018 0.046539713
000340 36 e1 6c bd 26 48 38 3e cb 45 95 3d 9f e6 9f 3d
       -0.057831965 0.17996272 0.072887026 0.07807659
000350 16 35 06 be 6c 58 5a 3c af 92 18 3e 41 92 6a ba
       -0.13106188 0.0133267455 0.14899705 -0.0008948185
000360 e1 e3 2e bd fc 4f 18 3e 17 32 e2 bd 87 72 07 be
       -0.04269779 0.14874262 -0.1104471 -0.13227282
000370 8e 48 8a bc a4 89 26 3e 8d 69 d8 3c 41 24 d5 bd
       -0.0168803 0.16263443 0.026417518 -0.104073055
000380 ae 6c 3c bd 0f 57 fe 3d 44 7c 1d 3e 77 0c 3e bd
       -0.046002083 0.12418949 0.15379435 -0.046398606
000390 58 56 0c 3e f4 31 2c 3d 72 bd d9 3c f5 b0 8e 3d
       0.13704813 0.042039827 0.026579592 0.069673456
0003a0 92 82 24 be b5 61 11 be db c5 e7 bc 86 7d fe 3d
       -0.16065434 -0.14197429 -0.028292587 0.124262854
0003b0 9d 69 f6 3d 41 06 99 3d b9 98 89 bd a5 fa d1 3d
       0.12031863 0.07471896 -0.06718583 0.10252885
0003c0 5c 95 49 3d 1f e7 91 3d e0 37 d6 bd c6 89 32 bd
       0.049214706 0.07124161 -0.10459876 -0.043588422
0003d0 60 3d bd bd ee e0 88 bd 18 e2 9c bd 4b 73 be bb
       -0.09240222 -0.06683527 -0.076603115 -0.005812084
0003e0 ab 0a 2c bd 33 c9 3b 3d 9c ea 59 bd 4f 3b 4a bd
       -0.04200236 0.045846175 -0.053202257 -0.049372967
0003f0 4a 6c 6a bc fc 03 27 bc 85 dd e1 3d 8e 98 38 be
       -0.014308045 -0.010193821 0.110285796 -0.18026945

enc_mean.bias f4 [12]
000000 c9 a2 4d bd 7c b2 15 3d 67 15 2d bc 68 06 1e 3e
       -0.050204072 0.03654717 -0.010564185 0.15432131
000010 ad f7 8d 3d f8 4a ed bd 6d 44 28 be 66 2e 12 3e
       0.06932006 -0.11586565 -0.16432352 0.14275512
000020 c0 cf 40 3c 7c c2 01 be 7c 51 33 3d e9 aa 22 3d
       0.011768281 -0.12671846 0.04377888 0.039713774
