varRNN/VariationalRNN/VariationalRecurrentNeuralNetwork-master/saves/vrnn_state_dict_11.pth (torch, 92942 bytes, 30 tensors)

phi_x.0.weight f4 [32, 12]
0	0x3e4df28e	0.20112059
1	0xbd947b3c	-0.072500676
2	0xbdbdcb83	-0.092673324
3	0xbe8d4745	-0.27593437
4	0x3d7415a8	0.059590966
5	0xbdc0b4a4	-0.094094545
6	0x3d86fe1e	0.06591438
7	0x3e850e1b	0.25987324
8	0xbe5b722b	-0.2143027
9	0x3defa64b	0.1170164
10	0xbe28e5fd	-0.16493984
11	0xbe3eec72	-0.18644884
12	0xbdad36ad	-0.08457694
13	0xbd88adc0	-0.06673765
14	0x3e821277	0.25404713
15	0x3daaf146	0.083468005
16	0x3cebd133	0.028786277
17	0x3e68932e	0.22712395
18	0x3c0bdad6	0.008536061
19	0x3e4427dd	0.19155832
20	0xbe69d704	-0.22835928
21	0xbe9c0bfb	-0.3047789
22	0xbe7f6c7b	-0.24943726
23	0x3e887909	0.26654842
24	0xbe543d14	-0.20726424
25	0x3e1135bc	0.14180654
26	0xbdca40c1	-0.09875632
27	0x3da4e7cc	0.08052024
28	0x3e011ffe	0.1260986
29	0xbe3bfa68	-0.18357241
30	0xbd8be29e	-0.06830333
31	0xbe8a1fbf	-0.26977345
32	0xbe714de6	-0.23564872
33	0xbc1d4078	-0.00959789
34	0xbce78801	-0.028263094
35	0x3e07e7d7	0.13272034
36	0xbe580baa	-0.210982
37	0x3e1cc64e	0.15310022
38	0x3e5acf74	0.213682
39	0xbe653170	-0.2238214
40	0xbd9309f0	-0.0717963
41	0x3c2817ef	0.010259612
42	0xbe5e26ab	-0.21694438
43	0xbe6246b9	-0.22097291
44	0x3d069f0c	0.032866523
45	0xbe69ca95	-0.22831185
46	0x3e805dc9	0.25071552
47	0xbe0d8dcc	-0.13823622
48	0x3c7dd076	0.0154915955
49	0x3e767175	0.24066718
50	0xbd548468	-0.051884085
51	0x3e3e7f5d	0.18603273
52	0x3d47c045	0.048767347
53	0x3e9a58c8	0.3014586
54	0x3e89eb3b	0.2693728
55	0xbae42b77	-0.0017407973
56	0xbd7443c6	-0.059634946
57	0x3e62de9b	0.2215523
58	0xbdfcc59f	-0.12342381
59	0x3e26693c	0.16251081
60	0xbe089d3b	-0.13341229
61	0xbe452269	-0.19251408
62	0x3de09afa	0.109670594
63	0x3e16c559	0.1472372
64	0xbde93ad0	-0.11388171
65	0x3e006632	0.12538984
66	0x3eb60605	0.35551468
67	0xbe0d0d98	-0.13774717
68	0xbdbd6bdb	-0.092490874
69	0x3e609abe	0.2193403
70	0xbe53f223	-0.20697837
71	0x3e491659	0.19637431
72	0xbdf5e528	-0.12006599
73	0x3dbcfc21	0.09227777
74	0xbe15209c	-0.1456322
75	0xbe8b1c38	-0.27169967
76	0xbd27686a	-0.04087106
77	0x3daffee9	0.08593542
78	0xbe8bd74e	-0.27312702
79	0x3e8d6a5a	0.27620202
80	0x3e3c5c21	0.1839452
81	0x3db08b3a	0.08620305
82	0x3e822b9b	0.25423893
83	0x3d624d9f	0.055249806
84	0xbe71b0a4	-0.2360254
85	0xbdb4b2f1	-0.08823193
86	0x3d4b8370	0.049685895
87	0x3d79df6d	0.06100409
88	0x3e39e627	0.18154202
89	0xbd6faf70	-0.05851692
90	0x3e6ec73e	0.23318192
91	0x3d8655be	0.06559323
92	0x3d0fdaf4	0.03512092
93	0x3e417005	0.18890388
94	0x3e39609d	0.18103261
95	0x3bbf94c1	0.0058465903
96	0x3dd0f516	0.102029964
97	0xbde839a9	-0.11339123
98	0x3e234eb0	0.15947986
99	0x3e76db3d	0.2410707
100	0xbd22c33a	-0.039736964
101	0x3e815c0c	0.2526554
102	0x3e4a512f	0.19757532
103	0x3d13af50	0.036055863
104	0xbde8e22e	-0.11371265
105	0xbdac8378	-0.08423513
106	0x3ddf4359	0.109015174
107	0xbdab6942	-0.08369686
108	0xbdad0d7f	-0.0844984
109	0x3e717b81	0.23582269
110	0xbdcee348	-0.10101944
111	0x3ddd98e7	0.108201794
112	0x3c2e74f6	0.010648003
113	0x3e7dab20	0.2477231
114	0x3e34e22d	0.17664404
115	0x3cd64bad	0.026159132
116	0xbe042d34	-0.12907869
117	0x3e5e3a4a	0.21701923
118	0x3e84e158	0.25953174
119	0xbe250606	-0.16115579
120	0xbd7667d3	-0.06015761
121	0x3e25e758	0.16201532
122	0x3e138f57	0.14410149
123	0x3e54c33d	0.20777602
124	0x3d654145	0.05597045
125	0x3e6bf334	0.23041993
126	0x3e57b034	0.2106331
127	0x3d63e729	0.055640373
128	0xbe38bfee	-0.18041965
129	0x3e466311	0.19373728
130	0xbd92b694	-0.0716373
131	0xbdcf452e	-0.10120617
132	0x3eaad693	0.33366832
133	0x3e84301b	0.25817952
134	0xbddd4493	-0.10804095
135	0x3e5c6c73	0.21525745
136	0xbd95f147	-0.073214106
137	0xbd17b6f8	-0.037039727
138	0xbdae5757	-0.085127525
139	0xbe26dd46	-0.16295347
140	0x3e4c3a22	0.19944051
141	0xbd5055df	-0.050863143
142	0xbe0bd598	-0.13655698
143	0x3e81560f	0.2526097
144	0xbe60d3c5	-0.21955784
145	0xbe8bee46	-0.27330226
146	0xbdf83100	-0.12118721
147	0xbd495a0c	-0.04915814
148	0x3e6c6504	0.2308541
149	0xbe62ae75	-0.22136863
150	0xbe77fed3	-0.24218301
151	0x3e851412	0.25991875
152	0xbe3487e8	-0.17629969
153	0x3d812fc2	0.06307937
154	0xbe539903	-0.20663838
155	0x3e5b3692	0.21407536
156	0xbe3f2bc8	-0.18669045
157	0x3e94e181	0.29078296
158	0x3c7e3cd1	0.015517429
159	0xbd92450d	-0.07142077
160	0xbe85266b	-0.26005873
161	0x3d9b9132	0.07596053
162	0xbdfa08ca	-0.12208708
163	0xbe3a1348	-0.18171418
164	0x3e91caa2	0.2847491
165	0xbe635c3e	-0.22203156
166	0x3e923a5d	0.28560153
167	0xbe0ebe43	-0.13939767
168	0xbdb2d669	-0.08732302
169	0xbe87e771	-0.26543763
170	0x3e54d02b	0.20782535
171	0x3e558752	0.20852402
172	0x3e294420	0.16529894
173	0xbe4c67d1	-0.19961478
174	0x3e1bf8ec	0.15231675
175	0x3e7f5d62	0.24937966
176	0xbdc41275	-0.09573833
177	0xbe81b951	-0.25336698
178	0xbe1d8d9f	-0.15386055
179	0x3e6f7c38	0.2338723
180	0xbdd2b745	-0.10288862
181	0x3dc3e1c7	0.09564548
182	0x3d723eaf	0.05914181
183	0x3e14eec7	0.14544211
184	0x3e6d63d2	0.2318261
185	0x3c6571b8	0.014004163
186	0x3ebc9594	0.3683287
187	0x3e78a3c1	0.24281217
188	0xbc51d494	-0.01280703
189	0x3e2212bf	0.15827464
190	0xbe4e4445	-0.2014323
191	0xbd1aa2fe	-0.037753098
192	0xbdae6db8	-0.08517021
193	0x3e3480fe	0.17627332
194	0x3e0c5f48	0.13708222
195	0x3dcfbbfa	0.101432756
196	0x3e074262	0.13208917
197	0x3dfceb1c	0.12349531
198	0xbe6ebc89	-0.23314108
199	0x3d0ea559	0.034825657
200	0x3e49d507	0.1971017
201	0x3e4b403c	0.19848722
202	0xbdef966d	-0.11698613
203	0xbdf02ad0	-0.11726916
204	0x3e49de59	0.19713725
205	0x3e483223	0.19550376
206	0x3e1d74a6	0.15376529
207	0x3d86d409	0.06583411
208	0x3ddb1606	0.1069756
209	0xbe6b16e3	-0.2295795
210	0x3d52e6cf	0.051489647
211	0x3dad7c72	0.08471002
212	0xbe0e93d5	-0.13923581
213	0xbe4ebfbe	-0.20190331
214	0xbe165e68	-0.1468445
215	0xbe5c80ca	-0.21533504
216	0xbc8e307b	-0.017357102
217	0xbe826c83	-0.25473413
218	0xbd09017c	-0.03344868
219	0x3dea29c8	0.114337504
220	0x3e582c3b	0.21110623
221	0xbce6ef96	-0.028190415
222	0xbdaa9253	-0.083286904
223	0xbe6b5e84	-0.22985274
224	0x3e5911cd	0.21198197
225	0xbe370e34	-0.17876512
226	0x3e56718f	0.20941757
227	0xbe8c72ba	-0.2743128
228	0xbbc79d39	-0.0060917404
229	0x3cae0e5e	0.021247085
230	0xbe6f53b3	-0.23371772
231	0xbdf6eda6	-0.120570466
232	0x3e393ae8	0.18088877
233	0x3dd6dc67	0.10491257
234	0x3dba29e8	0.09090024
235	0x3e7fcbe9	0.2498013
236	0xbe8852ef	-0.26625773
237	0x3d70d062	0.05879248
238	0xbe840e74	-0.25792277
239	0x3db442f4	0.08801833
240	0xbd087309	-0.03331283
241	0x3cbd9c0a	0.023145694
242	0xbb2a1db3	-0.0025957644
243	0x3e82cd69	0.2554734
244	0x3b973b9d	0.0046152608
245	0x3d7cd8a3	0.06173004
246	0x3e9528c9	0.2913268
247	0xbb8a4298	-0.0042193644
248	0x3dbd3b6b	0.09239849
249	0x3e3aeb1d	0.18253751
250	0x3e26ca72	0.16288164
251	0x3df1c603	0.11805346
252	0x3e984232	0.29738003
253	0x3e11f7b6	0.1425465
254	0xbd824c1c	-0.06362173
255	0x3e5e94b6	0.21736416

phi_x.0.bias f4 [32]
0	0x3e3f317d	0.18671222
1	0x3e27d37c	0.16389269
2	0xbe3f116e	-0.18658993
3	0xbe620d78	-0.2207545
4	0x3d5fb5a3	0.05461658
5	0xbe241da4	-0.16026932
6	0xbd7e55b1	-0.06209344
7	0x3e20967f	0.1568241
8	0x3df10ad8	0.117696464
9	0xbd8def60	-0.06930423
10	0xbe4266b8	-0.18984497
11	0xbe06526e	-0.13117382
12	0xbd33d15d	-0.043900836
13	0x3e8df891	0.27728704
14	0xbe5d1d26	-0.2159315
15	0xbe0c9b01	-0.13731004
16	0x3ea010cb	0.31262812
17	0x3e93224f	0.28737113
18	0xbe179d59	-0.14806117
19	0x3dd743a9	0.10510952
20	0xbe6446ab	-0.22292583
21	0x3d711255	0.058855373
22	0x3e1dd650	0.15413785
23	0x3cece312	0.02891687
24	0x3d6e34f7	0.05815598
25	0x3daeb591	0.08530725
26	0x3e1f28b5	0.15542872
27	0x3c93ce07	0.018042577
28	0xbe06047c	-0.13087648
29	0x3e39bcdd	0.18138452
30	0x3e0ed8c0	0.13949871
31	0x3dae5d8c	0.085139364

phi_x.2.weight f4 [32, 32]
0	0x3d96a91d	0.073564745
1	0x3e2caa20	0.16861773
2	0x3cc6ee24	0.024283476
3	0x3e311380	0.17292595
4	0xbdf52656	-0.119702026
5	0xbd8c8fe6	-0.06863384
6	0xbd8c76cd	-0.06858597
7	0x3de6910a	0.11258133
8	0xbdb81b31	-0.08989561
9	0x3e11deb0	0.14245105
10	0xbe532af4	-0.20621854
11	0xbe4f22f7	-0.20228182
12	0x3e0ff2f8	0.14057529
13	0x3dd1fb95	0.102530636
14	0xbdc05f52	-0.09393181
15	0xbe066631	-0.1312492
16	0x3da6274d	0.08112965
17	0xbdf2c424	-0.11853817
18	0xbe141683	-0.14461713
19	0xbdfd9b4e	-0.12383138
20	0xbd4fc24d	-0.05072241
21	0x3e02c669	0.12771
22	0x3e0ef7dd	0.1396174
23	0x3c7f1145	0.015568082
24	0x3d5f78e3	0.054558646
25	0xbcb8c0da	-0.022552896
26	0x3d71cb67	0.05903187
27	0xbcee027e	-0.029053923
28	0x3e15b8e6	0.14621314
29	0x3b39b98c	0.0028339354
30	0xbd42dca4	-0.0475737
31	0xbe299965	-0.16562422
32	0xbdc6fbac	-0.09715971
33	0xbd20a96b	-0.03922407
34	0xbe2f1ceb	-0.17100875
35	0xbd76914d	-0.060197163
36	0xbda156a0	-0.078778505
37	0xbd830cc2	-0.06398918
38	0xbe0a4fa0	-0.13506937
39	0x3cd8b35b	0.02645271
40	0xbe2f492c	-0.17117757
41	0x3c9d8937	0.019230468
42	0x3d7af068	0.061264426
43	0xbdb56bbc	-0.08858439
44	0xbdd45cb9	-0.10369248
45	0x3d38e4d2	0.045140095
46	0x3dff5285	0.12466911
47	0xbd1ee48f	-0.03879219
48	0x3e0ac660	0.13552237
49	0xbdaf200d	-0.08551035
50	0xbd39d3b6	-0.04536792
51	0x3e2f7198	0.17133176
52	0x3d4a32d3	0.049364876
53	0xbbedda34	-0.007258678
54	0xbe126c23	-0.14299063
55	0x3e18622f	0.14881204
56	0xbb235668	-0.0024923328
57	0x3df4589c	0.119309634
58	0xbd31eb44	-0.043437257
59	0x3d5667ba	0.052345015
60	0x3e342a40	0.17594242
61	0xbd9203eb	-0.071296535
62	0xbdcb50f5	-0.09927551
63	0xbd7af808	-0.061271697
64	0xbd2f3b24	-0.04278101
65	0x3c5d0f59	0.013492429
66	0xbd762621	-0.060094956
67	0x3e0db6cf	0.13839267
68	0xbc234a4c	-0.009966444
69	0x3da2d7cd	0.07951317
70	0xbd3cbb3c	-0.046076998
71	0xbe19f463	-0.15034632
72	0xbe22d6d8	-0.15902269
73	0xbdabfb5d	-0.08397553
74	0xbd089ac3	-0.033350717
75	0x3de08c2e	0.10964237
76	0x3db9be8b	0.09069546
77	0x3ddfbdc5	0.109248675
78	0xbd4dc8fb	-0.050240498
79	0x3e2388f9	0.1597022
80	0xbdcce9e0	-0.100055456
81	0xbd0cd9ce	-0.034387402
82	0xbe158e92	-0.14605168
83	0x3da43089	0.0801707
84	0xbe1f5515	-0.155598
85	0x3d1b3816	0.037895285
86	0xbd7f3467	-0.062305834
87	0x3e07ad66	0.1324974
88	0x3e060c21	0.13090564
89	0xbdf68290	-0.120366216
90	0x3e2d4b56	0.1692327
91	0xbe062edb	-0.13103811
92	0xbc9a012e	-0.01879939
93	0xbd6e1944	-0.058129564
94	0x3af875ab	0.0018955966
95	0xbd841ec6	-0.06451182
96	0x3d14df29	0.036345635
97	0x3c9a649f	0.018846808
98	0xbdb87bb2	-0.09007968
99	0xbe2f91ef	-0.17145513
100	0xbdaab930	-0.08336103
101	0x3e2e27f3	0.17007427
102	0xbd2a2441	-0.04153848
103	0xbdc5d378	-0.09659475
104	0xbb39ba0b	-0.002833965
105	0x3dd85c87	0.10564523
106	0x3da73510	0.08164418
107	0xbe14e2b6	-0.14539608
108	0x3dcd93d0	0.100379586
109	0x3c2db907	0.010603196
110	0x3d048847	0.032356527
111	0x3dab2229	0.08356125
112	0xbda97bed	-0.0827559
113	0x3d826393	0.063666485
114	0xbe0ab457	-0.13545357
115	0x3ce4ed22	0.027945105
116	0x3dc7ae07	0.0974999
117	0x3cbe2b62	0.023214046
118	0xbd386902	-0.04502202
119	0xbd0154ce	-0.031575017
120	0x3e1317d9	0.14364566
121	0xbe00e65c	-0.12587875
122	0x3dd4290e	0.10359393
123	0xbd85a66f	-0.06525885
124	0x3e2969b1	0.16544224
125	0xbd3cfd0c	-0.04613976
126	0xbe0838c2	-0.13302901
127	0x3d708540	0.058720827
128	0x3d24055a	0.040044166
129	0xbe03f6fa	-0.12887183
130	0x3d399610	0.045309126
131	0xbd8a31fa	-0.067478135
132	0x3e0b48ea	0.13602033
133	0x3e425fac	0.18981808
134	0xbddfb5cd	-0.109233476
135	0xbd293faa	-0.04132048
136	0x3d6d3754	0.057914093
137	0x3e1c649d	0.15272756
138	0xbdfcb22b	-0.1233867
139	0xbd974568	-0.07386285
140	0x3c582b6a	0.0131939445
141	0xbc6a8e89	-0.01431621
142	0xbdb451ff	-0.08804702
143	0x3d522e85	0.051313896
144	0x3d0fc611	0.035101
145	0x3df73bb4	0.12071934
146	0xbdadcda3	-0.08486488
147	0xbe03bf1a	-0.12865868
148	0x3e46474e	0.19363138
149	0x3e4c252e	0.19936058
150	0x3e0a42b5	0.13502009
151	0x3e1a90ed	0.15094347
152	0xbbcdcfad	-0.0062808604
153	0xbd8483ff	-0.06470489
154	0xbdc0f538	-0.09421772
155	0x3e01888a	0.12649742
156	0xbd251e2a	-0.04031197
157	0x3d111591	0.035420958
158	0x3bc9fec0	0.006164402
159	0x3e119242	0.14215949
160	0x3c305840	0.010763228
161	0x3e1de099	0.15417708
162	0x3ce7cfc2	0.028297309
163	0x3d54d39d	0.051959623
164	0x3dba2c5f	0.09090494
165	0xbe0c0674	-0.13674337
166	0x3e1d075e	0.15334842
167	0x3d8996e7	0.067182355
168	0x3dd567af	0.10420167
169	0xbe2b0f0c	-0.16704959
170	0x3c0bd8d2	0.008535581
171	0xbe0af5d4	-0.13570338
172	0x3d817393	0.06320872
173	0x3de8b334	0.11362305
174	0xbcd1a41e	-0.025590952
175	0xbd689ff3	-0.056793164
176	0xbe206cc0	-0.15666485
177	0xbda15294	-0.07877079
178	0x3ceb2f89	0.02870919
179	0xbdd54d92	-0.10415186
180	0x3ca85c92	0.020551953
181	0x3e102e92	0.14080265
182	0x3de7b24b	0.113133036
183	0x3db98b2f	0.0905975
184	0xbcbacf17	-0.022803826
185	0x3e1981a2	0.14990857
186	0x3c858f38	0.016303644
187	0x3e1b77e6	0.15182456
188	0x3e0f50a5	0.13995607
189	0xbe12740e	-0.14302084
190	0xbe19c1c8	-0.15015328
191	0x3df71fa3	0.12066581
192	0xbe15b489	-0.1461965
193	0xbd4a32bc	-0.04936479
194	0x3ddcb479	0.1077661
195	0x3afdea34	0.0019372166
196	0x3e49e766	0.19717178
197	0xbdb2f103	-0.087373756
198	0x3d37156b	0.04469816
199	0x3e3a6c76	0.18205437
200	0xbde09ad4	-0.10967031
201	0xbe0bcb1f	-0.13651703
202	0xbd1ddf42	-0.038542993
203	0x3c19e50b	0.009392987
204	0x3b44b332	0.0030014035
205	0x3dbbe388	0.091742575
206	0x3c57b0df	0.013164728
207	0x3dadee93	0.0849277
208	0xbd634fe0	-0.055496097
209	0xbd3adc73	-0.045620393
210	0x3ce39bbd	0.027784223
211	0xbd06b5a0	-0.032888055
212	0x3d90e251	0.070744164
213	0x3e1f9921	0.15585758
214	0xbde54850	-0.11195433
215	0xbcc0cf23	-0.02353627
216	0x3d23e09b	0.040009122
217	0xbddd9dea	-0.10821135
218	0xbe13aed4	-0.1442216
219	0x3da31f8b	0.07965001
220	0xbe097f52	-0.13427475
221	0x3d24e45e	0.04025685
222	0x3da7cb97	0.081931286
223	0xbe122201	-0.14270784
224	0xbded6477	-0.11591428
225	0x3e19fc91	0.15037753
226	0x3e1506b8	0.14553344
227	0xbe006006	-0.1253663
228	0x3e2b5953	0.16733293
229	0x3d5f2d69	0.054486666
230	0xbe0081ea	-0.12549558
231	0x3da9b5a0	0.08286595
232	0xbe2b7d29	-0.16746964
233	0x3e0f0048	0.13964951
234	0xbc95c4b9	-0.018282281
235	0xbd5fb9fa	-0.05462072
236	0x3dda49b5	0.1065859
237	0xbe0b4b45	-0.13602932
238	0x3dd74c4c	0.10512599
239	0xbdca74bf	-0.09885549
240	0x3cc28403	0.023744589
241	0xbe175543	-0.14778619
242	0x3e094aa0	0.13407373
243	0x3c8c4f6c	0.017127715
244	0xbb37a123	-0.002801963
245	0xbdb477fa	-0.08811946
246	0x3da28bde	0.07936834
247	0x3d9a911d	0.075472094
248	0xbd93bc28	-0.07213622
249	0x3e063316	0.13105425
250	0x3cee3d39	0.029081928
251	0xbe084c52	-0.13310364
252	0x3cecb7a2	0.028896157
253	0x3b2252e0	0.0024768636
254	0x3d436370	0.047702253
255	0xbd8c1ce9	-0.06841452

phi_x.2.bias f4 [32]
0	0x3e4232b3	0.18964653
1	0xbe1e26af	-0.15444444
2	0x3c9f74ca	0.019464869
3	0xbba0fa66	-0.0049126623
4	0x3d9fe05a	0.078064635
5	0x3d7aa08c	0.061188266
6	0x3e191f9f	0.14953469
7	0x3daa6201	0.08319474
8	0xbdcc42b6	-0.099736616
9	0xbdc35ca9	-0.09539158
10	0x3d4dff21	0.050292138
11	0xbc8cc57a	-0.017184008
12	0xbe00223f	-0.12513064
13	0xbe138e47	-0.14409743
14	0xbdabec53	-0.08394685
15	0x3d38d36b	0.0451235
16	0x3e12b379	0.14326276
17	0x3e89510b	0.26819643
18	0x3de7a233	0.11310234
19	0x3d9a908f	0.075471036
20	0x3db08337	0.08618777
21	0xbd82630b	-0.06366547
22	0xbd41375d	-0.04717194
23	0x3d2ae42a	0.0417215
24	0x3df1d3d0	0.11807978
25	0xbdfb8feb	-0.122833095
26	0xbe18fe6c	-0.14940804
27	0x3c5390f6	0.012912979
28	0x3df50460	0.11963725
29	0xbd0e80ad	-0.034790684
30	0xbe4b1cdd	-0.19835229
31	0xbcf9490b	-0.030430337

phi_z.0.weight f4 [32, 12]
0	0x3e469b63	0.19395213
1	0xbe5dd465	-0.21663053
2	0xbbd281da	-0.006424171
3	0xbd5fe160	-0.054658294
4	0x3dc905ea	0.09815581
5	0xbd047c7d	-0.032345284
6	0xbde8752d	-0.113504745
7	0xbe5a7aee	-0.21335956
8	0xbd31fb08	-0.043452293
9	0x3dc48b8c	0.09596929
10	0xbcb8abfe	-0.02254295
11	0xbdb6d3fb	-0.08927151
12	0xbdd027f9	-0.10163874
13	0xbe580088	-0.21093953
14	0x3b64dc7f	0.0034921465
15	0x3d4169c7	0.047220018
16	0x3e31b591	0.17354418
17	0x3e2b12b0	0.16706347
18	0x3dda1ed1	0.10650409
19	0xbd1ec3ab	-0.038760822
20	0xbde35532	-0.11100234
21	0x3de3a503	0.11115458
22	0xbaa45b42	-0.0012539404
23	0x3e7d2e05	0.24724586
24	0xbe283071	-0.16424729
25	0x3db38a46	0.08766608
26	0xbe71f211	-0.23627497
27	0xbde14e08	-0.110012114
28	0x3e07ecdf	0.13273953
29	0xbe2f0d01	-0.17094804
30	0x3e224ba0	0.15849161
31	0x3dab76f3	0.08372297
32	0x3e4f71ab	0.20258205
33	0xbe4686fb	-0.19387428
34	0xbdd2e1d4	-0.102969795
35	0xbdd84faf	-0.105620734
36	0x3df157dc	0.11784336
37	0xbe385941	-0.18002798
38	0xbe5294c3	-0.2056456
39	0xbd4f522d	-0.05061548
40	0x3d7d66fd	0.061865795
41	0xbe1fba22	-0.15598348
42	0x3d8995b7	0.06718009
43	0xbe2ffdb7	-0.17186628
44	0x3d100cda	0.035168506
45	0xbdf41d2d	-0.11919627
46	0x3d29b2b9	0.04143021
47	0xbd43f9e3	-0.047845732
48	0xbe6f1220	-0.23346758
49	0x3e07fe78	0.13280666
50	0x3e41a16a	0.18909231
51	0xbd3df6af	-0.046377834
52	0xbdab2b16	-0.08357827
53	0x3d01c2de	0.03167998
54	0xbd9943e3	-0.074836515
55	0x3db4f0a2	0.088349596
56	0x3dd3d8ad	0.10344062
57	0x3db373cb	0.0876232
58	0x3e0c1ee0	0.13683653
59	0xb58b4910	-1.0377571e-06
60	0xbe2e690e	-0.17032263
61	0x3e448a86	0.19193467
62	0x3d983110	0.07431233
63	0xbdb98635	-0.09058801
64	0xbe65ee77	-0.22454248
65	0x3d4c0afa	0.049815156
66	0xbe3d70c1	-0.18500043
67	0xbe44fa90	-0.19236207
68	0xbe008462	-0.125505
69	0x3c53b87b	0.012922402
70	0x3d7cdb9a	0.061732866
71	0xbe23fc5d	-0.16014238
72	0x3e4854f1	0.19563653
73	0xbe7b0451	-0.24513365
74	0xbdaaccf1	-0.08339871
75	0xbd994f03	-0.074857734
76	0x3c537d65	0.012908314
77	0x3e588426	0.2114416
78	0xbcecadbe	-0.02889144
79	0x3e4f8cc2	0.20268539
80	0x3e328749	0.1743442
81	0xbe4ad5a1	-0.19808055
82	0x3dd137b1	0.102157004
83	0xbe699f99	-0.22814788
84	0xbda2f84a	-0.07957514
85	0x3e7bdda2	0.24596265
86	0x3e58bd7b	0.21166031
87	0x3e019036	0.12652668
88	0xbe05324d	-0.1300747
89	0x3e1e2818	0.15444982
90	0xbd8e8057	-0.06958073
91	0x3dda4bec	0.10659012
92	0xbe15dcc2	-0.14634994
93	0x3e732b57	0.23747002
94	0xbcfd4458	-0.030916378
95	0xbe70e030	-0.2352302
96	0x3e594266	0.21216735
97	0x3e0665f0	0.13124824
98	0x3e729b58	0.23692071
99	0xbe0b7df9	-0.13622274
100	0xbe18b59c	-0.14913028
101	0x3d810e9d	0.063016154
102	0xbe353359	-0.17695369
103	0xbd9473cc	-0.07248649
104	0xbe42ce9d	-0.19024129
105	0xbda155e4	-0.078777105
106	0x3e804d85	0.25059143
107	0xbd747bf4	-0.059688523
108	0x3e7433c1	0.23847868
109	0x3e967dfe	0.29393
110	0xbe856e3b	-0.26060662
111	0xbdada659	-0.08478994
112	0xbe0d7e33	-0.13817672
113	0xbccb641f	-0.024828015
114	0xbbfe6068	-0.0077629574
115	0xbdadaaae	-0.0847982
116	0x3de0c3b1	0.10974825
117	0xbe86e893	-0.26349315
118	0x3e85ed51	0.2615762
119	0x3e88b56b	0.2670091
120	0x3d8dc2df	0.06921934
121	0xbd1526f9	-0.03641412
122	0x3e7ff939	0.24997415
123	0xbc07322e	-0.00825171
124	0x3e10b3ee	0.14131138
125	0x3d9a0f9b	0.07522508
126	0x3d9c1cc8	0.07622677
127	0x3e70703a	0.23480311
128	0xbe1c3c40	-0.15257359
129	0xbe37d9d1	-0.17954184
130	0x3dcda31f	0.100408785
131	0xbd54ba53	-0.051935505
132	0x3e3395f5	0.17537673
133	0x3daf5896	0.08561818
134	0x3d95d97d	0.07316873
135	0xbdb0b38d	-0.086279966
136	0xbe0ecc99	-0.13945235
137	0x3e2df26c	0.16987008
138	0x3ccef10f	0.02526143
139	0x3ba7c9e2	0.005120502
140	0xbda2c911	-0.079485066
141	0xbe6dbe9b	-0.23217241
142	0x3e67d356	0.22639212
143	0xbcdcc32d	-0.026948536
144	0xbe4b014e	-0.19824716
145	0x3ca3c85c	0.019993
146	0xbd9fc8d4	-0.07801977
147	0xbe08b1f4	-0.13349134
148	0x3d68d045	0.056839246
149	0x3e2382c8	0.15967858
150	0xbd2b9dd7	-0.041898575
151	0xbdfdd2c3	-0.12393715
152	0xbce73779	-0.028224694
153	0x3dad698a	0.084673956
154	0xbe3c8bca	-0.184127
155	0xbda92f4c	-0.08260974
156	0xbe535b1b	-0.20640223
157	0x3d8969c0	0.06709623
158	0x3e2014cb	0.15632932
159	0xbe62aeb2	-0.22136953
160	0xbb321619	-0.0027173816
161	0xbe7e52a4	-0.24836212
162	0xbe309fb3	-0.1724842
163	0x3ddc6694	0.10761753
164	0xbe2581c1	-0.16162778
165	0xbd2a84fb	-0.041630726
166	0x3c621718	0.013799451
167	0x3c013e6a	0.007888416
168	0x3d0d4e2b	0.034498375
169	0x3d867e44	0.06567052
170	0xbd5b3602	-0.053518303
171	0xb86ad74a	-5.599045e-05
172	0x3e1903b6	0.14942822
173	0x3d92fe00	0.07177353
174	0xbbafb9c0	-0.0053627193
175	0x3de4b3e3	0.11167123
176	0xbe29267c	-0.16518587
177	0x3e5fa0c8	0.21838677
178	0x3e0408bb	0.12893955
179	0x3dbe00c1	0.092774875
180	0x3e122723	0.14272742
181	0xbd81a290	-0.063298345
182	0xbcc8b8df	-0.024502216
183	0x3e0a33b0	0.1349628
184	0x3dec1604	0.11527637
185	0x3e7a12d3	0.24421243
186	0xbc42820b	-0.011871825
187	0x3d05fea9	0.032713566
188	0xbc74211e	-0.014900474
189	0x3e0b9ec2	0.1363478
190	0xbd8618d9	-0.06547708
191	0x3c8029dc	0.01564496
192	0x3e48b1da	0.19599095
193	0x3e0db2a2	0.13837674
194	0xbdce65f4	-0.1007804
195	0x3c6dc11e	0.014511375
196	0x3da9aab4	0.08284512
197	0xbe214a2b	-0.15750949
198	0x3d811d6f	0.06304442
199	0xbdf1c7a5	-0.11805657
200	0xbc4288ca	-0.011873433
201	0x3e0e7fa2	0.13915876
202	0xbd357b39	-0.044306967
203	0xbe89b085	-0.26892486
204	0xbe78ed85	-0.24309357
205	0xbda518f9	-0.08061404
206	0xbdfe9a95	-0.12431828
207	0x3d830ed0	0.0639931
208	0x3e46572c	0.19369191
209	0xbe13fc9f	-0.14451836
210	0x3d9b4d49	0.075831
211	0x3e0d4642	0.13796332
212	0x3dc3bbe5	0.095573224
213	0xbe860293	-0.2617384
214	0x3d301f5e	0.042998664
215	0x3d8dc321	0.069219835
216	0xbe569ab2	-0.20957449
217	0x3dded244	0.10879949
218	0x3cda7bb4	0.026670314
219	0x3e82c697	0.25542137
220	0x3e9467f6	0.28985566
221	0x3dfa9d00	0.122369766
222	0xbd532715	-0.051550943
223	0xbe43877a	-0.19094649
224	0x3de6be1f	0.112667315
225	0x3d04a446	0.032383226
226	0xbd621dee	-0.055204324
227	0x3e356162	0.1771293
228	0x3d092160	0.033479095
229	0xbe0d6be5	-0.1381069
230	0xbb4e0084	-0.0031433413
231	0xbd071a5d	-0.032984126
232	0xbdf70705	-0.12061886
233	0x3da00ef6	0.078153536
234	0xbe2ba369	-0.16761555
235	0x3dc13950	0.094347596
236	0x3d81442e	0.06311832
237	0x3dd7698e	0.1051818
238	0xbe2dbe77	-0.16967188
239	0xbe1f50ce	-0.15558168
240	0x3daaf1b6	0.08346884
241	0xbc90c1fa	-0.01767062
242	0x3de7baeb	0.11314949
243	0xbdaa0913	-0.08302512
244	0x3d08a831	0.033363525
245	0xbc0b88d8	-0.008516513
246	0xbdeba3c1	-0.11505843
247	0x3e078e64	0.13237911
248	0x3d5656fd	0.052329052
249	0x3e0e84c2	0.1391783
250	0x3e0cb599	0.13741149
251	0x3d9e8125	0.07739476
252	0x3d802dfb	0.0625877
253	0xbe204203	-0.15650181
254	0x3cc83984	0.024441488
255	0xbdcc6bfe	-0.099815354

phi_z.0.bias f4 [32]
0	0xbdde204d	-0.10846005
1	0x3e865694	0.2623793
2	0x3dcb5079	0.09927458
3	0x3da6e029	0.08148224
4	0xbdee7f76	-0.11645405
5	0x3e36bdc3	0.17845826
6	0xbe7234d6	-0.23652968
7	0x3e1a8d83	0.15093045
8	0xbe21e9b5	-0.15811808
9	0xbe1cefe9	-0.15325893
10	0x3df8bc82	0.1214533
11	0x3e879e41	0.26487926
12	0xbe9f4359	-0.3110607
13	0xbd8876a0	-0.06663251
14	0xbea0738a	-0.3133815
15	0xbda499ec	-0.08037171
16	0xbe1e7fad	-0.15478392
17	0xbe1a1928	-0.15048659
18	0xbba62ba6	-0.0050711213
19	0xbea76ab0	-0.32698584
20	0xbe8920ee	-0.26782936
21	0xbe844106	-0.2583086
22	0xbd65bab4	-0.056086257
23	0xbdeec788	-0.11659151
24	0xbe61a6c4	-0.22036272
25	0xbdab1a56	-0.083546326
26	0x3e8c1566	0.27360076
27	0xbda50ea8	-0.08059436
28	0xbe686768	-0.22695696
29	0xbe1fece8	-0.15617716
30	0x3e4b31e3	0.19843249
31	0x3e918020	0.28418064

enc.0.weight f4 [32, 64]
0	0xbd1ecb49	-0.038768087
1	0xba646800	-0.0008713007
2	0xbcf6fe70	-0.030150622
3	0xbe00a828	-0.12564147
4	0x3d1ed726	0.0387794
5	0xbde6dc8b	-0.11272534
6	0xbd9b6d0b	-0.07589158
7	0xbd97361c	-0.073833674
8	0x3dfb5d16	0.12273614
9	0x3d1fc0e3	0.03900231
10	0xbcb062d8	-0.021531507
11	0xbcc8a6b0	-0.024493545
12	0x3dbd0db6	0.09231131
13	0xbdc74a0a	-0.09730919
14	0xbdf36236	-0.118839666
15	0xbdd941ae	-0.106082305
16	0x3d1bad04	0.038006797
17	0x3ceff566	0.02929182
18	0xbd7093c4	-0.05873467
19	0xbce5bd9e	-0.028044518
20	0xbcb85a30	-0.022503942
21	0x3db0a932	0.086260214
22	0xbc810866	-0.015751075
23	0x3d9de23e	0.07709168
24	0x3cdd3428	0.02700241
25	0xbc43e4d5	-0.011956413
26	0x3dabdfc8	0.08392292
27	0x3db5f2d0	0.088842034
28	0xbdcc7bed	-0.099845745
29	0xbc8304c8	-0.01599349
30	0x3d410498	0.04712352
31	0x3ca25557	0.019816084
32	0xbde49392	-0.11160959
33	0xbdc351b4	-0.09537068
34	0xbd3decf4	-0.046368554
35	0xbdb0472a	-0.086073235
36	0x3d8563e2	0.06513192
37	0xbd086a0e	-0.033304267
38	0x3d77f210	0.060533583
39	0xbd9cf12e	-0.07663189
40	0xbe003e14	-0.12523681
41	0x3e072fb9	0.13201798
42	0xbc252aaf	-0.010080977
43	0x3c56bf7a	0.013107175
44	0xbd25e052	-0.04049713
45	0x3d670ae5	0.056406874
46	0xbd78b22f	-0.060716804
47	0xbd8c75af	-0.06858384
48	0x3d85b45d	0.06528542
49	0xbe061e1b	-0.13097422
50	0xbc84284d	-0.016132498
51	0xbdec07dd	-0.11524937
52	0x3d13ab21	0.036051873
53	0xbcb48fcc	-0.022041224
54	0x3bac302e	0.005254767
55	0xbafd8351	-0.0019341504
56	0xbcceaeeb	-0.025229892
57	0xbc8e2f97	-0.017356677
58	0x3d021370	0.03175682
59	0x3c0aaf93	0.008464712
60	0xbd22d821	-0.039756898
61	0x3c2a1848	0.010381766
62	0xbcc31332	-0.023812864
63	0x3d91fefb	0.07128712
64	0xbd4a3951	-0.049371067
65	0xbcd103d0	-0.025514513
66	0xbde64388	-0.11243349
67	0x3d628d18	0.05531034
68	0xbda84870	-0.08216941
69	0x3d92d273	0.07169046
70	0x3dc800a5	0.09765748
71	0x3d520686	0.051275752
72	0xbd5d5eb8	-0.05404541
73	0x3d572c12	0.052532263
74	0xbc5b0610	-0.013368145
75	0x3de2d138	0.110750616
76	0x3df37d82	0.11889173
77	0x3db64cc0	0.08901358
78	0xbc7ddc6c	-0.015494447
79	0xbc85a38f	-0.016313342
80	0x3c881cb0	0.016615242
81	0x3dbc8f9c	0.09207079
82	0xbdf2b05a	-0.11850043
83	0xbd0b8daf	-0.034070667
84	0x3d9f1a9a	0.07768746
85	0x3ddcefde	0.107879385
86	0xbda73202	-0.08163835
87	0xbdd072ad	-0.10178123
88	0xbd40c0df	-0.047058936
89	0xbd4270d6	-0.04747089
90	0xbcfdcbf0	-0.030981034
91	0x3d3f4d4a	0.046704568
92	0xbe06accb	-0.13151853
93	0xbd813eb0	-0.06310785
94	0x3bd631e0	0.0065367073
95	0x3da822a4	0.08209732
96	0x3c8761b1	0.016526075
97	0xbdc041f4	-0.093875796
98	0xbdbf160a	-0.093303755
99	0xbde4b382	-0.11167051
100	0xbd6c6120	-0.057709813
101	0x3df1504d	0.11782894
102	0xbc6edd80	-0.014579177
103	0xbd7dbb10	-0.061945975
104	0xbd0eb0fc	-0.034836754
105	0xbddbdb6f	-0.10735213
106	0x3d153d83	0.036435615
107	0x3d5541df	0.052064773
108	0xbce13d81	-0.027495148
109	0xbda43137	-0.080171995
110	0xbdd3b5e0	-0.10337424
111	0xbd2a160a	-0.041524924
112	0x3dcc2d01	0.09969521
113	0x38fd926b	0.000120912526
114	0x3c5a3105	0.013317351
115	0xbddc633f	-0.10761117
116	0xbdce17b9	-0.100631185
117	0x3d8f4220	0.06995034
118	0x3d860ea3	0.065457605
119	0x3d5e88bd	0.054329623
120	0xbdb453aa	-0.0880502
121	0xbd05f126	-0.03270068
122	0x3cd51a5d	0.026013548
123	0x3cd5c623	0.026095456
124	0xbad56823	-0.0016281646
125	0x3dda4450	0.10657561
126	0xbdb01bdb	-0.08599063
127	0x3db2a3b7	0.087226324
128	0xbce407e1	-0.027835788
129	0x3c11ef40	0.008907139
130	0xbd53449c	-0.051579103
131	0x3d828fde	0.06375097
132	0x3c06ba2a	0.008223096
133	0xbcf288c9	-0.02960624
134	0x3e25aa02	0.16178134
135	0x3bd51bd9	0.006503564
136	0xbd0d1eac	-0.03445308
137	0x3e2e096e	0.16995785
138	0x3d875af2	0.06609143
139	0xbdcb62aa	-0.09930928
140	0xbdb15464	-0.08658674
141	0x3d46f2a8	0.04857126
142	0x3dda40da	0.10656901
143	0xbd17d3d6	-0.037067257
144	0xbd63eb47	-0.0556443
145	0x3e8b6689	0.27226666
146	0x3de359e4	0.1110113
147	0x3d79ecb8	0.06101677
148	0x3d06debb	0.032927256
149	0x3da1b66e	0.07896124
150	0xbe0a3b7e	-0.13499257
151	0x3d3ea88d	0.04654746
152	0xbb8464e6	-0.0040403483
153	0xbd23c48b	-0.03998236
154	0xbc713cb0	-0.014723942
155	0xba6cc2e0	-0.0009031724
156	0x3dd44457	0.10364597
157	0xbd3658b0	-0.044518173
158	0xbdd4c32d	-0.10388789
159	0x3dede64c	0.11616191
160	0xbd3c136c	-0.04591696
161	0xbd70d1eb	-0.058793943
162	0x3e03c85a	0.12869397
163	0x3e246e6a	0.16057745
164	0xbe2517ef	-0.16122411
165	0x3dc2de04	0.09515002
166	0xbe2f9b84	-0.17149168
167	0xbe0371d0	-0.12836385
168	0xbdf4b7d6	-0.119491264
169	0x3e29c79c	0.16580051
170	0x3da80e47	0.08205848
171	0x3cfd2b77	0.030904515
172	0x3e2d62c5	0.16932209
173	0x3e03d46d	0.12874003
174	0xbd403e7e	-0.046934597
175	0xbcbe5042	-0.02323163
176	0x3e6085ac	0.21925992
177	0xbdfb6e32	-0.122768775
178	0xbe271903	-0.16318135
179	0x3db60548	0.08887726
180	0xbdc1b966	-0.0945919
181	0x3dc66a55	0.0968825
182	0xbde34ecf	-0.11099016
183	0xbd662646	-0.056188844
184	0x3e35b565	0.17744978
185	0x3c3ff643	0.011716428
186	0x3dbb96ed	0.09159646
187	0x3dc6c78f	0.097060315
188	0x3d28b2a9	0.04118601
189	0xbc4819fb	-0.0122132255
190	0x3da918a5	0.08256654
191	0x3d0192a1	0.031633977
192	0xbde9620c	-0.11395654
193	0x3c901560	0.017588317
194	0x3dc3e2a6	0.09564714
195	0xbde0c148	-0.109743655
196	0xbd8b4d22	-0.06801821
197	0xbcdd76f0	-0.027034253
198	0xbd7a57dc	-0.061118945
199	0xbd84c8dc	-0.064836234
200	0xbc4602d0	-0.0120856315
201	0xbcda9848	-0.026683941
202	0x3b740740	0.0037235767
203	0x3dfaae02	0.122402206
204	0xbdd931c8	-0.10605198
205	0x3d70c9c4	0.05878617
206	0xbd0197ac	-0.031638786
207	0x3d795a6c	0.06087725
208	0x3df4a7a0	0.119460344
209	0x3c337bb0	0.010954782
210	0x3d97dde8	0.07415372
211	0xbd257564	-0.040395156
212	0x3d525c4c	0.051357552
213	0xbc535860	-0.012899488
214	0x3cbb3ab8	0.022855148
215	0xbb1d6500	-0.00240165
216	0xbddcb176	-0.107760355
217	0xbd9aa010	-0.07550061
218	0x3d5893b8	0.05287525
219	0xbdef52ea	-0.116857365
220	0xbd8ae818	-0.067825496
221	0x3df75d88	0.120783865
222	0x3cf64290	0.030061036
223	0xbdcef728	-0.10105735
224	0xbd0be980	-0.03415823
225	0x3b01dac0	0.0019814223
226	0x3dc15318	0.09439677
227	0xbd068b80	-0.03284788
228	0x3cde7088	0.027153268
229	0xbd607db4	-0.05480738
230	0xbcffcb98	-0.03122501
231	0xbd852806	-0.065017745
232	0xbde13484	-0.10996345
233	0xbc18cda0	-0.009326369
234	0x3c5f2000	0.013618469
235	0x3d868c58	0.06569737
236	0x3c83b630	0.016078085
237	0xbb64e180	-0.0034924448
238	0xbd823d74	-0.063593775
239	0x3c4954e0	0.012288302
240	0xbd8d840c	-0.069099516
241	0x3d772bb0	0.060344398
242	0xbdf62f02	-0.12020685
243	0xbd285598	-0.041097254
244	0x3cf767d0	0.030200869
245	0x3bd26cc0	0.0064216554
246	0x3d82bad2	0.063832894
247	0xbd4e33b0	-0.05034226
248	0x3db6d14a	0.089266375
249	0xbdbbcf86	-0.09170441
250	0x3c1e0f20	0.009647161
251	0xbd386e60	-0.045027137
252	0xbd0b9eb4	-0.034086898
253	0x3dec6f32	0.11544646
254	0xbcd8cb08	-0.026464
255	0x3da39684	0.07987693

enc.0.bias f4 [32]
0	0xbd38503c	-0.044998392
1	0xbdfeead9	-0.124471374
2	0x3db84f16	0.089994594
3	0xbd987f6a	-0.07446177
4	0x3dda22da	0.10651179
5	0x3dc54cbb	0.09633776
6	0xbdfdd808	-0.1239472
7	0x3df7ccac	0.12099585
8	0x3dedf1b3	0.11618366
9	0xbc1bfe90	-0.009521142
10	0xbde0a376	-0.10968678
11	0xbdfbb964	-0.1229122
12	0x3ca851d9	0.02054684
13	0xbd4a8fcf	-0.049453553
14	0x3d2d4856	0.042305313
15	0xbc948fea	-0.01813503
16	0xbd1ac0e9	-0.03778163
17	0x3c8bcfa3	0.017066782
18	0x3bbb5d00	0.0057178736
19	0xbcf96d27	-0.030447556
20	0xbcdc37cd	-0.026882077
21	0x3d272239	0.04080412
22	0x3d451364	0.048114195
23	0x3de34c3a	0.110985234
24	0xbd8be415	-0.068306126
25	0x3e047a1c	0.12937206
26	0xbbd98e89	-0.006639306
27	0xbd4d0d54	-0.05006154
28	0x3d2cf13d	0.04222225
29	0x3c1297a4	0.008947287
30	0xbd598912	-0.053109236
31	0x3c830cb7	0.015997274

enc.2.weight f4 [32, 32]
0	0x3e167721	0.14693882
1	0xbdc0f190	-0.094210744
2	0x3e89e5b5	0.26933065
3	0xbd8c703f	-0.06857347
4	0xbdcc288b	-0.099686705
5	0xbc489917	-0.012243531
6	0x3c5345d7	0.012895069
7	0x3da3974d	0.07987843
8	0xbd12d36b	-0.035846155
9	0x3e301a40	0.17197514
10	0xbdbdef15	-0.09274117
11	0xbe070b84	-0.13187987
12	0x3e27c0d0	0.16382146
13	0xbe1a51b1	-0.15070225
14	0xbe06ad8f	-0.13152145
15	0xbdc1b806	-0.09458928
16	0xbe357d82	-0.17723659
17	0x3c8c8c42	0.017156724
18	0x3db37928	0.08763343
19	0xbcf33566	-0.029688548
20	0x3e038f55	0.12847646
21	0xbd577bb2	-0.0526082
22	0xbcc0f9e5	-0.023556659
23	0xbd8ee0d0	-0.06976473
24	0xbdce375d	-0.100691535
25	0x3e19faa7	0.15037023
26	0x3d228320	0.03967583
27	0xbda5e0e7	-0.08099537
28	0x3e420b9f	0.18949746
29	0x3e1fb400	0.15596008
30	0xbba14200	-0.004921198
31	0x3e0d5bc2	0.13804534
32	0xbdab3f36	-0.08361666
33	0x3e223fa4	0.1584459
34	0x3dfddd81	0.12395764
35	0xbc15bad8	-0.009138785
36	0x3daa4f64	0.08315924
37	0xbe4099f2	-0.18808725
38	0xbb5384dd	-0.0032275238
39	0xbd3b5690	-0.04573685
40	0xbd1704fb	-0.036869984
41	0x3db12f22	0.08651568
42	0xbde2255a	-0.110422805
43	0x3e2d88c0	0.16946697
44	0xbdde3299	-0.108494945
45	0x3d63666e	0.055517606
46	0x3dd6e866	0.10493545
47	0x3db24a30	0.087055564
48	0x3c19b921	0.009382517
49	0x3d92b150	0.07162726
50	0xbe0229b2	-0.12711218
51	0xbdd4f279	-0.103978105
52	0x3e1aa2f1	0.1510122
53	0xbe3acae1	-0.18241455
54	0xbcc299ca	-0.023754973
55	0xbde7d76a	-0.11320384
56	0x3d270548	0.04077652
57	0x3dd2ac14	0.102867275
58	0x3dfdcf0e	0.12393008
59	0x3deadfdf	0.11468481
60	0x3da4384e	0.08018552
61	0x3d579841	0.052635435
62	0xbc61ef91	-0.013790027
63	0x3bf2961c	0.0074031483
64	0xb7a165aa	-1.9240037e-05
65	0x3e11ab41	0.14225484
66	0xbd0a2dca	-0.033735074
67	0x3d22d7d0	0.039756596
68	0x3a73d8cd	0.000930202
69	0x3d97cacc	0.07411727
70	0xbe256f6d	-0.16155787
71	0xbde3561d	-0.11100409
72	0x3e245efd	0.1605186
73	0xbdd154d4	-0.10221258
74	0xbdad0520	-0.08448243
75	0xbd09272a	-0.033484615
76	0xbe02ea1c	-0.12784618
77	0xbda69ed3	-0.08135762
78	0x3c786869	0.015161612
79	0xbe126daa	-0.14299646
80	0x3dc0cdeb	0.09414276
81	0xbccf5df4	-0.025313355
82	0x3c6da706	0.0145051535
83	0xbde575a8	-0.11204082
84	0xbda8abf3	-0.08235922
85	0x39c961be	0.0003841053
86	0x3df7d68c	0.121014684
87	0xbdb8cc87	-0.090233855
88	0x3dc2d462	0.09513165
89	0xba2a9580	-0.00065072626
90	0x3ce3a708	0.027789608
91	0x3d4931d5	0.04911979
92	0x3c490768	0.012269832
93	0xbdeedd55	-0.116633095
94	0xb99398f5	-0.00028151987
95	0x3da65ba3	0.08122947
96	0x3c79c1f8	0.015244
97	0x3df5bbf4	0.1199874
98	0x3d2a9192	0.041642733
99	0xbd059a5b	-0.032617908
100	0x3c113c66	0.008864498
101	0xbd5df6fc	-0.05419062
102	0x3dbd967a	0.09257217
103	0xbdef1eb9	-0.11675782
104	0xbe169488	-0.14705098
105	0xbe25abbc	-0.16178793
106	0xbd891465	-0.06693343
107	0xbe0e70fa	-0.13910285
108	0xbd80b1d2	-0.062839165
109	0xbdaa96ab	-0.08329519
110	0x3cd55b58	0.026044533
111	0x3d2fe82f	0.042946037
112	0xbce7b098	-0.028282449
113	0x3df9528f	0.1217395
114	0xbd0d0e1a	-0.034437276
115	0xbaf5aa99	-0.0018742859
116	0x3e174e41	0.14775945
117	0x3de9f15b	0.11422988
118	0xbdd92730	-0.106031775
119	0xbddeaf24	-0.10873249
120	0xbdadecd5	-0.08492438
121	0x3e20907d	0.15680118
122	0xbdadd3b5	-0.084876455
123	0x3d238463	0.039921176
124	0x3d5eeee1	0.05442703
125	0x3e0cea19	0.13761176
126	0x3e11e1ca	0.14246288
127	0xbd8390a0	-0.064240694
128	0x3cce1ced	0.025160277
129	0x3e0ea4d4	0.13930064
130	0x3e3459ab	0.1761233
131	0xbe151d53	-0.14561968
132	0x3e252198	0.16126096
133	0x3e184ab5	0.14872248
134	0x3e06d831	0.13168408
135	0xbdfe4993	-0.12416377
136	0xbde31718	-0.11088389
137	0x3e054615	0.13015015
138	0xbe34f5a1	-0.17671825
139	0xbd8d1175	-0.06888095
140	0xbe0521a8	-0.1300112
141	0xbd764a15	-0.060129244
142	0xbdacb6b6	-0.08433287
143	0xbe1a3ce7	-0.15062295
144	0x3d8d9374	0.0691289
145	0xbd687506	-0.056752227
146	0xbc641475	-0.013920893
147	0xbcbb874a	-0.02289166
148	0x3ccb2239	0.024796592
149	0xbdef59d1	-0.11687053
150	0x3e04cb5a	0.12968197
151	0x3da18af6	0.07887833
152	0x3dcaa8b3	0.09895458
153	0xbe32d467	-0.17463838
154	0xbd86851e	-0.06568359
155	0xbca5964d	-0.02021327
156	0xbd0e0292	-0.03467042
157	0x3de0b41e	0.109718546
158	0xbd872c0f	-0.066002004
159	0xbdadc194	-0.08484188
160	0xbdf5597d	-0.11979959
161	0x3bf4cf3e	0.0074709943
162	0x3ef7f4ed	0.4842905
163	0x3e123f7f	0.14282034
164	0xbdd8bde7	-0.10583096
165	0x3ccac578	0.024752364
166	0xbbb40720	-0.0054940134
167	0x3cc8cf5b	0.024512937
168	0xbd867bca	-0.0656658
169	0x3d30baae	0.04314678
170	0xbdd32be4	-0.10311106
171	0x3d4970e5	0.04917993
172	0x3d1ef273	0.038805436
173	0xbd93c365	-0.07215003
174	0x3d66cd83	0.056348335
175	0xbb151d29	-0.0022752977
176	0xbd7b2a9c	-0.061319932
177	0x3d62e0f6	0.05539032
178	0xbd90b741	-0.07066203
179	0x3e1c7e4b	0.15282552
180	0xbdb34ce0	-0.08754897
181	0xbdc06c3f	-0.09395646
182	0xbde99444	-0.114052325
183	0xbd42b1a7	-0.047532704
184	0x3cad8663	0.021182245
185	0x3dde4a6c	0.108540386
186	0x3dcf44ba	0.101205304
187	0xbe27632c	-0.16346425
188	0x3e81701a	0.2528084
189	0x3d4ce4e1	0.050022963
190	0xbd95aea3	-0.073087
191	0xbdeca377	-0.11554616
192	0xbe00171f	-0.1250882
193	0x3de8d078	0.11367887
194	0x3d0cbbcd	0.03435879
195	0x3e3347c8	0.17507851
196	0x3d4e24e0	0.050328135
197	0x3d3bb573	0.04582734
198	0xbdc09457	-0.094032936
199	0x3e0beb81	0.13664056
200	0x3e0b1d8c	0.1358549
201	0x3d514318	0.051089376
202	0xbd26312e	-0.040574245
203	0x3d3ea726	0.046546124
204	0x3db0cebe	0.08633183
205	0x3dddbab4	0.108266264
206	0xbd401ff2	-0.046905465
207	0x3d3a24b1	0.045445148
208	0x3e0059d0	0.12534261
209	0xbdf21c8e	-0.118218526
210	0xbd9bc9af	-0.076068275
211	0xbe3f4226	-0.18677577
212	0xbe005ced	-0.12535448
213	0x3e0ceb92	0.13761738
214	0x3def8b86	0.11696534
215	0xbb3039b9	-0.0026889874
216	0x3e0442a5	0.12916048
217	0x3e348cf2	0.17631891
218	0xbbeca6e8	-0.007222045
219	0x3e1f7c47	0.15574752
220	0x3d60e922	0.054909833
221	0x3d08f7a2	0.033439286
222	0x3d468f59	0.04847655
223	0xbd4e4dcb	-0.050367158
224	0xbde98c19	-0.11403675
225	0xbe0f6598	-0.14003599
226	0x3e5b01a1	0.2138734
227	0xbcdf5091	-0.027260097
228	0x3e23e28e	0.16004393
229	0xbcf32fc9	-0.029685872
230	0x3c3a9ed2	0.011390405
231	0x3d608aff	0.054820057
232	0x3d50d086	0.050980113
233	0x3dcea07b	0.10089203
234	0xbe1ea619	-0.15493049
235	0x3de98b75	0.114035524
236	0xbdd1766d	-0.10227666
237	0x3c8c3a9c	0.01711779
238	0x3d7ce76f	0.06174415
239	0xbdce2bea	-0.1006697
240	0x3e18341c	0.14863628
241	0x3e1fc403	0.15602116
242	0xbd9e7c07	-0.077385
243	0x3db069e5	0.08613948
244	0x3e0c8a96	0.13724741
245	0xbd458c80	-0.048229694
246	0x3d8df643	0.06931736
247	0xbd4b8562	-0.04968775
248	0xbe0c0b36	-0.13676152
249	0xbe11475b	-0.14187376
250	0x3d09b451	0.03361923
251	0x3dd9e589	0.106394835
252	0xbc84e049	-0.016220229
253	0x3e35e479	0.17762937
254	0xbdc2d124	-0.09512547
255	0xbe15b068	-0.14618075

enc.2.bias f4 [32]
0	0x3b64a962	0.0034891
1	0x3d902e24	0.070400506
2	0xbda8a500	-0.08234596
3	0xbbad747c	-0.005293427
4	0xbe241aa3	-0.16025786
5	0x3d8ca26b	0.06866916
6	0x3e1b2401	0.15150453
7	0x3e253877	0.16134821
8	0xbe2422ba	-0.16028872
9	0xbde9e6c0	-0.11420965
10	0x3d89e0aa	0.067323044
11	0xbdbfb163	-0.09360006
12	0xbddf2558	-0.10895795
13	0x3bbaebe8	0.0057043917
14	0xbddb5bbc	-0.10710856
15	0xbbcde88b	-0.006283825
16	0xbd6c7ea9	-0.05773798
17	0x3e269402	0.16267398
18	0xbd1fe989	-0.039041076
19	0x3e004323	0.1252561
20	0xbdf532cc	-0.11972579
21	0x3dae698c	0.08516225
22	0xbda7c3b0	-0.08191621
23	0x3e067977	0.13132273
24	0x3dff3186	0.12460618
25	0x3de5af38	0.11215061
26	0xbccf26f6	-0.025287133
27	0xbdac054f	-0.0839945
28	0x3d840443	0.06446125
29	0xbdad9140	-0.0847497
30	0xbd828c60	-0.06374431
31	0x3d791270	0.0608086

enc_mean.weight f4 [12, 32]
0	0x3db239ed	0.08702455
1	0xbe18eac5	-0.14933307
2	0xbe1552a1	-0.14582302
3	0xbe1cc944	-0.15311152
4	0xbb87468e	-0.004128284
5	0x3d8a52b9	0.06754059
6	0x3d06235c	0.032748565
7	0x3c3ca3bb	0.011513646
8	0xbe24d633	-0.16097336
9	0x3e1e1075	0.15435965
10	0xbd93aaa2	-0.0721028
11	0x3cd5af04	0.02608443
12	0x3e00c14c	0.12573737
13	0xbd857a60	-0.06517482
14	0xbdd2c29a	-0.102910236
15	0xbdd0ad56	-0.10189311
16	0x3d055411	0.032550875
17	0xbdb06203	-0.08612444
18	0xbdfa1295	-0.122105755
19	0xbcf4733d	-0.029840106
20	0xbe2a5052	-0.16632202
21	0xbd0b2422	-0.033970006
22	0x3de68b19	0.112569995
23	0xbd8bc151	-0.068239816
24	0xbc71edf4	-0.014766205
25	0xbc74fdb4	-0.014953066
26	0x3cf3a307	0.029740823
27	0x3d3ba6e0	0.04581344
28	0xbd2359f1	-0.039880697
29	0xbce868ce	-0.028370287
30	0xbcb877e8	-0.022518113
31	0x3cdb4331	0.026765438
32	0x3dbfa80e	0.09358226
33	0x3dc71db0	0.09722459
34	0xbdf24d38	-0.118311346
35	0x3de4f92f	0.111803405
36	0xbccfc909	-0.025364416
37	0x3e14c3eb	0.14527862
38	0xbe11c0c8	-0.14233696
39	0xbe3e867c	-0.18605989
40	0x3de7c598	0.11316985
41	0x3d39c2b8	0.045351714
42	0xbd16a397	-0.036777105
43	0xbdc0c372	-0.09412278
44	0xbce63bea	-0.028104741
45	0xbe070053	-0.13183717
46	0x3cb35778	0.021892294
47	0x3dce6915	0.100786366
48	0x3dafaf7b	0.08578392
49	0xbdd6894d	-0.10475407
50	0x3ddb1dc4	0.10699037
51	0xbe02ebfc	-0.12785333
52	0xbd9df44a	-0.0771261
53	0x3db29268	0.08719331
54	0x3d15a1c3	0.03653122
55	0x3d91b5c9	0.07114751
56	0x3d97abd0	0.074058175
57	0x3d1bc49d	0.038029302
58	0xb971abb5	-0.00023047517
59	0x3df86268	0.121281445
60	0x3d301a88	0.042994052
61	0x3d69bb9e	0.05706369
62	0x3b99c749	0.004692946
63	0xbd84b545	-0.06479887
64	0xbe28437d	-0.16431995
65	0x3d86c910	0.065813184
66	0xbdd60288	-0.104497015
67	0x3d491ca4	0.04909958
68	0xbd274af0	-0.04084295
69	0x3e27825a	0.16358319
70	0x3d743374	0.059619382
71	0xbb0a4895	-0.0021100391
72	0xbe1f08f1	-0.15530755
73	0xbd7e58b0	-0.062096298
74	0x3e0f310c	0.13983554
75	0xbd8d3a3f	-0.06895875
76	0x3c14ec48	0.009089537
77	0x3da8960e	0.08231746
78	0x3d326d7c	0.043561444
79	0xbe16408a	-0.14673057
80	0x3d63a336	0.055575572
81	0x3da6c1a1	0.081424005
82	0xbd7326c6	-0.05936315
83	0xbe213188	-0.15741551
84	0xbdbdafc6	-0.09262042
85	0xbd83f8b9	-0.064439245
86	0xbdd0af4f	-0.101896875
87	0xbd09e25b	-0.033663135
88	0x3ababdbe	0.0014247221
89	0xbd6d7442	-0.0579722
90	0x3df76bc0	0.120810986
91	0x3d868a7a	0.06569381
92	0x3e017bd6	0.12644896
93	0x3d989c78	0.07451719
94	0x3ddd019a	0.10791321
95	0x3da84eaf	0.08218133
96	0x3ddfac11	0.10921491
97	0x3e27eb7b	0.16398422
98	0x3d96a674	0.07355967
99	0x3e20a543	0.15688042
100	0xbd9d4fe5	-0.07681254
101	0x3b9ac8a1	0.004723624
102	0x3d121a43	0.035669576
103	0xbe2999e9	-0.16562618
104	0xbdfce0cc	-0.12347564
105	0x3e30e2cb	0.17274015
106	0xbddbfe4a	-0.10741861
107	0xbd80d25e	-0.06290124
108	0xbe08cf5a	-0.13360348
109	0x3dc21e92	0.09478487
110	0x3b564465	0.0032694575
111	0xbe16b1b8	-0.14716232
112	0xba3d5283	-0.0007222073
113	0xbda6a14b	-0.08136233
114	0x3dc09942	0.094042316
115	0xbe18d4ee	-0.14924976
116	0x3d12bb20	0.035822988
117	0xbd615fbf	-0.05502295
118	0xbd25119b	-0.040299993
119	0x3e231015	0.15924104
120	0xbe20892d	-0.15677328
121	0x3ceda458	0.02900903
122	0x3dabb1de	0.08383535
123	0x3d8e115c	0.06936905
124	0x3e4a4c91	0.1975577
125	0x3dfad21c	0.122471064
126	0x3e0857c9	0.13314737
127	0x3d3d2c40	0.04618478
128	0x3dfca201	0.12335587
129	0xbd8bee29	-0.06832535
130	0xbdee64f6	-0.116403505
131	0x3cb3f2ba	0.021966327
132	0xbd25b5f7	-0.04045674
133	0xbd85bb80	-0.065299034
134	0x3d84f76a	0.06492503
135	0x3dfc939a	0.1233284
136	0x3e263552	0.16231278
137	0x3e246c8b	0.16057031
138	0xba34a011	-0.0006890307
139	0x3e1db6cf	0.15401767
140	0xbd4c842d	-0.04993074
141	0xbd1b69aa	-0.037942566
142	0xbc877654	-0.016535915
143	0xbdea3066	-0.114350125
144	0xbe2d5708	-0.16927731
145	0x3e047f0c	0.1293909
146	0xbdb108be	-0.086442456
147	0x3dc80a67	0.09767609
148	0x3b630082	0.0034637754
149	0xbd119d56	-0.035550438
150	0xbc3a73eb	-0.011380176
151	0x3dcbc154	0.09948984
152	0xbdaaeb09	-0.08345611
153	0x3d84d48f	0.06485855
154	0xbd0efdf3	-0.034910154
155	0xbe002ab1	-0.12516285
156	0xbe085940	-0.13315296
157	0x3de1798d	0.11009512
158	0x3cd143f5	0.0255451
159	0x3d64e7fb	0.055885296
160	0xbe0fc96b	-0.14041679
161	0xbc8cca5d	-0.017186338
162	0x3c5f224b	0.013619016
163	0xbc9e130c	-0.019296192
164	0x3dc63311	0.09677709
165	0xbd7e011b	-0.062012773
166	0x3d9f3150	0.077730775
167	0x3e47f680	0.19527626
168	0x3e1b3b77	0.15159403
169	0x3e02da9d	0.12778707
170	0xbd6658f1	-0.056237165
171	0x3e27a23e	0.16370484
172	0xbe31176a	-0.17294088
173	0xbd8a7fd9	-0.06762666
174	0xbe0475a6	-0.12935504
175	0x3e1fe07f	0.15612982
176	0x3dbcb767	0.09214669
177	0x3e4406d3	0.19143228
178	0xba9fefe9	-0.0012202236
179	0x3da5faee	0.08104502
180	0x3e2c21f9	0.16809835
181	0xbcf0f04e	-0.029411461
182	0x3e1d8482	0.15382579
183	0x3d60c209	0.054872546
184	0xbd4eab78	-0.050456494
185	0xbe188fd8	-0.14898622
186	0x3e55aa29	0.20865692
187	0xbdb83fec	-0.08996567
188	0x3e29b6bc	0.16573614
189	0xbd05735a	-0.03258071
190	0xbe1e0250	-0.1543057
191	0x3c5e449a	0.013566161
192	0xbdb4b18c	-0.08822927
193	0xbcf90244	-0.030396588
194	0x3d3134b9	0.04326317
195	0xbd3841e4	-0.044984713
196	0x3e32536f	0.1741464
197	0x3d5caa26	0.053873204
198	0x3ccbfcff	0.024900911
199	0x3e1a895c	0.15091461
200	0xbdab860a	-0.08375175
201	0x3e0fc963	0.14041667
202	0xbc993d12	-0.018705878
203	0xbcc329b0	-0.02382359
204	0xbdd9c2a4	-0.10632828
205	0x3e01a227	0.12659512
206	0xbd277fa4	-0.040893212
207	0x3c76baa1	0.015059144
208	0xbd6ce136	-0.057831965
209	0x3e39a992	0.18131092
210	0x3d9554d7	0.072915725
211	0x3daecf18	0.08535594
212	0xbe063516	-0.13106188
213	0x3c59db8d	0.013296974
214	0x3e1892af	0.14899705
215	0xbc35b1b2	-0.011089729
216	0xbd72f479	-0.05931518
217	0x3e2cd329	0.16877426
218	0xbdf6c9df	-0.120502226
219	0xbe077ed9	-0.13231982
220	0xbcf4630d	-0.029832387
221	0x3e2689a4	0.16263443
222	0xbb537d0b	-0.0032270576
223	0xbdee00e2	-0.11621262
224	0xbdbe7b6e	-0.09300886
225	0x3e0d9949	0.13828005
226	0x3e1d7c44	0.15379435
227	0xbd48208d	-0.048859168
228	0x3e0c5658	0.13704813
229	0x3d1a7fb5	0.037719447
230	0x3d007085	0.031357307
231	0x3d9f9593	0.07792201
232	0xbe248292	-0.16065434
233	0xbe1161b5	-0.14197429
234	0xbce813a0	-0.02832967
235	0x3dfe7d86	0.124262854
236	0x3df6699d	0.12031863
237	0x3ddb44ba	0.10706468
238	0xbe087fa4	-0.13329941
239	0x3e05d357	0.13068901
240	0x3d49955c	0.049214706
241	0x3d989269	0.074498005
242	0xbdd633cc	-0.10459098
243	0xbd3a243d	-0.045444716
244	0xbdbd3d60	-0.09240222
245	0xbd8dd666	-0.06925659
246	0xbd9ce218	-0.076603115
247	0x3b68e882	0.0035538976
248	0xbd926b9a	-0.071494296
249	0x3d3ec6a4	0.046576157
250	0xbdc064e2	-0.09394242
251	0xbd4ac628	-0.049505383
252	0x3bf7eee5	0.0075663202
253	0xbc2703fc	-0.010193821
254	0x3da5a682	0.080883995
255	0xbe3d610d	-0.18494053

enc_mean.bias f4 [12]
0	0xbd670036	-0.056396686
1	0x3d1b7e69	0.03796235
2	0xbcbb22a6	-0.02284367
3	0x3e228fd1	0.15875174
4	0x3d8f5f24	0.070005685
5	0xbe12a830	-0.14321971
6	0xbe29607d	-0.16540714
7	0x3e188d3c	0.14897627
8	0xbb1e34a0	-0.0024140254
9	0xbdfd453f	-0.12366723
10	0x3d833961	0.064074285
11	0x3d2e319e	0.042527787
